<?xml version="1.0"?>
<net name="TensorFlow_Frontend_IR" version="11">
	<layers>
		<layer id="0" name="input_1" type="Parameter" version="opset1">
			<data shape="1,8" element_type="f32" />
			<output>
				<port id="0" precision="FP32" names="Func/StatefulPartitionedCall/input/_0,Func/StatefulPartitionedCall/input/_0:0,input_1,input_1:0">
					<dim>1</dim>
					<dim>8</dim>
				</port>
			</output>
		</layer>
		<layer id="1" name="unknown_3" type="Const" version="opset1">
			<data element_type="f32" shape="102400, 4" offset="0" size="1638400" />
			<output>
				<port id="0" precision="FP32" names="Func/StatefulPartitionedCall/input/_5,Func/StatefulPartitionedCall/input/_5:0,unknown_3,unknown_3:0">
					<dim>102400</dim>
					<dim>4</dim>
				</port>
			</output>
		</layer>
		<layer id="2" name="Constant_4215" type="Const" version="opset1">
			<data element_type="i64" shape="1" offset="1638400" size="8" />
			<output>
				<port id="0" precision="I64">
					<dim>1</dim>
				</port>
			</output>
		</layer>
		<layer id="3" name="Constant_4214" type="Const" version="opset1">
			<data element_type="i64" shape="1" offset="1638400" size="8" />
			<output>
				<port id="0" precision="I64">
					<dim>1</dim>
				</port>
			</output>
		</layer>
		<layer id="4" name="Constant_4213" type="Const" version="opset1">
			<data element_type="i64" shape="1" offset="1638400" size="8" />
			<output>
				<port id="0" precision="I64">
					<dim>1</dim>
				</port>
			</output>
		</layer>
		<layer id="5" name="Constant_4212" type="Const" version="opset1">
			<data element_type="i64" shape="1" offset="1638400" size="8" />
			<output>
				<port id="0" precision="I64">
					<dim>1</dim>
				</port>
			</output>
		</layer>
		<layer id="6" name="Constant_4211" type="Const" version="opset1">
			<data element_type="i64" shape="1" offset="1638400" size="8" />
			<output>
				<port id="0" precision="I64">
					<dim>1</dim>
				</port>
			</output>
		</layer>
		<layer id="7" name="Constant_4210" type="Const" version="opset1">
			<data element_type="i64" shape="1" offset="1638400" size="8" />
			<output>
				<port id="0" precision="I64">
					<dim>1</dim>
				</port>
			</output>
		</layer>
		<layer id="8" name="Constant_4209" type="Const" version="opset1">
			<data element_type="i64" shape="1" offset="1638400" size="8" />
			<output>
				<port id="0" precision="I64">
					<dim>1</dim>
				</port>
			</output>
		</layer>
		<layer id="9" name="Constant_4208" type="Const" version="opset1">
			<data element_type="i64" shape="1" offset="1638400" size="8" />
			<output>
				<port id="0" precision="I64">
					<dim>1</dim>
				</port>
			</output>
		</layer>
		<layer id="10" name="Constant_4207" type="Const" version="opset1">
			<data element_type="i64" shape="1" offset="1638400" size="8" />
			<output>
				<port id="0" precision="I64">
					<dim>1</dim>
				</port>
			</output>
		</layer>
		<layer id="11" name="unknown" type="Const" version="opset1">
			<data element_type="i64" shape="100" offset="1638408" size="800" />
			<output>
				<port id="0" precision="I64" names="Func/StatefulPartitionedCall/input/_1,Func/StatefulPartitionedCall/input/_1:0,StatefulPartitionedCall/first_keras/GatherV2/ReadVariableOp,StatefulPartitionedCall/first_keras/GatherV2/ReadVariableOp:0,unknown,unknown:0">
					<dim>100</dim>
				</port>
			</output>
		</layer>
		<layer id="12" name="StatefulPartitionedCall/first_keras/GatherV2/axis" type="Const" version="opset1">
			<data element_type="i32" shape="" offset="1639208" size="4" />
			<output>
				<port id="0" precision="I32" names="StatefulPartitionedCall/first_keras/GatherV2/axis,StatefulPartitionedCall/first_keras/GatherV2/axis:0" />
			</output>
		</layer>
		<layer id="13" name="StatefulPartitionedCall/first_keras/GatherV2" type="Gather" version="opset8">
			<data batch_dims="0" />
			<input>
				<port id="0" precision="FP32">
					<dim>1</dim>
					<dim>8</dim>
				</port>
				<port id="1" precision="I64">
					<dim>100</dim>
				</port>
				<port id="2" precision="I32" />
			</input>
			<output>
				<port id="3" precision="FP32" names="StatefulPartitionedCall/first_keras/GatherV2,StatefulPartitionedCall/first_keras/GatherV2:0">
					<dim>1</dim>
					<dim>100</dim>
				</port>
			</output>
		</layer>
		<layer id="14" name="Constant_4204" type="Const" version="opset1">
			<data element_type="f32" shape="1, 100" offset="1639212" size="400" />
			<output>
				<port id="0" precision="FP32">
					<dim>1</dim>
					<dim>100</dim>
				</port>
			</output>
		</layer>
		<layer id="15" name="StatefulPartitionedCall/first_keras/Less" type="Less" version="opset1">
			<data auto_broadcast="numpy" />
			<input>
				<port id="0" precision="FP32">
					<dim>1</dim>
					<dim>100</dim>
				</port>
				<port id="1" precision="FP32">
					<dim>1</dim>
					<dim>100</dim>
				</port>
			</input>
			<output>
				<port id="2" precision="BOOL" names="StatefulPartitionedCall/first_keras/Less,StatefulPartitionedCall/first_keras/Less:0">
					<dim>1</dim>
					<dim>100</dim>
				</port>
			</output>
		</layer>
		<layer id="16" name="StatefulPartitionedCall/first_keras/Cast" type="Convert" version="opset1">
			<data destination_type="f32" />
			<input>
				<port id="0" precision="BOOL">
					<dim>1</dim>
					<dim>100</dim>
				</port>
			</input>
			<output>
				<port id="1" precision="FP32" names="StatefulPartitionedCall/first_keras/Cast,StatefulPartitionedCall/first_keras/Cast:0">
					<dim>1</dim>
					<dim>100</dim>
				</port>
			</output>
		</layer>
		<layer id="17" name="Constant_4205" type="Const" version="opset1">
			<data element_type="f32" shape="1, 100" offset="1639212" size="400" />
			<output>
				<port id="0" precision="FP32">
					<dim>1</dim>
					<dim>100</dim>
				</port>
			</output>
		</layer>
		<layer id="18" name="StatefulPartitionedCall/first_keras/Equal" type="Equal" version="opset1">
			<data auto_broadcast="numpy" />
			<input>
				<port id="0" precision="FP32">
					<dim>1</dim>
					<dim>100</dim>
				</port>
				<port id="1" precision="FP32">
					<dim>1</dim>
					<dim>100</dim>
				</port>
			</input>
			<output>
				<port id="2" precision="BOOL" names="StatefulPartitionedCall/first_keras/Equal,StatefulPartitionedCall/first_keras/Equal:0">
					<dim>1</dim>
					<dim>100</dim>
				</port>
			</output>
		</layer>
		<layer id="19" name="StatefulPartitionedCall/first_keras/Cast_1" type="Convert" version="opset1">
			<data destination_type="f32" />
			<input>
				<port id="0" precision="BOOL">
					<dim>1</dim>
					<dim>100</dim>
				</port>
			</input>
			<output>
				<port id="1" precision="FP32" names="StatefulPartitionedCall/first_keras/Cast_1,StatefulPartitionedCall/first_keras/Cast_1:0">
					<dim>1</dim>
					<dim>100</dim>
				</port>
			</output>
		</layer>
		<layer id="20" name="StatefulPartitionedCall/first_keras/Add" type="Add" version="opset1">
			<data auto_broadcast="numpy" />
			<input>
				<port id="0" precision="FP32">
					<dim>1</dim>
					<dim>100</dim>
				</port>
				<port id="1" precision="FP32">
					<dim>1</dim>
					<dim>100</dim>
				</port>
			</input>
			<output>
				<port id="2" precision="FP32" names="StatefulPartitionedCall/first_keras/Add,StatefulPartitionedCall/first_keras/Add:0">
					<dim>1</dim>
					<dim>100</dim>
				</port>
			</output>
		</layer>
		<layer id="21" name="StatefulPartitionedCall/first_keras/Cast_2" type="Convert" version="opset1">
			<data destination_type="boolean" />
			<input>
				<port id="0" precision="FP32">
					<dim>1</dim>
					<dim>100</dim>
				</port>
			</input>
			<output>
				<port id="1" precision="BOOL" names="StatefulPartitionedCall/first_keras/Cast_2,StatefulPartitionedCall/first_keras/Cast_2:0">
					<dim>1</dim>
					<dim>100</dim>
				</port>
			</output>
		</layer>
		<layer id="22" name="StatefulPartitionedCall/first_keras/Cast_3" type="Convert" version="opset1">
			<data destination_type="i64" />
			<input>
				<port id="0" precision="BOOL">
					<dim>1</dim>
					<dim>100</dim>
				</port>
			</input>
			<output>
				<port id="1" precision="I64" names="StatefulPartitionedCall/first_keras/Cast_3,StatefulPartitionedCall/first_keras/Cast_3:0">
					<dim>1</dim>
					<dim>100</dim>
				</port>
			</output>
		</layer>
		<layer id="23" name="Constant_4206" type="Const" version="opset1">
			<data element_type="i64" shape="1, 100" offset="1639612" size="800" />
			<output>
				<port id="0" precision="I64">
					<dim>1</dim>
					<dim>100</dim>
				</port>
			</output>
		</layer>
		<layer id="24" name="StatefulPartitionedCall/first_keras/add_1" type="Add" version="opset1">
			<data auto_broadcast="numpy" />
			<input>
				<port id="0" precision="I64">
					<dim>1</dim>
					<dim>100</dim>
				</port>
				<port id="1" precision="I64">
					<dim>1</dim>
					<dim>100</dim>
				</port>
			</input>
			<output>
				<port id="2" precision="I64" names="StatefulPartitionedCall/first_keras/add_1,StatefulPartitionedCall/first_keras/add_1:0">
					<dim>1</dim>
					<dim>100</dim>
				</port>
			</output>
		</layer>
		<layer id="25" name="Constant_2115" type="Const" version="opset1">
			<data element_type="i64" shape="1" offset="1640412" size="8" />
			<output>
				<port id="0" precision="I64">
					<dim>1</dim>
				</port>
			</output>
		</layer>
		<layer id="26" name="StatefulPartitionedCall/first_keras/Reshape" type="Reshape" version="opset1">
			<data special_zero="false" />
			<input>
				<port id="0" precision="I64">
					<dim>1</dim>
					<dim>100</dim>
				</port>
				<port id="1" precision="I64">
					<dim>1</dim>
				</port>
			</input>
			<output>
				<port id="2" precision="I64" names="StatefulPartitionedCall/first_keras/Reshape,StatefulPartitionedCall/first_keras/Reshape:0">
					<dim>100</dim>
				</port>
			</output>
		</layer>
		<layer id="27" name="StatefulPartitionedCall/first_keras/mul" type="Multiply" version="opset1">
			<data auto_broadcast="numpy" />
			<input>
				<port id="0" precision="I64">
					<dim>1</dim>
				</port>
				<port id="1" precision="I64">
					<dim>100</dim>
				</port>
			</input>
			<output>
				<port id="2" precision="I64" names="StatefulPartitionedCall/first_keras/mul,StatefulPartitionedCall/first_keras/mul:0">
					<dim>100</dim>
				</port>
			</output>
		</layer>
		<layer id="28" name="StatefulPartitionedCall/first_keras/GatherV2_1/params" type="Const" version="opset1">
			<data element_type="i64" shape="200" offset="1640420" size="1600" />
			<output>
				<port id="0" precision="I64" names="StatefulPartitionedCall/first_keras/GatherV2_1/params,StatefulPartitionedCall/first_keras/GatherV2_1/params:0">
					<dim>200</dim>
				</port>
			</output>
		</layer>
		<layer id="29" name="StatefulPartitionedCall/first_keras/GatherV2_1/axis" type="Const" version="opset1">
			<data element_type="i32" shape="" offset="1642020" size="4" />
			<output>
				<port id="0" precision="I32" names="StatefulPartitionedCall/first_keras/GatherV2_1/axis,StatefulPartitionedCall/first_keras/GatherV2_1/axis:0" />
			</output>
		</layer>
		<layer id="30" name="StatefulPartitionedCall/first_keras/GatherV2_1" type="Gather" version="opset8">
			<data batch_dims="0" />
			<input>
				<port id="0" precision="I64">
					<dim>200</dim>
				</port>
				<port id="1" precision="I64">
					<dim>100</dim>
				</port>
				<port id="2" precision="I32" />
			</input>
			<output>
				<port id="3" precision="I64" names="StatefulPartitionedCall/first_keras/GatherV2_1,StatefulPartitionedCall/first_keras/GatherV2_1:0">
					<dim>100</dim>
				</port>
			</output>
		</layer>
		<layer id="31" name="Concat_721" type="Const" version="opset1">
			<data element_type="i32" shape="2" offset="1642024" size="8" />
			<output>
				<port id="0" precision="I32" names="StatefulPartitionedCall/first_keras/Reshape_1/shape,StatefulPartitionedCall/first_keras/Reshape_1/shape:0">
					<dim>2</dim>
				</port>
			</output>
		</layer>
		<layer id="32" name="StatefulPartitionedCall/first_keras/Reshape_1" type="Reshape" version="opset1">
			<data special_zero="false" />
			<input>
				<port id="0" precision="I64">
					<dim>100</dim>
				</port>
				<port id="1" precision="I32">
					<dim>2</dim>
				</port>
			</input>
			<output>
				<port id="2" precision="I64" names="StatefulPartitionedCall/first_keras/Reshape_1,StatefulPartitionedCall/first_keras/Reshape_1:0">
					<dim>1</dim>
					<dim>100</dim>
				</port>
			</output>
		</layer>
		<layer id="33" name="StatefulPartitionedCall/first_keras/GatherV2_2/axis" type="Const" version="opset1">
			<data element_type="i32" shape="" offset="1639208" size="4" />
			<output>
				<port id="0" precision="I32" names="StatefulPartitionedCall/first_keras/GatherV2_2/axis,StatefulPartitionedCall/first_keras/GatherV2_2/axis:0" />
			</output>
		</layer>
		<layer id="34" name="StatefulPartitionedCall/first_keras/GatherV2_2" type="Gather" version="opset8">
			<data batch_dims="0" />
			<input>
				<port id="0" precision="FP32">
					<dim>1</dim>
					<dim>8</dim>
				</port>
				<port id="1" precision="I64">
					<dim>1</dim>
					<dim>100</dim>
				</port>
				<port id="2" precision="I32" />
			</input>
			<output>
				<port id="3" precision="FP32" names="StatefulPartitionedCall/first_keras/GatherV2_2,StatefulPartitionedCall/first_keras/GatherV2_2:0">
					<dim>1</dim>
					<dim>1</dim>
					<dim>100</dim>
				</port>
			</output>
		</layer>
		<layer id="35" name="Constant_2116" type="Const" version="opset1">
			<data element_type="i64" shape="1" offset="1640412" size="8" />
			<output>
				<port id="0" precision="I64">
					<dim>1</dim>
				</port>
			</output>
		</layer>
		<layer id="36" name="StatefulPartitionedCall/first_keras/Reshape_2" type="Reshape" version="opset1">
			<data special_zero="false" />
			<input>
				<port id="0" precision="FP32">
					<dim>1</dim>
					<dim>1</dim>
					<dim>100</dim>
				</port>
				<port id="1" precision="I64">
					<dim>1</dim>
				</port>
			</input>
			<output>
				<port id="2" precision="FP32" names="StatefulPartitionedCall/first_keras/Reshape_2,StatefulPartitionedCall/first_keras/Reshape_2:0">
					<dim>100</dim>
				</port>
			</output>
		</layer>
		<layer id="37" name="StatefulPartitionedCall/first_keras/GatherV2_3/params" type="Const" version="opset1">
			<data element_type="f32" shape="200" offset="1642032" size="800" />
			<output>
				<port id="0" precision="FP32" names="StatefulPartitionedCall/first_keras/GatherV2_3/params,StatefulPartitionedCall/first_keras/GatherV2_3/params:0">
					<dim>200</dim>
				</port>
			</output>
		</layer>
		<layer id="38" name="StatefulPartitionedCall/first_keras/GatherV2_3/axis" type="Const" version="opset1">
			<data element_type="i32" shape="" offset="1642020" size="4" />
			<output>
				<port id="0" precision="I32" names="StatefulPartitionedCall/first_keras/GatherV2_3/axis,StatefulPartitionedCall/first_keras/GatherV2_3/axis:0" />
			</output>
		</layer>
		<layer id="39" name="StatefulPartitionedCall/first_keras/GatherV2_3" type="Gather" version="opset8">
			<data batch_dims="0" />
			<input>
				<port id="0" precision="FP32">
					<dim>200</dim>
				</port>
				<port id="1" precision="I64">
					<dim>100</dim>
				</port>
				<port id="2" precision="I32" />
			</input>
			<output>
				<port id="3" precision="FP32" names="StatefulPartitionedCall/first_keras/GatherV2_3,StatefulPartitionedCall/first_keras/GatherV2_3:0">
					<dim>100</dim>
				</port>
			</output>
		</layer>
		<layer id="40" name="StatefulPartitionedCall/first_keras/Less_1" type="Less" version="opset1">
			<data auto_broadcast="numpy" />
			<input>
				<port id="0" precision="FP32">
					<dim>100</dim>
				</port>
				<port id="1" precision="FP32">
					<dim>100</dim>
				</port>
			</input>
			<output>
				<port id="2" precision="BOOL" names="StatefulPartitionedCall/first_keras/Less_1,StatefulPartitionedCall/first_keras/Less_1:0">
					<dim>100</dim>
				</port>
			</output>
		</layer>
		<layer id="41" name="StatefulPartitionedCall/first_keras/Cast_4" type="Convert" version="opset1">
			<data destination_type="f32" />
			<input>
				<port id="0" precision="BOOL">
					<dim>100</dim>
				</port>
			</input>
			<output>
				<port id="1" precision="FP32" names="StatefulPartitionedCall/first_keras/Cast_4,StatefulPartitionedCall/first_keras/Cast_4:0">
					<dim>100</dim>
				</port>
			</output>
		</layer>
		<layer id="42" name="StatefulPartitionedCall/first_keras/Equal_1" type="Equal" version="opset1">
			<data auto_broadcast="numpy" />
			<input>
				<port id="0" precision="FP32">
					<dim>100</dim>
				</port>
				<port id="1" precision="FP32">
					<dim>100</dim>
				</port>
			</input>
			<output>
				<port id="2" precision="BOOL" names="StatefulPartitionedCall/first_keras/Equal_1,StatefulPartitionedCall/first_keras/Equal_1:0">
					<dim>100</dim>
				</port>
			</output>
		</layer>
		<layer id="43" name="StatefulPartitionedCall/first_keras/Cast_5" type="Convert" version="opset1">
			<data destination_type="f32" />
			<input>
				<port id="0" precision="BOOL">
					<dim>100</dim>
				</port>
			</input>
			<output>
				<port id="1" precision="FP32" names="StatefulPartitionedCall/first_keras/Cast_5,StatefulPartitionedCall/first_keras/Cast_5:0">
					<dim>100</dim>
				</port>
			</output>
		</layer>
		<layer id="44" name="StatefulPartitionedCall/first_keras/Add_2" type="Add" version="opset1">
			<data auto_broadcast="numpy" />
			<input>
				<port id="0" precision="FP32">
					<dim>100</dim>
				</port>
				<port id="1" precision="FP32">
					<dim>100</dim>
				</port>
			</input>
			<output>
				<port id="2" precision="FP32" names="StatefulPartitionedCall/first_keras/Add_2,StatefulPartitionedCall/first_keras/Add_2:0">
					<dim>100</dim>
				</port>
			</output>
		</layer>
		<layer id="45" name="StatefulPartitionedCall/first_keras/Cast_6" type="Convert" version="opset1">
			<data destination_type="boolean" />
			<input>
				<port id="0" precision="FP32">
					<dim>100</dim>
				</port>
			</input>
			<output>
				<port id="1" precision="BOOL" names="StatefulPartitionedCall/first_keras/Cast_6,StatefulPartitionedCall/first_keras/Cast_6:0">
					<dim>100</dim>
				</port>
			</output>
		</layer>
		<layer id="46" name="StatefulPartitionedCall/first_keras/Cast_7" type="Convert" version="opset1">
			<data destination_type="i64" />
			<input>
				<port id="0" precision="BOOL">
					<dim>100</dim>
				</port>
			</input>
			<output>
				<port id="1" precision="I64" names="StatefulPartitionedCall/first_keras/Cast_7,StatefulPartitionedCall/first_keras/Cast_7:0">
					<dim>100</dim>
				</port>
			</output>
		</layer>
		<layer id="47" name="StatefulPartitionedCall/first_keras/add_3" type="Add" version="opset1">
			<data auto_broadcast="numpy" />
			<input>
				<port id="0" precision="I64">
					<dim>100</dim>
				</port>
				<port id="1" precision="I64">
					<dim>100</dim>
				</port>
			</input>
			<output>
				<port id="2" precision="I64" names="StatefulPartitionedCall/first_keras/add_3,StatefulPartitionedCall/first_keras/add_3:0">
					<dim>100</dim>
				</port>
			</output>
		</layer>
		<layer id="48" name="StatefulPartitionedCall/first_keras/mul_1" type="Multiply" version="opset1">
			<data auto_broadcast="numpy" />
			<input>
				<port id="0" precision="I64">
					<dim>1</dim>
				</port>
				<port id="1" precision="I64">
					<dim>100</dim>
				</port>
			</input>
			<output>
				<port id="2" precision="I64" names="StatefulPartitionedCall/first_keras/mul_1,StatefulPartitionedCall/first_keras/mul_1:0">
					<dim>100</dim>
				</port>
			</output>
		</layer>
		<layer id="49" name="StatefulPartitionedCall/first_keras/GatherV2_4/params" type="Const" version="opset1">
			<data element_type="i64" shape="400" offset="1642832" size="3200" />
			<output>
				<port id="0" precision="I64" names="StatefulPartitionedCall/first_keras/GatherV2_4/params,StatefulPartitionedCall/first_keras/GatherV2_4/params:0">
					<dim>400</dim>
				</port>
			</output>
		</layer>
		<layer id="50" name="StatefulPartitionedCall/first_keras/GatherV2_4/axis" type="Const" version="opset1">
			<data element_type="i32" shape="" offset="1642020" size="4" />
			<output>
				<port id="0" precision="I32" names="StatefulPartitionedCall/first_keras/GatherV2_4/axis,StatefulPartitionedCall/first_keras/GatherV2_4/axis:0" />
			</output>
		</layer>
		<layer id="51" name="StatefulPartitionedCall/first_keras/GatherV2_4" type="Gather" version="opset8">
			<data batch_dims="0" />
			<input>
				<port id="0" precision="I64">
					<dim>400</dim>
				</port>
				<port id="1" precision="I64">
					<dim>100</dim>
				</port>
				<port id="2" precision="I32" />
			</input>
			<output>
				<port id="3" precision="I64" names="StatefulPartitionedCall/first_keras/GatherV2_4,StatefulPartitionedCall/first_keras/GatherV2_4:0">
					<dim>100</dim>
				</port>
			</output>
		</layer>
		<layer id="52" name="Concat_770" type="Const" version="opset1">
			<data element_type="i32" shape="2" offset="1642024" size="8" />
			<output>
				<port id="0" precision="I32" names="StatefulPartitionedCall/first_keras/Reshape_3/shape,StatefulPartitionedCall/first_keras/Reshape_3/shape:0">
					<dim>2</dim>
				</port>
			</output>
		</layer>
		<layer id="53" name="StatefulPartitionedCall/first_keras/Reshape_3" type="Reshape" version="opset1">
			<data special_zero="false" />
			<input>
				<port id="0" precision="I64">
					<dim>100</dim>
				</port>
				<port id="1" precision="I32">
					<dim>2</dim>
				</port>
			</input>
			<output>
				<port id="2" precision="I64" names="StatefulPartitionedCall/first_keras/Reshape_3,StatefulPartitionedCall/first_keras/Reshape_3:0">
					<dim>1</dim>
					<dim>100</dim>
				</port>
			</output>
		</layer>
		<layer id="54" name="StatefulPartitionedCall/first_keras/GatherV2_5/axis" type="Const" version="opset1">
			<data element_type="i32" shape="" offset="1639208" size="4" />
			<output>
				<port id="0" precision="I32" names="StatefulPartitionedCall/first_keras/GatherV2_5/axis,StatefulPartitionedCall/first_keras/GatherV2_5/axis:0" />
			</output>
		</layer>
		<layer id="55" name="StatefulPartitionedCall/first_keras/GatherV2_5" type="Gather" version="opset8">
			<data batch_dims="0" />
			<input>
				<port id="0" precision="FP32">
					<dim>1</dim>
					<dim>8</dim>
				</port>
				<port id="1" precision="I64">
					<dim>1</dim>
					<dim>100</dim>
				</port>
				<port id="2" precision="I32" />
			</input>
			<output>
				<port id="3" precision="FP32" names="StatefulPartitionedCall/first_keras/GatherV2_5,StatefulPartitionedCall/first_keras/GatherV2_5:0">
					<dim>1</dim>
					<dim>1</dim>
					<dim>100</dim>
				</port>
			</output>
		</layer>
		<layer id="56" name="Constant_2117" type="Const" version="opset1">
			<data element_type="i64" shape="1" offset="1640412" size="8" />
			<output>
				<port id="0" precision="I64">
					<dim>1</dim>
				</port>
			</output>
		</layer>
		<layer id="57" name="StatefulPartitionedCall/first_keras/Reshape_4" type="Reshape" version="opset1">
			<data special_zero="false" />
			<input>
				<port id="0" precision="FP32">
					<dim>1</dim>
					<dim>1</dim>
					<dim>100</dim>
				</port>
				<port id="1" precision="I64">
					<dim>1</dim>
				</port>
			</input>
			<output>
				<port id="2" precision="FP32" names="StatefulPartitionedCall/first_keras/Reshape_4,StatefulPartitionedCall/first_keras/Reshape_4:0">
					<dim>100</dim>
				</port>
			</output>
		</layer>
		<layer id="58" name="StatefulPartitionedCall/first_keras/GatherV2_6/params" type="Const" version="opset1">
			<data element_type="f32" shape="400" offset="1646032" size="1600" />
			<output>
				<port id="0" precision="FP32" names="StatefulPartitionedCall/first_keras/GatherV2_6/params,StatefulPartitionedCall/first_keras/GatherV2_6/params:0">
					<dim>400</dim>
				</port>
			</output>
		</layer>
		<layer id="59" name="StatefulPartitionedCall/first_keras/GatherV2_6/axis" type="Const" version="opset1">
			<data element_type="i32" shape="" offset="1642020" size="4" />
			<output>
				<port id="0" precision="I32" names="StatefulPartitionedCall/first_keras/GatherV2_6/axis,StatefulPartitionedCall/first_keras/GatherV2_6/axis:0" />
			</output>
		</layer>
		<layer id="60" name="StatefulPartitionedCall/first_keras/GatherV2_6" type="Gather" version="opset8">
			<data batch_dims="0" />
			<input>
				<port id="0" precision="FP32">
					<dim>400</dim>
				</port>
				<port id="1" precision="I64">
					<dim>100</dim>
				</port>
				<port id="2" precision="I32" />
			</input>
			<output>
				<port id="3" precision="FP32" names="StatefulPartitionedCall/first_keras/GatherV2_6,StatefulPartitionedCall/first_keras/GatherV2_6:0">
					<dim>100</dim>
				</port>
			</output>
		</layer>
		<layer id="61" name="StatefulPartitionedCall/first_keras/Less_2" type="Less" version="opset1">
			<data auto_broadcast="numpy" />
			<input>
				<port id="0" precision="FP32">
					<dim>100</dim>
				</port>
				<port id="1" precision="FP32">
					<dim>100</dim>
				</port>
			</input>
			<output>
				<port id="2" precision="BOOL" names="StatefulPartitionedCall/first_keras/Less_2,StatefulPartitionedCall/first_keras/Less_2:0">
					<dim>100</dim>
				</port>
			</output>
		</layer>
		<layer id="62" name="StatefulPartitionedCall/first_keras/Cast_8" type="Convert" version="opset1">
			<data destination_type="f32" />
			<input>
				<port id="0" precision="BOOL">
					<dim>100</dim>
				</port>
			</input>
			<output>
				<port id="1" precision="FP32" names="StatefulPartitionedCall/first_keras/Cast_8,StatefulPartitionedCall/first_keras/Cast_8:0">
					<dim>100</dim>
				</port>
			</output>
		</layer>
		<layer id="63" name="StatefulPartitionedCall/first_keras/Equal_2" type="Equal" version="opset1">
			<data auto_broadcast="numpy" />
			<input>
				<port id="0" precision="FP32">
					<dim>100</dim>
				</port>
				<port id="1" precision="FP32">
					<dim>100</dim>
				</port>
			</input>
			<output>
				<port id="2" precision="BOOL" names="StatefulPartitionedCall/first_keras/Equal_2,StatefulPartitionedCall/first_keras/Equal_2:0">
					<dim>100</dim>
				</port>
			</output>
		</layer>
		<layer id="64" name="StatefulPartitionedCall/first_keras/Cast_9" type="Convert" version="opset1">
			<data destination_type="f32" />
			<input>
				<port id="0" precision="BOOL">
					<dim>100</dim>
				</port>
			</input>
			<output>
				<port id="1" precision="FP32" names="StatefulPartitionedCall/first_keras/Cast_9,StatefulPartitionedCall/first_keras/Cast_9:0">
					<dim>100</dim>
				</port>
			</output>
		</layer>
		<layer id="65" name="StatefulPartitionedCall/first_keras/Add_4" type="Add" version="opset1">
			<data auto_broadcast="numpy" />
			<input>
				<port id="0" precision="FP32">
					<dim>100</dim>
				</port>
				<port id="1" precision="FP32">
					<dim>100</dim>
				</port>
			</input>
			<output>
				<port id="2" precision="FP32" names="StatefulPartitionedCall/first_keras/Add_4,StatefulPartitionedCall/first_keras/Add_4:0">
					<dim>100</dim>
				</port>
			</output>
		</layer>
		<layer id="66" name="StatefulPartitionedCall/first_keras/Cast_10" type="Convert" version="opset1">
			<data destination_type="boolean" />
			<input>
				<port id="0" precision="FP32">
					<dim>100</dim>
				</port>
			</input>
			<output>
				<port id="1" precision="BOOL" names="StatefulPartitionedCall/first_keras/Cast_10,StatefulPartitionedCall/first_keras/Cast_10:0">
					<dim>100</dim>
				</port>
			</output>
		</layer>
		<layer id="67" name="StatefulPartitionedCall/first_keras/Cast_11" type="Convert" version="opset1">
			<data destination_type="i64" />
			<input>
				<port id="0" precision="BOOL">
					<dim>100</dim>
				</port>
			</input>
			<output>
				<port id="1" precision="I64" names="StatefulPartitionedCall/first_keras/Cast_11,StatefulPartitionedCall/first_keras/Cast_11:0">
					<dim>100</dim>
				</port>
			</output>
		</layer>
		<layer id="68" name="StatefulPartitionedCall/first_keras/add_5" type="Add" version="opset1">
			<data auto_broadcast="numpy" />
			<input>
				<port id="0" precision="I64">
					<dim>100</dim>
				</port>
				<port id="1" precision="I64">
					<dim>100</dim>
				</port>
			</input>
			<output>
				<port id="2" precision="I64" names="StatefulPartitionedCall/first_keras/add_5,StatefulPartitionedCall/first_keras/add_5:0">
					<dim>100</dim>
				</port>
			</output>
		</layer>
		<layer id="69" name="StatefulPartitionedCall/first_keras/mul_2" type="Multiply" version="opset1">
			<data auto_broadcast="numpy" />
			<input>
				<port id="0" precision="I64">
					<dim>1</dim>
				</port>
				<port id="1" precision="I64">
					<dim>100</dim>
				</port>
			</input>
			<output>
				<port id="2" precision="I64" names="StatefulPartitionedCall/first_keras/mul_2,StatefulPartitionedCall/first_keras/mul_2:0">
					<dim>100</dim>
				</port>
			</output>
		</layer>
		<layer id="70" name="StatefulPartitionedCall/first_keras/GatherV2_7/params" type="Const" version="opset1">
			<data element_type="i64" shape="800" offset="1647632" size="6400" />
			<output>
				<port id="0" precision="I64" names="StatefulPartitionedCall/first_keras/GatherV2_7/params,StatefulPartitionedCall/first_keras/GatherV2_7/params:0">
					<dim>800</dim>
				</port>
			</output>
		</layer>
		<layer id="71" name="StatefulPartitionedCall/first_keras/GatherV2_7/axis" type="Const" version="opset1">
			<data element_type="i32" shape="" offset="1642020" size="4" />
			<output>
				<port id="0" precision="I32" names="StatefulPartitionedCall/first_keras/GatherV2_7/axis,StatefulPartitionedCall/first_keras/GatherV2_7/axis:0" />
			</output>
		</layer>
		<layer id="72" name="StatefulPartitionedCall/first_keras/GatherV2_7" type="Gather" version="opset8">
			<data batch_dims="0" />
			<input>
				<port id="0" precision="I64">
					<dim>800</dim>
				</port>
				<port id="1" precision="I64">
					<dim>100</dim>
				</port>
				<port id="2" precision="I32" />
			</input>
			<output>
				<port id="3" precision="I64" names="StatefulPartitionedCall/first_keras/GatherV2_7,StatefulPartitionedCall/first_keras/GatherV2_7:0">
					<dim>100</dim>
				</port>
			</output>
		</layer>
		<layer id="73" name="Concat_819" type="Const" version="opset1">
			<data element_type="i32" shape="2" offset="1642024" size="8" />
			<output>
				<port id="0" precision="I32" names="StatefulPartitionedCall/first_keras/Reshape_5/shape,StatefulPartitionedCall/first_keras/Reshape_5/shape:0">
					<dim>2</dim>
				</port>
			</output>
		</layer>
		<layer id="74" name="StatefulPartitionedCall/first_keras/Reshape_5" type="Reshape" version="opset1">
			<data special_zero="false" />
			<input>
				<port id="0" precision="I64">
					<dim>100</dim>
				</port>
				<port id="1" precision="I32">
					<dim>2</dim>
				</port>
			</input>
			<output>
				<port id="2" precision="I64" names="StatefulPartitionedCall/first_keras/Reshape_5,StatefulPartitionedCall/first_keras/Reshape_5:0">
					<dim>1</dim>
					<dim>100</dim>
				</port>
			</output>
		</layer>
		<layer id="75" name="StatefulPartitionedCall/first_keras/GatherV2_8/axis" type="Const" version="opset1">
			<data element_type="i32" shape="" offset="1639208" size="4" />
			<output>
				<port id="0" precision="I32" names="StatefulPartitionedCall/first_keras/GatherV2_8/axis,StatefulPartitionedCall/first_keras/GatherV2_8/axis:0" />
			</output>
		</layer>
		<layer id="76" name="StatefulPartitionedCall/first_keras/GatherV2_8" type="Gather" version="opset8">
			<data batch_dims="0" />
			<input>
				<port id="0" precision="FP32">
					<dim>1</dim>
					<dim>8</dim>
				</port>
				<port id="1" precision="I64">
					<dim>1</dim>
					<dim>100</dim>
				</port>
				<port id="2" precision="I32" />
			</input>
			<output>
				<port id="3" precision="FP32" names="StatefulPartitionedCall/first_keras/GatherV2_8,StatefulPartitionedCall/first_keras/GatherV2_8:0">
					<dim>1</dim>
					<dim>1</dim>
					<dim>100</dim>
				</port>
			</output>
		</layer>
		<layer id="77" name="Constant_2118" type="Const" version="opset1">
			<data element_type="i64" shape="1" offset="1640412" size="8" />
			<output>
				<port id="0" precision="I64">
					<dim>1</dim>
				</port>
			</output>
		</layer>
		<layer id="78" name="StatefulPartitionedCall/first_keras/Reshape_6" type="Reshape" version="opset1">
			<data special_zero="false" />
			<input>
				<port id="0" precision="FP32">
					<dim>1</dim>
					<dim>1</dim>
					<dim>100</dim>
				</port>
				<port id="1" precision="I64">
					<dim>1</dim>
				</port>
			</input>
			<output>
				<port id="2" precision="FP32" names="StatefulPartitionedCall/first_keras/Reshape_6,StatefulPartitionedCall/first_keras/Reshape_6:0">
					<dim>100</dim>
				</port>
			</output>
		</layer>
		<layer id="79" name="StatefulPartitionedCall/first_keras/GatherV2_9/params" type="Const" version="opset1">
			<data element_type="f32" shape="800" offset="1654032" size="3200" />
			<output>
				<port id="0" precision="FP32" names="StatefulPartitionedCall/first_keras/GatherV2_9/params,StatefulPartitionedCall/first_keras/GatherV2_9/params:0">
					<dim>800</dim>
				</port>
			</output>
		</layer>
		<layer id="80" name="StatefulPartitionedCall/first_keras/GatherV2_9/axis" type="Const" version="opset1">
			<data element_type="i32" shape="" offset="1642020" size="4" />
			<output>
				<port id="0" precision="I32" names="StatefulPartitionedCall/first_keras/GatherV2_9/axis,StatefulPartitionedCall/first_keras/GatherV2_9/axis:0" />
			</output>
		</layer>
		<layer id="81" name="StatefulPartitionedCall/first_keras/GatherV2_9" type="Gather" version="opset8">
			<data batch_dims="0" />
			<input>
				<port id="0" precision="FP32">
					<dim>800</dim>
				</port>
				<port id="1" precision="I64">
					<dim>100</dim>
				</port>
				<port id="2" precision="I32" />
			</input>
			<output>
				<port id="3" precision="FP32" names="StatefulPartitionedCall/first_keras/GatherV2_9,StatefulPartitionedCall/first_keras/GatherV2_9:0">
					<dim>100</dim>
				</port>
			</output>
		</layer>
		<layer id="82" name="StatefulPartitionedCall/first_keras/Less_3" type="Less" version="opset1">
			<data auto_broadcast="numpy" />
			<input>
				<port id="0" precision="FP32">
					<dim>100</dim>
				</port>
				<port id="1" precision="FP32">
					<dim>100</dim>
				</port>
			</input>
			<output>
				<port id="2" precision="BOOL" names="StatefulPartitionedCall/first_keras/Less_3,StatefulPartitionedCall/first_keras/Less_3:0">
					<dim>100</dim>
				</port>
			</output>
		</layer>
		<layer id="83" name="StatefulPartitionedCall/first_keras/Cast_12" type="Convert" version="opset1">
			<data destination_type="f32" />
			<input>
				<port id="0" precision="BOOL">
					<dim>100</dim>
				</port>
			</input>
			<output>
				<port id="1" precision="FP32" names="StatefulPartitionedCall/first_keras/Cast_12,StatefulPartitionedCall/first_keras/Cast_12:0">
					<dim>100</dim>
				</port>
			</output>
		</layer>
		<layer id="84" name="StatefulPartitionedCall/first_keras/Equal_3" type="Equal" version="opset1">
			<data auto_broadcast="numpy" />
			<input>
				<port id="0" precision="FP32">
					<dim>100</dim>
				</port>
				<port id="1" precision="FP32">
					<dim>100</dim>
				</port>
			</input>
			<output>
				<port id="2" precision="BOOL" names="StatefulPartitionedCall/first_keras/Equal_3,StatefulPartitionedCall/first_keras/Equal_3:0">
					<dim>100</dim>
				</port>
			</output>
		</layer>
		<layer id="85" name="StatefulPartitionedCall/first_keras/Cast_13" type="Convert" version="opset1">
			<data destination_type="f32" />
			<input>
				<port id="0" precision="BOOL">
					<dim>100</dim>
				</port>
			</input>
			<output>
				<port id="1" precision="FP32" names="StatefulPartitionedCall/first_keras/Cast_13,StatefulPartitionedCall/first_keras/Cast_13:0">
					<dim>100</dim>
				</port>
			</output>
		</layer>
		<layer id="86" name="StatefulPartitionedCall/first_keras/Add_6" type="Add" version="opset1">
			<data auto_broadcast="numpy" />
			<input>
				<port id="0" precision="FP32">
					<dim>100</dim>
				</port>
				<port id="1" precision="FP32">
					<dim>100</dim>
				</port>
			</input>
			<output>
				<port id="2" precision="FP32" names="StatefulPartitionedCall/first_keras/Add_6,StatefulPartitionedCall/first_keras/Add_6:0">
					<dim>100</dim>
				</port>
			</output>
		</layer>
		<layer id="87" name="StatefulPartitionedCall/first_keras/Cast_14" type="Convert" version="opset1">
			<data destination_type="boolean" />
			<input>
				<port id="0" precision="FP32">
					<dim>100</dim>
				</port>
			</input>
			<output>
				<port id="1" precision="BOOL" names="StatefulPartitionedCall/first_keras/Cast_14,StatefulPartitionedCall/first_keras/Cast_14:0">
					<dim>100</dim>
				</port>
			</output>
		</layer>
		<layer id="88" name="StatefulPartitionedCall/first_keras/Cast_15" type="Convert" version="opset1">
			<data destination_type="i64" />
			<input>
				<port id="0" precision="BOOL">
					<dim>100</dim>
				</port>
			</input>
			<output>
				<port id="1" precision="I64" names="StatefulPartitionedCall/first_keras/Cast_15,StatefulPartitionedCall/first_keras/Cast_15:0">
					<dim>100</dim>
				</port>
			</output>
		</layer>
		<layer id="89" name="StatefulPartitionedCall/first_keras/add_7" type="Add" version="opset1">
			<data auto_broadcast="numpy" />
			<input>
				<port id="0" precision="I64">
					<dim>100</dim>
				</port>
				<port id="1" precision="I64">
					<dim>100</dim>
				</port>
			</input>
			<output>
				<port id="2" precision="I64" names="StatefulPartitionedCall/first_keras/add_7,StatefulPartitionedCall/first_keras/add_7:0">
					<dim>100</dim>
				</port>
			</output>
		</layer>
		<layer id="90" name="StatefulPartitionedCall/first_keras/mul_3" type="Multiply" version="opset1">
			<data auto_broadcast="numpy" />
			<input>
				<port id="0" precision="I64">
					<dim>1</dim>
				</port>
				<port id="1" precision="I64">
					<dim>100</dim>
				</port>
			</input>
			<output>
				<port id="2" precision="I64" names="StatefulPartitionedCall/first_keras/mul_3,StatefulPartitionedCall/first_keras/mul_3:0">
					<dim>100</dim>
				</port>
			</output>
		</layer>
		<layer id="91" name="StatefulPartitionedCall/first_keras/GatherV2_10/params" type="Const" version="opset1">
			<data element_type="i64" shape="1600" offset="1657232" size="12800" />
			<output>
				<port id="0" precision="I64" names="StatefulPartitionedCall/first_keras/GatherV2_10/params,StatefulPartitionedCall/first_keras/GatherV2_10/params:0">
					<dim>1600</dim>
				</port>
			</output>
		</layer>
		<layer id="92" name="StatefulPartitionedCall/first_keras/GatherV2_10/axis" type="Const" version="opset1">
			<data element_type="i32" shape="" offset="1642020" size="4" />
			<output>
				<port id="0" precision="I32" names="StatefulPartitionedCall/first_keras/GatherV2_10/axis,StatefulPartitionedCall/first_keras/GatherV2_10/axis:0" />
			</output>
		</layer>
		<layer id="93" name="StatefulPartitionedCall/first_keras/GatherV2_10" type="Gather" version="opset8">
			<data batch_dims="0" />
			<input>
				<port id="0" precision="I64">
					<dim>1600</dim>
				</port>
				<port id="1" precision="I64">
					<dim>100</dim>
				</port>
				<port id="2" precision="I32" />
			</input>
			<output>
				<port id="3" precision="I64" names="StatefulPartitionedCall/first_keras/GatherV2_10,StatefulPartitionedCall/first_keras/GatherV2_10:0">
					<dim>100</dim>
				</port>
			</output>
		</layer>
		<layer id="94" name="Concat_868" type="Const" version="opset1">
			<data element_type="i32" shape="2" offset="1642024" size="8" />
			<output>
				<port id="0" precision="I32" names="StatefulPartitionedCall/first_keras/Reshape_7/shape,StatefulPartitionedCall/first_keras/Reshape_7/shape:0">
					<dim>2</dim>
				</port>
			</output>
		</layer>
		<layer id="95" name="StatefulPartitionedCall/first_keras/Reshape_7" type="Reshape" version="opset1">
			<data special_zero="false" />
			<input>
				<port id="0" precision="I64">
					<dim>100</dim>
				</port>
				<port id="1" precision="I32">
					<dim>2</dim>
				</port>
			</input>
			<output>
				<port id="2" precision="I64" names="StatefulPartitionedCall/first_keras/Reshape_7,StatefulPartitionedCall/first_keras/Reshape_7:0">
					<dim>1</dim>
					<dim>100</dim>
				</port>
			</output>
		</layer>
		<layer id="96" name="StatefulPartitionedCall/first_keras/GatherV2_11/axis" type="Const" version="opset1">
			<data element_type="i32" shape="" offset="1639208" size="4" />
			<output>
				<port id="0" precision="I32" names="StatefulPartitionedCall/first_keras/GatherV2_11/axis,StatefulPartitionedCall/first_keras/GatherV2_11/axis:0" />
			</output>
		</layer>
		<layer id="97" name="StatefulPartitionedCall/first_keras/GatherV2_11" type="Gather" version="opset8">
			<data batch_dims="0" />
			<input>
				<port id="0" precision="FP32">
					<dim>1</dim>
					<dim>8</dim>
				</port>
				<port id="1" precision="I64">
					<dim>1</dim>
					<dim>100</dim>
				</port>
				<port id="2" precision="I32" />
			</input>
			<output>
				<port id="3" precision="FP32" names="StatefulPartitionedCall/first_keras/GatherV2_11,StatefulPartitionedCall/first_keras/GatherV2_11:0">
					<dim>1</dim>
					<dim>1</dim>
					<dim>100</dim>
				</port>
			</output>
		</layer>
		<layer id="98" name="Constant_2119" type="Const" version="opset1">
			<data element_type="i64" shape="1" offset="1640412" size="8" />
			<output>
				<port id="0" precision="I64">
					<dim>1</dim>
				</port>
			</output>
		</layer>
		<layer id="99" name="StatefulPartitionedCall/first_keras/Reshape_8" type="Reshape" version="opset1">
			<data special_zero="false" />
			<input>
				<port id="0" precision="FP32">
					<dim>1</dim>
					<dim>1</dim>
					<dim>100</dim>
				</port>
				<port id="1" precision="I64">
					<dim>1</dim>
				</port>
			</input>
			<output>
				<port id="2" precision="FP32" names="StatefulPartitionedCall/first_keras/Reshape_8,StatefulPartitionedCall/first_keras/Reshape_8:0">
					<dim>100</dim>
				</port>
			</output>
		</layer>
		<layer id="100" name="StatefulPartitionedCall/first_keras/GatherV2_12/params" type="Const" version="opset1">
			<data element_type="f32" shape="1600" offset="1670032" size="6400" />
			<output>
				<port id="0" precision="FP32" names="StatefulPartitionedCall/first_keras/GatherV2_12/params,StatefulPartitionedCall/first_keras/GatherV2_12/params:0">
					<dim>1600</dim>
				</port>
			</output>
		</layer>
		<layer id="101" name="StatefulPartitionedCall/first_keras/GatherV2_12/axis" type="Const" version="opset1">
			<data element_type="i32" shape="" offset="1642020" size="4" />
			<output>
				<port id="0" precision="I32" names="StatefulPartitionedCall/first_keras/GatherV2_12/axis,StatefulPartitionedCall/first_keras/GatherV2_12/axis:0" />
			</output>
		</layer>
		<layer id="102" name="StatefulPartitionedCall/first_keras/GatherV2_12" type="Gather" version="opset8">
			<data batch_dims="0" />
			<input>
				<port id="0" precision="FP32">
					<dim>1600</dim>
				</port>
				<port id="1" precision="I64">
					<dim>100</dim>
				</port>
				<port id="2" precision="I32" />
			</input>
			<output>
				<port id="3" precision="FP32" names="StatefulPartitionedCall/first_keras/GatherV2_12,StatefulPartitionedCall/first_keras/GatherV2_12:0">
					<dim>100</dim>
				</port>
			</output>
		</layer>
		<layer id="103" name="StatefulPartitionedCall/first_keras/Less_4" type="Less" version="opset1">
			<data auto_broadcast="numpy" />
			<input>
				<port id="0" precision="FP32">
					<dim>100</dim>
				</port>
				<port id="1" precision="FP32">
					<dim>100</dim>
				</port>
			</input>
			<output>
				<port id="2" precision="BOOL" names="StatefulPartitionedCall/first_keras/Less_4,StatefulPartitionedCall/first_keras/Less_4:0">
					<dim>100</dim>
				</port>
			</output>
		</layer>
		<layer id="104" name="StatefulPartitionedCall/first_keras/Cast_16" type="Convert" version="opset1">
			<data destination_type="f32" />
			<input>
				<port id="0" precision="BOOL">
					<dim>100</dim>
				</port>
			</input>
			<output>
				<port id="1" precision="FP32" names="StatefulPartitionedCall/first_keras/Cast_16,StatefulPartitionedCall/first_keras/Cast_16:0">
					<dim>100</dim>
				</port>
			</output>
		</layer>
		<layer id="105" name="StatefulPartitionedCall/first_keras/Equal_4" type="Equal" version="opset1">
			<data auto_broadcast="numpy" />
			<input>
				<port id="0" precision="FP32">
					<dim>100</dim>
				</port>
				<port id="1" precision="FP32">
					<dim>100</dim>
				</port>
			</input>
			<output>
				<port id="2" precision="BOOL" names="StatefulPartitionedCall/first_keras/Equal_4,StatefulPartitionedCall/first_keras/Equal_4:0">
					<dim>100</dim>
				</port>
			</output>
		</layer>
		<layer id="106" name="StatefulPartitionedCall/first_keras/Cast_17" type="Convert" version="opset1">
			<data destination_type="f32" />
			<input>
				<port id="0" precision="BOOL">
					<dim>100</dim>
				</port>
			</input>
			<output>
				<port id="1" precision="FP32" names="StatefulPartitionedCall/first_keras/Cast_17,StatefulPartitionedCall/first_keras/Cast_17:0">
					<dim>100</dim>
				</port>
			</output>
		</layer>
		<layer id="107" name="StatefulPartitionedCall/first_keras/Add_8" type="Add" version="opset1">
			<data auto_broadcast="numpy" />
			<input>
				<port id="0" precision="FP32">
					<dim>100</dim>
				</port>
				<port id="1" precision="FP32">
					<dim>100</dim>
				</port>
			</input>
			<output>
				<port id="2" precision="FP32" names="StatefulPartitionedCall/first_keras/Add_8,StatefulPartitionedCall/first_keras/Add_8:0">
					<dim>100</dim>
				</port>
			</output>
		</layer>
		<layer id="108" name="StatefulPartitionedCall/first_keras/Cast_18" type="Convert" version="opset1">
			<data destination_type="boolean" />
			<input>
				<port id="0" precision="FP32">
					<dim>100</dim>
				</port>
			</input>
			<output>
				<port id="1" precision="BOOL" names="StatefulPartitionedCall/first_keras/Cast_18,StatefulPartitionedCall/first_keras/Cast_18:0">
					<dim>100</dim>
				</port>
			</output>
		</layer>
		<layer id="109" name="StatefulPartitionedCall/first_keras/Cast_19" type="Convert" version="opset1">
			<data destination_type="i64" />
			<input>
				<port id="0" precision="BOOL">
					<dim>100</dim>
				</port>
			</input>
			<output>
				<port id="1" precision="I64" names="StatefulPartitionedCall/first_keras/Cast_19,StatefulPartitionedCall/first_keras/Cast_19:0">
					<dim>100</dim>
				</port>
			</output>
		</layer>
		<layer id="110" name="StatefulPartitionedCall/first_keras/add_9" type="Add" version="opset1">
			<data auto_broadcast="numpy" />
			<input>
				<port id="0" precision="I64">
					<dim>100</dim>
				</port>
				<port id="1" precision="I64">
					<dim>100</dim>
				</port>
			</input>
			<output>
				<port id="2" precision="I64" names="StatefulPartitionedCall/first_keras/add_9,StatefulPartitionedCall/first_keras/add_9:0">
					<dim>100</dim>
				</port>
			</output>
		</layer>
		<layer id="111" name="StatefulPartitionedCall/first_keras/mul_4" type="Multiply" version="opset1">
			<data auto_broadcast="numpy" />
			<input>
				<port id="0" precision="I64">
					<dim>1</dim>
				</port>
				<port id="1" precision="I64">
					<dim>100</dim>
				</port>
			</input>
			<output>
				<port id="2" precision="I64" names="StatefulPartitionedCall/first_keras/mul_4,StatefulPartitionedCall/first_keras/mul_4:0">
					<dim>100</dim>
				</port>
			</output>
		</layer>
		<layer id="112" name="StatefulPartitionedCall/first_keras/GatherV2_13/params" type="Const" version="opset1">
			<data element_type="i64" shape="3200" offset="1676432" size="25600" />
			<output>
				<port id="0" precision="I64" names="StatefulPartitionedCall/first_keras/GatherV2_13/params,StatefulPartitionedCall/first_keras/GatherV2_13/params:0">
					<dim>3200</dim>
				</port>
			</output>
		</layer>
		<layer id="113" name="StatefulPartitionedCall/first_keras/GatherV2_13/axis" type="Const" version="opset1">
			<data element_type="i32" shape="" offset="1642020" size="4" />
			<output>
				<port id="0" precision="I32" names="StatefulPartitionedCall/first_keras/GatherV2_13/axis,StatefulPartitionedCall/first_keras/GatherV2_13/axis:0" />
			</output>
		</layer>
		<layer id="114" name="StatefulPartitionedCall/first_keras/GatherV2_13" type="Gather" version="opset8">
			<data batch_dims="0" />
			<input>
				<port id="0" precision="I64">
					<dim>3200</dim>
				</port>
				<port id="1" precision="I64">
					<dim>100</dim>
				</port>
				<port id="2" precision="I32" />
			</input>
			<output>
				<port id="3" precision="I64" names="StatefulPartitionedCall/first_keras/GatherV2_13,StatefulPartitionedCall/first_keras/GatherV2_13:0">
					<dim>100</dim>
				</port>
			</output>
		</layer>
		<layer id="115" name="Concat_917" type="Const" version="opset1">
			<data element_type="i32" shape="2" offset="1642024" size="8" />
			<output>
				<port id="0" precision="I32" names="StatefulPartitionedCall/first_keras/Reshape_9/shape,StatefulPartitionedCall/first_keras/Reshape_9/shape:0">
					<dim>2</dim>
				</port>
			</output>
		</layer>
		<layer id="116" name="StatefulPartitionedCall/first_keras/Reshape_9" type="Reshape" version="opset1">
			<data special_zero="false" />
			<input>
				<port id="0" precision="I64">
					<dim>100</dim>
				</port>
				<port id="1" precision="I32">
					<dim>2</dim>
				</port>
			</input>
			<output>
				<port id="2" precision="I64" names="StatefulPartitionedCall/first_keras/Reshape_9,StatefulPartitionedCall/first_keras/Reshape_9:0">
					<dim>1</dim>
					<dim>100</dim>
				</port>
			</output>
		</layer>
		<layer id="117" name="StatefulPartitionedCall/first_keras/GatherV2_14/axis" type="Const" version="opset1">
			<data element_type="i32" shape="" offset="1639208" size="4" />
			<output>
				<port id="0" precision="I32" names="StatefulPartitionedCall/first_keras/GatherV2_14/axis,StatefulPartitionedCall/first_keras/GatherV2_14/axis:0" />
			</output>
		</layer>
		<layer id="118" name="StatefulPartitionedCall/first_keras/GatherV2_14" type="Gather" version="opset8">
			<data batch_dims="0" />
			<input>
				<port id="0" precision="FP32">
					<dim>1</dim>
					<dim>8</dim>
				</port>
				<port id="1" precision="I64">
					<dim>1</dim>
					<dim>100</dim>
				</port>
				<port id="2" precision="I32" />
			</input>
			<output>
				<port id="3" precision="FP32" names="StatefulPartitionedCall/first_keras/GatherV2_14,StatefulPartitionedCall/first_keras/GatherV2_14:0">
					<dim>1</dim>
					<dim>1</dim>
					<dim>100</dim>
				</port>
			</output>
		</layer>
		<layer id="119" name="Constant_2120" type="Const" version="opset1">
			<data element_type="i64" shape="1" offset="1640412" size="8" />
			<output>
				<port id="0" precision="I64">
					<dim>1</dim>
				</port>
			</output>
		</layer>
		<layer id="120" name="StatefulPartitionedCall/first_keras/Reshape_10" type="Reshape" version="opset1">
			<data special_zero="false" />
			<input>
				<port id="0" precision="FP32">
					<dim>1</dim>
					<dim>1</dim>
					<dim>100</dim>
				</port>
				<port id="1" precision="I64">
					<dim>1</dim>
				</port>
			</input>
			<output>
				<port id="2" precision="FP32" names="StatefulPartitionedCall/first_keras/Reshape_10,StatefulPartitionedCall/first_keras/Reshape_10:0">
					<dim>100</dim>
				</port>
			</output>
		</layer>
		<layer id="121" name="StatefulPartitionedCall/first_keras/GatherV2_15/params" type="Const" version="opset1">
			<data element_type="f32" shape="3200" offset="1702032" size="12800" />
			<output>
				<port id="0" precision="FP32" names="StatefulPartitionedCall/first_keras/GatherV2_15/params,StatefulPartitionedCall/first_keras/GatherV2_15/params:0">
					<dim>3200</dim>
				</port>
			</output>
		</layer>
		<layer id="122" name="StatefulPartitionedCall/first_keras/GatherV2_15/axis" type="Const" version="opset1">
			<data element_type="i32" shape="" offset="1642020" size="4" />
			<output>
				<port id="0" precision="I32" names="StatefulPartitionedCall/first_keras/GatherV2_15/axis,StatefulPartitionedCall/first_keras/GatherV2_15/axis:0" />
			</output>
		</layer>
		<layer id="123" name="StatefulPartitionedCall/first_keras/GatherV2_15" type="Gather" version="opset8">
			<data batch_dims="0" />
			<input>
				<port id="0" precision="FP32">
					<dim>3200</dim>
				</port>
				<port id="1" precision="I64">
					<dim>100</dim>
				</port>
				<port id="2" precision="I32" />
			</input>
			<output>
				<port id="3" precision="FP32" names="StatefulPartitionedCall/first_keras/GatherV2_15,StatefulPartitionedCall/first_keras/GatherV2_15:0">
					<dim>100</dim>
				</port>
			</output>
		</layer>
		<layer id="124" name="StatefulPartitionedCall/first_keras/Less_5" type="Less" version="opset1">
			<data auto_broadcast="numpy" />
			<input>
				<port id="0" precision="FP32">
					<dim>100</dim>
				</port>
				<port id="1" precision="FP32">
					<dim>100</dim>
				</port>
			</input>
			<output>
				<port id="2" precision="BOOL" names="StatefulPartitionedCall/first_keras/Less_5,StatefulPartitionedCall/first_keras/Less_5:0">
					<dim>100</dim>
				</port>
			</output>
		</layer>
		<layer id="125" name="StatefulPartitionedCall/first_keras/Cast_20" type="Convert" version="opset1">
			<data destination_type="f32" />
			<input>
				<port id="0" precision="BOOL">
					<dim>100</dim>
				</port>
			</input>
			<output>
				<port id="1" precision="FP32" names="StatefulPartitionedCall/first_keras/Cast_20,StatefulPartitionedCall/first_keras/Cast_20:0">
					<dim>100</dim>
				</port>
			</output>
		</layer>
		<layer id="126" name="StatefulPartitionedCall/first_keras/Equal_5" type="Equal" version="opset1">
			<data auto_broadcast="numpy" />
			<input>
				<port id="0" precision="FP32">
					<dim>100</dim>
				</port>
				<port id="1" precision="FP32">
					<dim>100</dim>
				</port>
			</input>
			<output>
				<port id="2" precision="BOOL" names="StatefulPartitionedCall/first_keras/Equal_5,StatefulPartitionedCall/first_keras/Equal_5:0">
					<dim>100</dim>
				</port>
			</output>
		</layer>
		<layer id="127" name="StatefulPartitionedCall/first_keras/Cast_21" type="Convert" version="opset1">
			<data destination_type="f32" />
			<input>
				<port id="0" precision="BOOL">
					<dim>100</dim>
				</port>
			</input>
			<output>
				<port id="1" precision="FP32" names="StatefulPartitionedCall/first_keras/Cast_21,StatefulPartitionedCall/first_keras/Cast_21:0">
					<dim>100</dim>
				</port>
			</output>
		</layer>
		<layer id="128" name="StatefulPartitionedCall/first_keras/Add_10" type="Add" version="opset1">
			<data auto_broadcast="numpy" />
			<input>
				<port id="0" precision="FP32">
					<dim>100</dim>
				</port>
				<port id="1" precision="FP32">
					<dim>100</dim>
				</port>
			</input>
			<output>
				<port id="2" precision="FP32" names="StatefulPartitionedCall/first_keras/Add_10,StatefulPartitionedCall/first_keras/Add_10:0">
					<dim>100</dim>
				</port>
			</output>
		</layer>
		<layer id="129" name="StatefulPartitionedCall/first_keras/Cast_22" type="Convert" version="opset1">
			<data destination_type="boolean" />
			<input>
				<port id="0" precision="FP32">
					<dim>100</dim>
				</port>
			</input>
			<output>
				<port id="1" precision="BOOL" names="StatefulPartitionedCall/first_keras/Cast_22,StatefulPartitionedCall/first_keras/Cast_22:0">
					<dim>100</dim>
				</port>
			</output>
		</layer>
		<layer id="130" name="StatefulPartitionedCall/first_keras/Cast_23" type="Convert" version="opset1">
			<data destination_type="i64" />
			<input>
				<port id="0" precision="BOOL">
					<dim>100</dim>
				</port>
			</input>
			<output>
				<port id="1" precision="I64" names="StatefulPartitionedCall/first_keras/Cast_23,StatefulPartitionedCall/first_keras/Cast_23:0">
					<dim>100</dim>
				</port>
			</output>
		</layer>
		<layer id="131" name="StatefulPartitionedCall/first_keras/add_11" type="Add" version="opset1">
			<data auto_broadcast="numpy" />
			<input>
				<port id="0" precision="I64">
					<dim>100</dim>
				</port>
				<port id="1" precision="I64">
					<dim>100</dim>
				</port>
			</input>
			<output>
				<port id="2" precision="I64" names="StatefulPartitionedCall/first_keras/add_11,StatefulPartitionedCall/first_keras/add_11:0">
					<dim>100</dim>
				</port>
			</output>
		</layer>
		<layer id="132" name="StatefulPartitionedCall/first_keras/mul_5" type="Multiply" version="opset1">
			<data auto_broadcast="numpy" />
			<input>
				<port id="0" precision="I64">
					<dim>1</dim>
				</port>
				<port id="1" precision="I64">
					<dim>100</dim>
				</port>
			</input>
			<output>
				<port id="2" precision="I64" names="StatefulPartitionedCall/first_keras/mul_5,StatefulPartitionedCall/first_keras/mul_5:0">
					<dim>100</dim>
				</port>
			</output>
		</layer>
		<layer id="133" name="StatefulPartitionedCall/first_keras/GatherV2_16/params" type="Const" version="opset1">
			<data element_type="i64" shape="6400" offset="1714832" size="51200" />
			<output>
				<port id="0" precision="I64" names="StatefulPartitionedCall/first_keras/GatherV2_16/params,StatefulPartitionedCall/first_keras/GatherV2_16/params:0">
					<dim>6400</dim>
				</port>
			</output>
		</layer>
		<layer id="134" name="StatefulPartitionedCall/first_keras/GatherV2_16/axis" type="Const" version="opset1">
			<data element_type="i32" shape="" offset="1642020" size="4" />
			<output>
				<port id="0" precision="I32" names="StatefulPartitionedCall/first_keras/GatherV2_16/axis,StatefulPartitionedCall/first_keras/GatherV2_16/axis:0" />
			</output>
		</layer>
		<layer id="135" name="StatefulPartitionedCall/first_keras/GatherV2_16" type="Gather" version="opset8">
			<data batch_dims="0" />
			<input>
				<port id="0" precision="I64">
					<dim>6400</dim>
				</port>
				<port id="1" precision="I64">
					<dim>100</dim>
				</port>
				<port id="2" precision="I32" />
			</input>
			<output>
				<port id="3" precision="I64" names="StatefulPartitionedCall/first_keras/GatherV2_16,StatefulPartitionedCall/first_keras/GatherV2_16:0">
					<dim>100</dim>
				</port>
			</output>
		</layer>
		<layer id="136" name="Concat_966" type="Const" version="opset1">
			<data element_type="i32" shape="2" offset="1642024" size="8" />
			<output>
				<port id="0" precision="I32" names="StatefulPartitionedCall/first_keras/Reshape_11/shape,StatefulPartitionedCall/first_keras/Reshape_11/shape:0">
					<dim>2</dim>
				</port>
			</output>
		</layer>
		<layer id="137" name="StatefulPartitionedCall/first_keras/Reshape_11" type="Reshape" version="opset1">
			<data special_zero="false" />
			<input>
				<port id="0" precision="I64">
					<dim>100</dim>
				</port>
				<port id="1" precision="I32">
					<dim>2</dim>
				</port>
			</input>
			<output>
				<port id="2" precision="I64" names="StatefulPartitionedCall/first_keras/Reshape_11,StatefulPartitionedCall/first_keras/Reshape_11:0">
					<dim>1</dim>
					<dim>100</dim>
				</port>
			</output>
		</layer>
		<layer id="138" name="StatefulPartitionedCall/first_keras/GatherV2_17/axis" type="Const" version="opset1">
			<data element_type="i32" shape="" offset="1639208" size="4" />
			<output>
				<port id="0" precision="I32" names="StatefulPartitionedCall/first_keras/GatherV2_17/axis,StatefulPartitionedCall/first_keras/GatherV2_17/axis:0" />
			</output>
		</layer>
		<layer id="139" name="StatefulPartitionedCall/first_keras/GatherV2_17" type="Gather" version="opset8">
			<data batch_dims="0" />
			<input>
				<port id="0" precision="FP32">
					<dim>1</dim>
					<dim>8</dim>
				</port>
				<port id="1" precision="I64">
					<dim>1</dim>
					<dim>100</dim>
				</port>
				<port id="2" precision="I32" />
			</input>
			<output>
				<port id="3" precision="FP32" names="StatefulPartitionedCall/first_keras/GatherV2_17,StatefulPartitionedCall/first_keras/GatherV2_17:0">
					<dim>1</dim>
					<dim>1</dim>
					<dim>100</dim>
				</port>
			</output>
		</layer>
		<layer id="140" name="Constant_2121" type="Const" version="opset1">
			<data element_type="i64" shape="1" offset="1640412" size="8" />
			<output>
				<port id="0" precision="I64">
					<dim>1</dim>
				</port>
			</output>
		</layer>
		<layer id="141" name="StatefulPartitionedCall/first_keras/Reshape_12" type="Reshape" version="opset1">
			<data special_zero="false" />
			<input>
				<port id="0" precision="FP32">
					<dim>1</dim>
					<dim>1</dim>
					<dim>100</dim>
				</port>
				<port id="1" precision="I64">
					<dim>1</dim>
				</port>
			</input>
			<output>
				<port id="2" precision="FP32" names="StatefulPartitionedCall/first_keras/Reshape_12,StatefulPartitionedCall/first_keras/Reshape_12:0">
					<dim>100</dim>
				</port>
			</output>
		</layer>
		<layer id="142" name="StatefulPartitionedCall/first_keras/GatherV2_18/params" type="Const" version="opset1">
			<data element_type="f32" shape="6400" offset="1766032" size="25600" />
			<output>
				<port id="0" precision="FP32" names="StatefulPartitionedCall/first_keras/GatherV2_18/params,StatefulPartitionedCall/first_keras/GatherV2_18/params:0">
					<dim>6400</dim>
				</port>
			</output>
		</layer>
		<layer id="143" name="StatefulPartitionedCall/first_keras/GatherV2_18/axis" type="Const" version="opset1">
			<data element_type="i32" shape="" offset="1642020" size="4" />
			<output>
				<port id="0" precision="I32" names="StatefulPartitionedCall/first_keras/GatherV2_18/axis,StatefulPartitionedCall/first_keras/GatherV2_18/axis:0" />
			</output>
		</layer>
		<layer id="144" name="StatefulPartitionedCall/first_keras/GatherV2_18" type="Gather" version="opset8">
			<data batch_dims="0" />
			<input>
				<port id="0" precision="FP32">
					<dim>6400</dim>
				</port>
				<port id="1" precision="I64">
					<dim>100</dim>
				</port>
				<port id="2" precision="I32" />
			</input>
			<output>
				<port id="3" precision="FP32" names="StatefulPartitionedCall/first_keras/GatherV2_18,StatefulPartitionedCall/first_keras/GatherV2_18:0">
					<dim>100</dim>
				</port>
			</output>
		</layer>
		<layer id="145" name="StatefulPartitionedCall/first_keras/Less_6" type="Less" version="opset1">
			<data auto_broadcast="numpy" />
			<input>
				<port id="0" precision="FP32">
					<dim>100</dim>
				</port>
				<port id="1" precision="FP32">
					<dim>100</dim>
				</port>
			</input>
			<output>
				<port id="2" precision="BOOL" names="StatefulPartitionedCall/first_keras/Less_6,StatefulPartitionedCall/first_keras/Less_6:0">
					<dim>100</dim>
				</port>
			</output>
		</layer>
		<layer id="146" name="StatefulPartitionedCall/first_keras/Cast_24" type="Convert" version="opset1">
			<data destination_type="f32" />
			<input>
				<port id="0" precision="BOOL">
					<dim>100</dim>
				</port>
			</input>
			<output>
				<port id="1" precision="FP32" names="StatefulPartitionedCall/first_keras/Cast_24,StatefulPartitionedCall/first_keras/Cast_24:0">
					<dim>100</dim>
				</port>
			</output>
		</layer>
		<layer id="147" name="StatefulPartitionedCall/first_keras/Equal_6" type="Equal" version="opset1">
			<data auto_broadcast="numpy" />
			<input>
				<port id="0" precision="FP32">
					<dim>100</dim>
				</port>
				<port id="1" precision="FP32">
					<dim>100</dim>
				</port>
			</input>
			<output>
				<port id="2" precision="BOOL" names="StatefulPartitionedCall/first_keras/Equal_6,StatefulPartitionedCall/first_keras/Equal_6:0">
					<dim>100</dim>
				</port>
			</output>
		</layer>
		<layer id="148" name="StatefulPartitionedCall/first_keras/Cast_25" type="Convert" version="opset1">
			<data destination_type="f32" />
			<input>
				<port id="0" precision="BOOL">
					<dim>100</dim>
				</port>
			</input>
			<output>
				<port id="1" precision="FP32" names="StatefulPartitionedCall/first_keras/Cast_25,StatefulPartitionedCall/first_keras/Cast_25:0">
					<dim>100</dim>
				</port>
			</output>
		</layer>
		<layer id="149" name="StatefulPartitionedCall/first_keras/Add_12" type="Add" version="opset1">
			<data auto_broadcast="numpy" />
			<input>
				<port id="0" precision="FP32">
					<dim>100</dim>
				</port>
				<port id="1" precision="FP32">
					<dim>100</dim>
				</port>
			</input>
			<output>
				<port id="2" precision="FP32" names="StatefulPartitionedCall/first_keras/Add_12,StatefulPartitionedCall/first_keras/Add_12:0">
					<dim>100</dim>
				</port>
			</output>
		</layer>
		<layer id="150" name="StatefulPartitionedCall/first_keras/Cast_26" type="Convert" version="opset1">
			<data destination_type="boolean" />
			<input>
				<port id="0" precision="FP32">
					<dim>100</dim>
				</port>
			</input>
			<output>
				<port id="1" precision="BOOL" names="StatefulPartitionedCall/first_keras/Cast_26,StatefulPartitionedCall/first_keras/Cast_26:0">
					<dim>100</dim>
				</port>
			</output>
		</layer>
		<layer id="151" name="StatefulPartitionedCall/first_keras/Cast_27" type="Convert" version="opset1">
			<data destination_type="i64" />
			<input>
				<port id="0" precision="BOOL">
					<dim>100</dim>
				</port>
			</input>
			<output>
				<port id="1" precision="I64" names="StatefulPartitionedCall/first_keras/Cast_27,StatefulPartitionedCall/first_keras/Cast_27:0">
					<dim>100</dim>
				</port>
			</output>
		</layer>
		<layer id="152" name="StatefulPartitionedCall/first_keras/add_13" type="Add" version="opset1">
			<data auto_broadcast="numpy" />
			<input>
				<port id="0" precision="I64">
					<dim>100</dim>
				</port>
				<port id="1" precision="I64">
					<dim>100</dim>
				</port>
			</input>
			<output>
				<port id="2" precision="I64" names="StatefulPartitionedCall/first_keras/add_13,StatefulPartitionedCall/first_keras/add_13:0">
					<dim>100</dim>
				</port>
			</output>
		</layer>
		<layer id="153" name="StatefulPartitionedCall/first_keras/mul_6" type="Multiply" version="opset1">
			<data auto_broadcast="numpy" />
			<input>
				<port id="0" precision="I64">
					<dim>1</dim>
				</port>
				<port id="1" precision="I64">
					<dim>100</dim>
				</port>
			</input>
			<output>
				<port id="2" precision="I64" names="StatefulPartitionedCall/first_keras/mul_6,StatefulPartitionedCall/first_keras/mul_6:0">
					<dim>100</dim>
				</port>
			</output>
		</layer>
		<layer id="154" name="StatefulPartitionedCall/first_keras/GatherV2_19/params" type="Const" version="opset1">
			<data element_type="i64" shape="12800" offset="1791632" size="102400" />
			<output>
				<port id="0" precision="I64" names="StatefulPartitionedCall/first_keras/GatherV2_19/params,StatefulPartitionedCall/first_keras/GatherV2_19/params:0">
					<dim>12800</dim>
				</port>
			</output>
		</layer>
		<layer id="155" name="StatefulPartitionedCall/first_keras/GatherV2_19/axis" type="Const" version="opset1">
			<data element_type="i32" shape="" offset="1642020" size="4" />
			<output>
				<port id="0" precision="I32" names="StatefulPartitionedCall/first_keras/GatherV2_19/axis,StatefulPartitionedCall/first_keras/GatherV2_19/axis:0" />
			</output>
		</layer>
		<layer id="156" name="StatefulPartitionedCall/first_keras/GatherV2_19" type="Gather" version="opset8">
			<data batch_dims="0" />
			<input>
				<port id="0" precision="I64">
					<dim>12800</dim>
				</port>
				<port id="1" precision="I64">
					<dim>100</dim>
				</port>
				<port id="2" precision="I32" />
			</input>
			<output>
				<port id="3" precision="I64" names="StatefulPartitionedCall/first_keras/GatherV2_19,StatefulPartitionedCall/first_keras/GatherV2_19:0">
					<dim>100</dim>
				</port>
			</output>
		</layer>
		<layer id="157" name="Concat_1015" type="Const" version="opset1">
			<data element_type="i32" shape="2" offset="1642024" size="8" />
			<output>
				<port id="0" precision="I32" names="StatefulPartitionedCall/first_keras/Reshape_13/shape,StatefulPartitionedCall/first_keras/Reshape_13/shape:0">
					<dim>2</dim>
				</port>
			</output>
		</layer>
		<layer id="158" name="StatefulPartitionedCall/first_keras/Reshape_13" type="Reshape" version="opset1">
			<data special_zero="false" />
			<input>
				<port id="0" precision="I64">
					<dim>100</dim>
				</port>
				<port id="1" precision="I32">
					<dim>2</dim>
				</port>
			</input>
			<output>
				<port id="2" precision="I64" names="StatefulPartitionedCall/first_keras/Reshape_13,StatefulPartitionedCall/first_keras/Reshape_13:0">
					<dim>1</dim>
					<dim>100</dim>
				</port>
			</output>
		</layer>
		<layer id="159" name="StatefulPartitionedCall/first_keras/GatherV2_20/axis" type="Const" version="opset1">
			<data element_type="i32" shape="" offset="1639208" size="4" />
			<output>
				<port id="0" precision="I32" names="StatefulPartitionedCall/first_keras/GatherV2_20/axis,StatefulPartitionedCall/first_keras/GatherV2_20/axis:0" />
			</output>
		</layer>
		<layer id="160" name="StatefulPartitionedCall/first_keras/GatherV2_20" type="Gather" version="opset8">
			<data batch_dims="0" />
			<input>
				<port id="0" precision="FP32">
					<dim>1</dim>
					<dim>8</dim>
				</port>
				<port id="1" precision="I64">
					<dim>1</dim>
					<dim>100</dim>
				</port>
				<port id="2" precision="I32" />
			</input>
			<output>
				<port id="3" precision="FP32" names="StatefulPartitionedCall/first_keras/GatherV2_20,StatefulPartitionedCall/first_keras/GatherV2_20:0">
					<dim>1</dim>
					<dim>1</dim>
					<dim>100</dim>
				</port>
			</output>
		</layer>
		<layer id="161" name="Constant_2122" type="Const" version="opset1">
			<data element_type="i64" shape="1" offset="1640412" size="8" />
			<output>
				<port id="0" precision="I64">
					<dim>1</dim>
				</port>
			</output>
		</layer>
		<layer id="162" name="StatefulPartitionedCall/first_keras/Reshape_14" type="Reshape" version="opset1">
			<data special_zero="false" />
			<input>
				<port id="0" precision="FP32">
					<dim>1</dim>
					<dim>1</dim>
					<dim>100</dim>
				</port>
				<port id="1" precision="I64">
					<dim>1</dim>
				</port>
			</input>
			<output>
				<port id="2" precision="FP32" names="StatefulPartitionedCall/first_keras/Reshape_14,StatefulPartitionedCall/first_keras/Reshape_14:0">
					<dim>100</dim>
				</port>
			</output>
		</layer>
		<layer id="163" name="StatefulPartitionedCall/first_keras/GatherV2_21/params" type="Const" version="opset1">
			<data element_type="f32" shape="12800" offset="1894032" size="51200" />
			<output>
				<port id="0" precision="FP32" names="StatefulPartitionedCall/first_keras/GatherV2_21/params,StatefulPartitionedCall/first_keras/GatherV2_21/params:0">
					<dim>12800</dim>
				</port>
			</output>
		</layer>
		<layer id="164" name="StatefulPartitionedCall/first_keras/GatherV2_21/axis" type="Const" version="opset1">
			<data element_type="i32" shape="" offset="1642020" size="4" />
			<output>
				<port id="0" precision="I32" names="StatefulPartitionedCall/first_keras/GatherV2_21/axis,StatefulPartitionedCall/first_keras/GatherV2_21/axis:0" />
			</output>
		</layer>
		<layer id="165" name="StatefulPartitionedCall/first_keras/GatherV2_21" type="Gather" version="opset8">
			<data batch_dims="0" />
			<input>
				<port id="0" precision="FP32">
					<dim>12800</dim>
				</port>
				<port id="1" precision="I64">
					<dim>100</dim>
				</port>
				<port id="2" precision="I32" />
			</input>
			<output>
				<port id="3" precision="FP32" names="StatefulPartitionedCall/first_keras/GatherV2_21,StatefulPartitionedCall/first_keras/GatherV2_21:0">
					<dim>100</dim>
				</port>
			</output>
		</layer>
		<layer id="166" name="StatefulPartitionedCall/first_keras/Less_7" type="Less" version="opset1">
			<data auto_broadcast="numpy" />
			<input>
				<port id="0" precision="FP32">
					<dim>100</dim>
				</port>
				<port id="1" precision="FP32">
					<dim>100</dim>
				</port>
			</input>
			<output>
				<port id="2" precision="BOOL" names="StatefulPartitionedCall/first_keras/Less_7,StatefulPartitionedCall/first_keras/Less_7:0">
					<dim>100</dim>
				</port>
			</output>
		</layer>
		<layer id="167" name="StatefulPartitionedCall/first_keras/Cast_28" type="Convert" version="opset1">
			<data destination_type="f32" />
			<input>
				<port id="0" precision="BOOL">
					<dim>100</dim>
				</port>
			</input>
			<output>
				<port id="1" precision="FP32" names="StatefulPartitionedCall/first_keras/Cast_28,StatefulPartitionedCall/first_keras/Cast_28:0">
					<dim>100</dim>
				</port>
			</output>
		</layer>
		<layer id="168" name="StatefulPartitionedCall/first_keras/Equal_7" type="Equal" version="opset1">
			<data auto_broadcast="numpy" />
			<input>
				<port id="0" precision="FP32">
					<dim>100</dim>
				</port>
				<port id="1" precision="FP32">
					<dim>100</dim>
				</port>
			</input>
			<output>
				<port id="2" precision="BOOL" names="StatefulPartitionedCall/first_keras/Equal_7,StatefulPartitionedCall/first_keras/Equal_7:0">
					<dim>100</dim>
				</port>
			</output>
		</layer>
		<layer id="169" name="StatefulPartitionedCall/first_keras/Cast_29" type="Convert" version="opset1">
			<data destination_type="f32" />
			<input>
				<port id="0" precision="BOOL">
					<dim>100</dim>
				</port>
			</input>
			<output>
				<port id="1" precision="FP32" names="StatefulPartitionedCall/first_keras/Cast_29,StatefulPartitionedCall/first_keras/Cast_29:0">
					<dim>100</dim>
				</port>
			</output>
		</layer>
		<layer id="170" name="StatefulPartitionedCall/first_keras/Add_14" type="Add" version="opset1">
			<data auto_broadcast="numpy" />
			<input>
				<port id="0" precision="FP32">
					<dim>100</dim>
				</port>
				<port id="1" precision="FP32">
					<dim>100</dim>
				</port>
			</input>
			<output>
				<port id="2" precision="FP32" names="StatefulPartitionedCall/first_keras/Add_14,StatefulPartitionedCall/first_keras/Add_14:0">
					<dim>100</dim>
				</port>
			</output>
		</layer>
		<layer id="171" name="StatefulPartitionedCall/first_keras/Cast_30" type="Convert" version="opset1">
			<data destination_type="boolean" />
			<input>
				<port id="0" precision="FP32">
					<dim>100</dim>
				</port>
			</input>
			<output>
				<port id="1" precision="BOOL" names="StatefulPartitionedCall/first_keras/Cast_30,StatefulPartitionedCall/first_keras/Cast_30:0">
					<dim>100</dim>
				</port>
			</output>
		</layer>
		<layer id="172" name="StatefulPartitionedCall/first_keras/Cast_31" type="Convert" version="opset1">
			<data destination_type="i64" />
			<input>
				<port id="0" precision="BOOL">
					<dim>100</dim>
				</port>
			</input>
			<output>
				<port id="1" precision="I64" names="StatefulPartitionedCall/first_keras/Cast_31,StatefulPartitionedCall/first_keras/Cast_31:0">
					<dim>100</dim>
				</port>
			</output>
		</layer>
		<layer id="173" name="StatefulPartitionedCall/first_keras/add_15" type="Add" version="opset1">
			<data auto_broadcast="numpy" />
			<input>
				<port id="0" precision="I64">
					<dim>100</dim>
				</port>
				<port id="1" precision="I64">
					<dim>100</dim>
				</port>
			</input>
			<output>
				<port id="2" precision="I64" names="StatefulPartitionedCall/first_keras/add_15,StatefulPartitionedCall/first_keras/add_15:0">
					<dim>100</dim>
				</port>
			</output>
		</layer>
		<layer id="174" name="StatefulPartitionedCall/first_keras/mul_7" type="Multiply" version="opset1">
			<data auto_broadcast="numpy" />
			<input>
				<port id="0" precision="I64">
					<dim>1</dim>
				</port>
				<port id="1" precision="I64">
					<dim>100</dim>
				</port>
			</input>
			<output>
				<port id="2" precision="I64" names="StatefulPartitionedCall/first_keras/mul_7,StatefulPartitionedCall/first_keras/mul_7:0">
					<dim>100</dim>
				</port>
			</output>
		</layer>
		<layer id="175" name="StatefulPartitionedCall/first_keras/GatherV2_22/params" type="Const" version="opset1">
			<data element_type="i64" shape="25600" offset="1945232" size="204800" />
			<output>
				<port id="0" precision="I64" names="StatefulPartitionedCall/first_keras/GatherV2_22/params,StatefulPartitionedCall/first_keras/GatherV2_22/params:0">
					<dim>25600</dim>
				</port>
			</output>
		</layer>
		<layer id="176" name="StatefulPartitionedCall/first_keras/GatherV2_22/axis" type="Const" version="opset1">
			<data element_type="i32" shape="" offset="1642020" size="4" />
			<output>
				<port id="0" precision="I32" names="StatefulPartitionedCall/first_keras/GatherV2_22/axis,StatefulPartitionedCall/first_keras/GatherV2_22/axis:0" />
			</output>
		</layer>
		<layer id="177" name="StatefulPartitionedCall/first_keras/GatherV2_22" type="Gather" version="opset8">
			<data batch_dims="0" />
			<input>
				<port id="0" precision="I64">
					<dim>25600</dim>
				</port>
				<port id="1" precision="I64">
					<dim>100</dim>
				</port>
				<port id="2" precision="I32" />
			</input>
			<output>
				<port id="3" precision="I64" names="StatefulPartitionedCall/first_keras/GatherV2_22,StatefulPartitionedCall/first_keras/GatherV2_22:0">
					<dim>100</dim>
				</port>
			</output>
		</layer>
		<layer id="178" name="Concat_1064" type="Const" version="opset1">
			<data element_type="i32" shape="2" offset="1642024" size="8" />
			<output>
				<port id="0" precision="I32" names="StatefulPartitionedCall/first_keras/Reshape_15/shape,StatefulPartitionedCall/first_keras/Reshape_15/shape:0">
					<dim>2</dim>
				</port>
			</output>
		</layer>
		<layer id="179" name="StatefulPartitionedCall/first_keras/Reshape_15" type="Reshape" version="opset1">
			<data special_zero="false" />
			<input>
				<port id="0" precision="I64">
					<dim>100</dim>
				</port>
				<port id="1" precision="I32">
					<dim>2</dim>
				</port>
			</input>
			<output>
				<port id="2" precision="I64" names="StatefulPartitionedCall/first_keras/Reshape_15,StatefulPartitionedCall/first_keras/Reshape_15:0">
					<dim>1</dim>
					<dim>100</dim>
				</port>
			</output>
		</layer>
		<layer id="180" name="StatefulPartitionedCall/first_keras/GatherV2_23/axis" type="Const" version="opset1">
			<data element_type="i32" shape="" offset="1639208" size="4" />
			<output>
				<port id="0" precision="I32" names="StatefulPartitionedCall/first_keras/GatherV2_23/axis,StatefulPartitionedCall/first_keras/GatherV2_23/axis:0" />
			</output>
		</layer>
		<layer id="181" name="StatefulPartitionedCall/first_keras/GatherV2_23" type="Gather" version="opset8">
			<data batch_dims="0" />
			<input>
				<port id="0" precision="FP32">
					<dim>1</dim>
					<dim>8</dim>
				</port>
				<port id="1" precision="I64">
					<dim>1</dim>
					<dim>100</dim>
				</port>
				<port id="2" precision="I32" />
			</input>
			<output>
				<port id="3" precision="FP32" names="StatefulPartitionedCall/first_keras/GatherV2_23,StatefulPartitionedCall/first_keras/GatherV2_23:0">
					<dim>1</dim>
					<dim>1</dim>
					<dim>100</dim>
				</port>
			</output>
		</layer>
		<layer id="182" name="Constant_2123" type="Const" version="opset1">
			<data element_type="i64" shape="1" offset="1640412" size="8" />
			<output>
				<port id="0" precision="I64">
					<dim>1</dim>
				</port>
			</output>
		</layer>
		<layer id="183" name="StatefulPartitionedCall/first_keras/Reshape_16" type="Reshape" version="opset1">
			<data special_zero="false" />
			<input>
				<port id="0" precision="FP32">
					<dim>1</dim>
					<dim>1</dim>
					<dim>100</dim>
				</port>
				<port id="1" precision="I64">
					<dim>1</dim>
				</port>
			</input>
			<output>
				<port id="2" precision="FP32" names="StatefulPartitionedCall/first_keras/Reshape_16,StatefulPartitionedCall/first_keras/Reshape_16:0">
					<dim>100</dim>
				</port>
			</output>
		</layer>
		<layer id="184" name="StatefulPartitionedCall/first_keras/GatherV2_24/params" type="Const" version="opset1">
			<data element_type="f32" shape="25600" offset="2150032" size="102400" />
			<output>
				<port id="0" precision="FP32" names="StatefulPartitionedCall/first_keras/GatherV2_24/params,StatefulPartitionedCall/first_keras/GatherV2_24/params:0">
					<dim>25600</dim>
				</port>
			</output>
		</layer>
		<layer id="185" name="StatefulPartitionedCall/first_keras/GatherV2_24/axis" type="Const" version="opset1">
			<data element_type="i32" shape="" offset="1642020" size="4" />
			<output>
				<port id="0" precision="I32" names="StatefulPartitionedCall/first_keras/GatherV2_24/axis,StatefulPartitionedCall/first_keras/GatherV2_24/axis:0" />
			</output>
		</layer>
		<layer id="186" name="StatefulPartitionedCall/first_keras/GatherV2_24" type="Gather" version="opset8">
			<data batch_dims="0" />
			<input>
				<port id="0" precision="FP32">
					<dim>25600</dim>
				</port>
				<port id="1" precision="I64">
					<dim>100</dim>
				</port>
				<port id="2" precision="I32" />
			</input>
			<output>
				<port id="3" precision="FP32" names="StatefulPartitionedCall/first_keras/GatherV2_24,StatefulPartitionedCall/first_keras/GatherV2_24:0">
					<dim>100</dim>
				</port>
			</output>
		</layer>
		<layer id="187" name="StatefulPartitionedCall/first_keras/Less_8" type="Less" version="opset1">
			<data auto_broadcast="numpy" />
			<input>
				<port id="0" precision="FP32">
					<dim>100</dim>
				</port>
				<port id="1" precision="FP32">
					<dim>100</dim>
				</port>
			</input>
			<output>
				<port id="2" precision="BOOL" names="StatefulPartitionedCall/first_keras/Less_8,StatefulPartitionedCall/first_keras/Less_8:0">
					<dim>100</dim>
				</port>
			</output>
		</layer>
		<layer id="188" name="StatefulPartitionedCall/first_keras/Cast_32" type="Convert" version="opset1">
			<data destination_type="f32" />
			<input>
				<port id="0" precision="BOOL">
					<dim>100</dim>
				</port>
			</input>
			<output>
				<port id="1" precision="FP32" names="StatefulPartitionedCall/first_keras/Cast_32,StatefulPartitionedCall/first_keras/Cast_32:0">
					<dim>100</dim>
				</port>
			</output>
		</layer>
		<layer id="189" name="StatefulPartitionedCall/first_keras/Equal_8" type="Equal" version="opset1">
			<data auto_broadcast="numpy" />
			<input>
				<port id="0" precision="FP32">
					<dim>100</dim>
				</port>
				<port id="1" precision="FP32">
					<dim>100</dim>
				</port>
			</input>
			<output>
				<port id="2" precision="BOOL" names="StatefulPartitionedCall/first_keras/Equal_8,StatefulPartitionedCall/first_keras/Equal_8:0">
					<dim>100</dim>
				</port>
			</output>
		</layer>
		<layer id="190" name="StatefulPartitionedCall/first_keras/Cast_33" type="Convert" version="opset1">
			<data destination_type="f32" />
			<input>
				<port id="0" precision="BOOL">
					<dim>100</dim>
				</port>
			</input>
			<output>
				<port id="1" precision="FP32" names="StatefulPartitionedCall/first_keras/Cast_33,StatefulPartitionedCall/first_keras/Cast_33:0">
					<dim>100</dim>
				</port>
			</output>
		</layer>
		<layer id="191" name="StatefulPartitionedCall/first_keras/Add_16" type="Add" version="opset1">
			<data auto_broadcast="numpy" />
			<input>
				<port id="0" precision="FP32">
					<dim>100</dim>
				</port>
				<port id="1" precision="FP32">
					<dim>100</dim>
				</port>
			</input>
			<output>
				<port id="2" precision="FP32" names="StatefulPartitionedCall/first_keras/Add_16,StatefulPartitionedCall/first_keras/Add_16:0">
					<dim>100</dim>
				</port>
			</output>
		</layer>
		<layer id="192" name="StatefulPartitionedCall/first_keras/Cast_34" type="Convert" version="opset1">
			<data destination_type="boolean" />
			<input>
				<port id="0" precision="FP32">
					<dim>100</dim>
				</port>
			</input>
			<output>
				<port id="1" precision="BOOL" names="StatefulPartitionedCall/first_keras/Cast_34,StatefulPartitionedCall/first_keras/Cast_34:0">
					<dim>100</dim>
				</port>
			</output>
		</layer>
		<layer id="193" name="StatefulPartitionedCall/first_keras/Cast_35" type="Convert" version="opset1">
			<data destination_type="i64" />
			<input>
				<port id="0" precision="BOOL">
					<dim>100</dim>
				</port>
			</input>
			<output>
				<port id="1" precision="I64" names="StatefulPartitionedCall/first_keras/Cast_35,StatefulPartitionedCall/first_keras/Cast_35:0">
					<dim>100</dim>
				</port>
			</output>
		</layer>
		<layer id="194" name="StatefulPartitionedCall/first_keras/add_17" type="Add" version="opset1">
			<data auto_broadcast="numpy" />
			<input>
				<port id="0" precision="I64">
					<dim>100</dim>
				</port>
				<port id="1" precision="I64">
					<dim>100</dim>
				</port>
			</input>
			<output>
				<port id="2" precision="I64" names="StatefulPartitionedCall/first_keras/add_17,StatefulPartitionedCall/first_keras/add_17:0">
					<dim>100</dim>
				</port>
			</output>
		</layer>
		<layer id="195" name="StatefulPartitionedCall/first_keras/mul_8" type="Multiply" version="opset1">
			<data auto_broadcast="numpy" />
			<input>
				<port id="0" precision="I64">
					<dim>1</dim>
				</port>
				<port id="1" precision="I64">
					<dim>100</dim>
				</port>
			</input>
			<output>
				<port id="2" precision="I64" names="StatefulPartitionedCall/first_keras/mul_8,StatefulPartitionedCall/first_keras/mul_8:0">
					<dim>100</dim>
				</port>
			</output>
		</layer>
		<layer id="196" name="StatefulPartitionedCall/first_keras/GatherV2_25/params" type="Const" version="opset1">
			<data element_type="i64" shape="51200" offset="2252432" size="409600" />
			<output>
				<port id="0" precision="I64" names="StatefulPartitionedCall/first_keras/GatherV2_25/params,StatefulPartitionedCall/first_keras/GatherV2_25/params:0">
					<dim>51200</dim>
				</port>
			</output>
		</layer>
		<layer id="197" name="StatefulPartitionedCall/first_keras/GatherV2_25/axis" type="Const" version="opset1">
			<data element_type="i32" shape="" offset="1642020" size="4" />
			<output>
				<port id="0" precision="I32" names="StatefulPartitionedCall/first_keras/GatherV2_25/axis,StatefulPartitionedCall/first_keras/GatherV2_25/axis:0" />
			</output>
		</layer>
		<layer id="198" name="StatefulPartitionedCall/first_keras/GatherV2_25" type="Gather" version="opset8">
			<data batch_dims="0" />
			<input>
				<port id="0" precision="I64">
					<dim>51200</dim>
				</port>
				<port id="1" precision="I64">
					<dim>100</dim>
				</port>
				<port id="2" precision="I32" />
			</input>
			<output>
				<port id="3" precision="I64" names="StatefulPartitionedCall/first_keras/GatherV2_25,StatefulPartitionedCall/first_keras/GatherV2_25:0">
					<dim>100</dim>
				</port>
			</output>
		</layer>
		<layer id="199" name="Concat_1113" type="Const" version="opset1">
			<data element_type="i32" shape="2" offset="1642024" size="8" />
			<output>
				<port id="0" precision="I32" names="StatefulPartitionedCall/first_keras/Reshape_17/shape,StatefulPartitionedCall/first_keras/Reshape_17/shape:0">
					<dim>2</dim>
				</port>
			</output>
		</layer>
		<layer id="200" name="StatefulPartitionedCall/first_keras/Reshape_17" type="Reshape" version="opset1">
			<data special_zero="false" />
			<input>
				<port id="0" precision="I64">
					<dim>100</dim>
				</port>
				<port id="1" precision="I32">
					<dim>2</dim>
				</port>
			</input>
			<output>
				<port id="2" precision="I64" names="StatefulPartitionedCall/first_keras/Reshape_17,StatefulPartitionedCall/first_keras/Reshape_17:0">
					<dim>1</dim>
					<dim>100</dim>
				</port>
			</output>
		</layer>
		<layer id="201" name="StatefulPartitionedCall/first_keras/GatherV2_26/axis" type="Const" version="opset1">
			<data element_type="i32" shape="" offset="1639208" size="4" />
			<output>
				<port id="0" precision="I32" names="StatefulPartitionedCall/first_keras/GatherV2_26/axis,StatefulPartitionedCall/first_keras/GatherV2_26/axis:0" />
			</output>
		</layer>
		<layer id="202" name="StatefulPartitionedCall/first_keras/GatherV2_26" type="Gather" version="opset8">
			<data batch_dims="0" />
			<input>
				<port id="0" precision="FP32">
					<dim>1</dim>
					<dim>8</dim>
				</port>
				<port id="1" precision="I64">
					<dim>1</dim>
					<dim>100</dim>
				</port>
				<port id="2" precision="I32" />
			</input>
			<output>
				<port id="3" precision="FP32" names="StatefulPartitionedCall/first_keras/GatherV2_26,StatefulPartitionedCall/first_keras/GatherV2_26:0">
					<dim>1</dim>
					<dim>1</dim>
					<dim>100</dim>
				</port>
			</output>
		</layer>
		<layer id="203" name="Constant_2124" type="Const" version="opset1">
			<data element_type="i64" shape="1" offset="1640412" size="8" />
			<output>
				<port id="0" precision="I64">
					<dim>1</dim>
				</port>
			</output>
		</layer>
		<layer id="204" name="StatefulPartitionedCall/first_keras/Reshape_18" type="Reshape" version="opset1">
			<data special_zero="false" />
			<input>
				<port id="0" precision="FP32">
					<dim>1</dim>
					<dim>1</dim>
					<dim>100</dim>
				</port>
				<port id="1" precision="I64">
					<dim>1</dim>
				</port>
			</input>
			<output>
				<port id="2" precision="FP32" names="StatefulPartitionedCall/first_keras/Reshape_18,StatefulPartitionedCall/first_keras/Reshape_18:0">
					<dim>100</dim>
				</port>
			</output>
		</layer>
		<layer id="205" name="StatefulPartitionedCall/first_keras/GatherV2_27/params" type="Const" version="opset1">
			<data element_type="f32" shape="51200" offset="2662032" size="204800" />
			<output>
				<port id="0" precision="FP32" names="StatefulPartitionedCall/first_keras/GatherV2_27/params,StatefulPartitionedCall/first_keras/GatherV2_27/params:0">
					<dim>51200</dim>
				</port>
			</output>
		</layer>
		<layer id="206" name="StatefulPartitionedCall/first_keras/GatherV2_27/axis" type="Const" version="opset1">
			<data element_type="i32" shape="" offset="1642020" size="4" />
			<output>
				<port id="0" precision="I32" names="StatefulPartitionedCall/first_keras/GatherV2_27/axis,StatefulPartitionedCall/first_keras/GatherV2_27/axis:0" />
			</output>
		</layer>
		<layer id="207" name="StatefulPartitionedCall/first_keras/GatherV2_27" type="Gather" version="opset8">
			<data batch_dims="0" />
			<input>
				<port id="0" precision="FP32">
					<dim>51200</dim>
				</port>
				<port id="1" precision="I64">
					<dim>100</dim>
				</port>
				<port id="2" precision="I32" />
			</input>
			<output>
				<port id="3" precision="FP32" names="StatefulPartitionedCall/first_keras/GatherV2_27,StatefulPartitionedCall/first_keras/GatherV2_27:0">
					<dim>100</dim>
				</port>
			</output>
		</layer>
		<layer id="208" name="StatefulPartitionedCall/first_keras/Less_9" type="Less" version="opset1">
			<data auto_broadcast="numpy" />
			<input>
				<port id="0" precision="FP32">
					<dim>100</dim>
				</port>
				<port id="1" precision="FP32">
					<dim>100</dim>
				</port>
			</input>
			<output>
				<port id="2" precision="BOOL" names="StatefulPartitionedCall/first_keras/Less_9,StatefulPartitionedCall/first_keras/Less_9:0">
					<dim>100</dim>
				</port>
			</output>
		</layer>
		<layer id="209" name="StatefulPartitionedCall/first_keras/Cast_36" type="Convert" version="opset1">
			<data destination_type="f32" />
			<input>
				<port id="0" precision="BOOL">
					<dim>100</dim>
				</port>
			</input>
			<output>
				<port id="1" precision="FP32" names="StatefulPartitionedCall/first_keras/Cast_36,StatefulPartitionedCall/first_keras/Cast_36:0">
					<dim>100</dim>
				</port>
			</output>
		</layer>
		<layer id="210" name="StatefulPartitionedCall/first_keras/Equal_9" type="Equal" version="opset1">
			<data auto_broadcast="numpy" />
			<input>
				<port id="0" precision="FP32">
					<dim>100</dim>
				</port>
				<port id="1" precision="FP32">
					<dim>100</dim>
				</port>
			</input>
			<output>
				<port id="2" precision="BOOL" names="StatefulPartitionedCall/first_keras/Equal_9,StatefulPartitionedCall/first_keras/Equal_9:0">
					<dim>100</dim>
				</port>
			</output>
		</layer>
		<layer id="211" name="StatefulPartitionedCall/first_keras/Cast_37" type="Convert" version="opset1">
			<data destination_type="f32" />
			<input>
				<port id="0" precision="BOOL">
					<dim>100</dim>
				</port>
			</input>
			<output>
				<port id="1" precision="FP32" names="StatefulPartitionedCall/first_keras/Cast_37,StatefulPartitionedCall/first_keras/Cast_37:0">
					<dim>100</dim>
				</port>
			</output>
		</layer>
		<layer id="212" name="StatefulPartitionedCall/first_keras/Add_18" type="Add" version="opset1">
			<data auto_broadcast="numpy" />
			<input>
				<port id="0" precision="FP32">
					<dim>100</dim>
				</port>
				<port id="1" precision="FP32">
					<dim>100</dim>
				</port>
			</input>
			<output>
				<port id="2" precision="FP32" names="StatefulPartitionedCall/first_keras/Add_18,StatefulPartitionedCall/first_keras/Add_18:0">
					<dim>100</dim>
				</port>
			</output>
		</layer>
		<layer id="213" name="StatefulPartitionedCall/first_keras/Cast_38" type="Convert" version="opset1">
			<data destination_type="boolean" />
			<input>
				<port id="0" precision="FP32">
					<dim>100</dim>
				</port>
			</input>
			<output>
				<port id="1" precision="BOOL" names="StatefulPartitionedCall/first_keras/Cast_38,StatefulPartitionedCall/first_keras/Cast_38:0">
					<dim>100</dim>
				</port>
			</output>
		</layer>
		<layer id="214" name="StatefulPartitionedCall/first_keras/Cast_39" type="Convert" version="opset1">
			<data destination_type="i64" />
			<input>
				<port id="0" precision="BOOL">
					<dim>100</dim>
				</port>
			</input>
			<output>
				<port id="1" precision="I64" names="StatefulPartitionedCall/first_keras/Cast_39,StatefulPartitionedCall/first_keras/Cast_39:0">
					<dim>100</dim>
				</port>
			</output>
		</layer>
		<layer id="215" name="StatefulPartitionedCall/first_keras/add_19" type="Add" version="opset1">
			<data auto_broadcast="numpy" />
			<input>
				<port id="0" precision="I64">
					<dim>100</dim>
				</port>
				<port id="1" precision="I64">
					<dim>100</dim>
				</port>
			</input>
			<output>
				<port id="2" precision="I64" names="StatefulPartitionedCall/first_keras/add_19,StatefulPartitionedCall/first_keras/add_19:0">
					<dim>100</dim>
				</port>
			</output>
		</layer>
		<layer id="216" name="StatefulPartitionedCall/first_keras/Gather/axis" type="Const" version="opset1">
			<data element_type="i64" shape="" offset="2866832" size="8" />
			<output>
				<port id="0" precision="I64" names="StatefulPartitionedCall/first_keras/Gather/axis,StatefulPartitionedCall/first_keras/Gather/axis:0" />
			</output>
		</layer>
		<layer id="217" name="StatefulPartitionedCall/first_keras/Gather" type="Gather" version="opset8">
			<data batch_dims="0" />
			<input>
				<port id="0" precision="FP32">
					<dim>102400</dim>
					<dim>4</dim>
				</port>
				<port id="1" precision="I64">
					<dim>100</dim>
				</port>
				<port id="2" precision="I64" />
			</input>
			<output>
				<port id="3" precision="FP32" names="StatefulPartitionedCall/first_keras/Gather,StatefulPartitionedCall/first_keras/Gather:0,StatefulPartitionedCall/first_keras/Identity,StatefulPartitionedCall/first_keras/Identity:0">
					<dim>100</dim>
					<dim>4</dim>
				</port>
			</output>
		</layer>
		<layer id="218" name="Concat_1166" type="Const" version="opset1">
			<data element_type="i32" shape="3" offset="2866840" size="12" />
			<output>
				<port id="0" precision="I32" names="StatefulPartitionedCall/first_keras/Reshape_19/shape,StatefulPartitionedCall/first_keras/Reshape_19/shape:0">
					<dim>3</dim>
				</port>
			</output>
		</layer>
		<layer id="219" name="StatefulPartitionedCall/first_keras/Reshape_19" type="Reshape" version="opset1">
			<data special_zero="false" />
			<input>
				<port id="0" precision="FP32">
					<dim>100</dim>
					<dim>4</dim>
				</port>
				<port id="1" precision="I32">
					<dim>3</dim>
				</port>
			</input>
			<output>
				<port id="2" precision="FP32" names="StatefulPartitionedCall/first_keras/Reshape_19,StatefulPartitionedCall/first_keras/Reshape_19:0">
					<dim>1</dim>
					<dim>100</dim>
					<dim>4</dim>
				</port>
			</output>
		</layer>
		<layer id="220" name="StatefulPartitionedCall/first_keras/Sum/reduction_indices" type="Const" version="opset1">
			<data element_type="i32" shape="" offset="1639208" size="4" />
			<output>
				<port id="0" precision="I32" names="StatefulPartitionedCall/first_keras/Sum/reduction_indices,StatefulPartitionedCall/first_keras/Sum/reduction_indices:0" />
			</output>
		</layer>
		<layer id="221" name="StatefulPartitionedCall/first_keras/Sum" type="ReduceSum" version="opset1">
			<data keep_dims="false" />
			<input>
				<port id="0" precision="FP32">
					<dim>1</dim>
					<dim>100</dim>
					<dim>4</dim>
				</port>
				<port id="1" precision="I32" />
			</input>
			<output>
				<port id="2" precision="FP32" names="Func/StatefulPartitionedCall/output/_7,Func/StatefulPartitionedCall/output/_7:0,Identity,Identity:0,StatefulPartitionedCall/Identity,StatefulPartitionedCall/Identity:0,StatefulPartitionedCall/first_keras/Sum,StatefulPartitionedCall/first_keras/Sum:0">
					<dim>1</dim>
					<dim>4</dim>
				</port>
			</output>
		</layer>
		<layer id="222" name="Identity" type="Result" version="opset1">
			<input>
				<port id="0" precision="FP32">
					<dim>1</dim>
					<dim>4</dim>
				</port>
			</input>
		</layer>
	</layers>
	<edges>
		<edge from-layer="0" from-port="0" to-layer="202" to-port="0" />
		<edge from-layer="0" from-port="0" to-layer="34" to-port="0" />
		<edge from-layer="0" from-port="0" to-layer="97" to-port="0" />
		<edge from-layer="0" from-port="0" to-layer="118" to-port="0" />
		<edge from-layer="0" from-port="0" to-layer="13" to-port="0" />
		<edge from-layer="0" from-port="0" to-layer="55" to-port="0" />
		<edge from-layer="0" from-port="0" to-layer="181" to-port="0" />
		<edge from-layer="0" from-port="0" to-layer="76" to-port="0" />
		<edge from-layer="0" from-port="0" to-layer="160" to-port="0" />
		<edge from-layer="0" from-port="0" to-layer="139" to-port="0" />
		<edge from-layer="1" from-port="0" to-layer="217" to-port="0" />
		<edge from-layer="2" from-port="0" to-layer="195" to-port="0" />
		<edge from-layer="3" from-port="0" to-layer="174" to-port="0" />
		<edge from-layer="4" from-port="0" to-layer="153" to-port="0" />
		<edge from-layer="5" from-port="0" to-layer="132" to-port="0" />
		<edge from-layer="6" from-port="0" to-layer="111" to-port="0" />
		<edge from-layer="7" from-port="0" to-layer="90" to-port="0" />
		<edge from-layer="8" from-port="0" to-layer="69" to-port="0" />
		<edge from-layer="9" from-port="0" to-layer="48" to-port="0" />
		<edge from-layer="10" from-port="0" to-layer="27" to-port="0" />
		<edge from-layer="11" from-port="0" to-layer="13" to-port="1" />
		<edge from-layer="12" from-port="0" to-layer="13" to-port="2" />
		<edge from-layer="13" from-port="3" to-layer="15" to-port="0" />
		<edge from-layer="13" from-port="3" to-layer="18" to-port="0" />
		<edge from-layer="14" from-port="0" to-layer="15" to-port="1" />
		<edge from-layer="15" from-port="2" to-layer="16" to-port="0" />
		<edge from-layer="16" from-port="1" to-layer="20" to-port="0" />
		<edge from-layer="17" from-port="0" to-layer="18" to-port="1" />
		<edge from-layer="18" from-port="2" to-layer="19" to-port="0" />
		<edge from-layer="19" from-port="1" to-layer="20" to-port="1" />
		<edge from-layer="20" from-port="2" to-layer="21" to-port="0" />
		<edge from-layer="21" from-port="1" to-layer="22" to-port="0" />
		<edge from-layer="22" from-port="1" to-layer="24" to-port="0" />
		<edge from-layer="23" from-port="0" to-layer="24" to-port="1" />
		<edge from-layer="24" from-port="2" to-layer="26" to-port="0" />
		<edge from-layer="25" from-port="0" to-layer="26" to-port="1" />
		<edge from-layer="26" from-port="2" to-layer="39" to-port="1" />
		<edge from-layer="26" from-port="2" to-layer="27" to-port="1" />
		<edge from-layer="26" from-port="2" to-layer="30" to-port="1" />
		<edge from-layer="27" from-port="2" to-layer="47" to-port="0" />
		<edge from-layer="28" from-port="0" to-layer="30" to-port="0" />
		<edge from-layer="29" from-port="0" to-layer="30" to-port="2" />
		<edge from-layer="30" from-port="3" to-layer="32" to-port="0" />
		<edge from-layer="31" from-port="0" to-layer="32" to-port="1" />
		<edge from-layer="32" from-port="2" to-layer="34" to-port="1" />
		<edge from-layer="33" from-port="0" to-layer="34" to-port="2" />
		<edge from-layer="34" from-port="3" to-layer="36" to-port="0" />
		<edge from-layer="35" from-port="0" to-layer="36" to-port="1" />
		<edge from-layer="36" from-port="2" to-layer="42" to-port="0" />
		<edge from-layer="36" from-port="2" to-layer="40" to-port="0" />
		<edge from-layer="37" from-port="0" to-layer="39" to-port="0" />
		<edge from-layer="38" from-port="0" to-layer="39" to-port="2" />
		<edge from-layer="39" from-port="3" to-layer="42" to-port="1" />
		<edge from-layer="39" from-port="3" to-layer="40" to-port="1" />
		<edge from-layer="40" from-port="2" to-layer="41" to-port="0" />
		<edge from-layer="41" from-port="1" to-layer="44" to-port="0" />
		<edge from-layer="42" from-port="2" to-layer="43" to-port="0" />
		<edge from-layer="43" from-port="1" to-layer="44" to-port="1" />
		<edge from-layer="44" from-port="2" to-layer="45" to-port="0" />
		<edge from-layer="45" from-port="1" to-layer="46" to-port="0" />
		<edge from-layer="46" from-port="1" to-layer="47" to-port="1" />
		<edge from-layer="47" from-port="2" to-layer="48" to-port="1" />
		<edge from-layer="47" from-port="2" to-layer="51" to-port="1" />
		<edge from-layer="47" from-port="2" to-layer="60" to-port="1" />
		<edge from-layer="48" from-port="2" to-layer="68" to-port="0" />
		<edge from-layer="49" from-port="0" to-layer="51" to-port="0" />
		<edge from-layer="50" from-port="0" to-layer="51" to-port="2" />
		<edge from-layer="51" from-port="3" to-layer="53" to-port="0" />
		<edge from-layer="52" from-port="0" to-layer="53" to-port="1" />
		<edge from-layer="53" from-port="2" to-layer="55" to-port="1" />
		<edge from-layer="54" from-port="0" to-layer="55" to-port="2" />
		<edge from-layer="55" from-port="3" to-layer="57" to-port="0" />
		<edge from-layer="56" from-port="0" to-layer="57" to-port="1" />
		<edge from-layer="57" from-port="2" to-layer="63" to-port="0" />
		<edge from-layer="57" from-port="2" to-layer="61" to-port="0" />
		<edge from-layer="58" from-port="0" to-layer="60" to-port="0" />
		<edge from-layer="59" from-port="0" to-layer="60" to-port="2" />
		<edge from-layer="60" from-port="3" to-layer="63" to-port="1" />
		<edge from-layer="60" from-port="3" to-layer="61" to-port="1" />
		<edge from-layer="61" from-port="2" to-layer="62" to-port="0" />
		<edge from-layer="62" from-port="1" to-layer="65" to-port="0" />
		<edge from-layer="63" from-port="2" to-layer="64" to-port="0" />
		<edge from-layer="64" from-port="1" to-layer="65" to-port="1" />
		<edge from-layer="65" from-port="2" to-layer="66" to-port="0" />
		<edge from-layer="66" from-port="1" to-layer="67" to-port="0" />
		<edge from-layer="67" from-port="1" to-layer="68" to-port="1" />
		<edge from-layer="68" from-port="2" to-layer="72" to-port="1" />
		<edge from-layer="68" from-port="2" to-layer="69" to-port="1" />
		<edge from-layer="68" from-port="2" to-layer="81" to-port="1" />
		<edge from-layer="69" from-port="2" to-layer="89" to-port="0" />
		<edge from-layer="70" from-port="0" to-layer="72" to-port="0" />
		<edge from-layer="71" from-port="0" to-layer="72" to-port="2" />
		<edge from-layer="72" from-port="3" to-layer="74" to-port="0" />
		<edge from-layer="73" from-port="0" to-layer="74" to-port="1" />
		<edge from-layer="74" from-port="2" to-layer="76" to-port="1" />
		<edge from-layer="75" from-port="0" to-layer="76" to-port="2" />
		<edge from-layer="76" from-port="3" to-layer="78" to-port="0" />
		<edge from-layer="77" from-port="0" to-layer="78" to-port="1" />
		<edge from-layer="78" from-port="2" to-layer="82" to-port="0" />
		<edge from-layer="78" from-port="2" to-layer="84" to-port="0" />
		<edge from-layer="79" from-port="0" to-layer="81" to-port="0" />
		<edge from-layer="80" from-port="0" to-layer="81" to-port="2" />
		<edge from-layer="81" from-port="3" to-layer="84" to-port="1" />
		<edge from-layer="81" from-port="3" to-layer="82" to-port="1" />
		<edge from-layer="82" from-port="2" to-layer="83" to-port="0" />
		<edge from-layer="83" from-port="1" to-layer="86" to-port="0" />
		<edge from-layer="84" from-port="2" to-layer="85" to-port="0" />
		<edge from-layer="85" from-port="1" to-layer="86" to-port="1" />
		<edge from-layer="86" from-port="2" to-layer="87" to-port="0" />
		<edge from-layer="87" from-port="1" to-layer="88" to-port="0" />
		<edge from-layer="88" from-port="1" to-layer="89" to-port="1" />
		<edge from-layer="89" from-port="2" to-layer="102" to-port="1" />
		<edge from-layer="89" from-port="2" to-layer="90" to-port="1" />
		<edge from-layer="89" from-port="2" to-layer="93" to-port="1" />
		<edge from-layer="90" from-port="2" to-layer="110" to-port="0" />
		<edge from-layer="91" from-port="0" to-layer="93" to-port="0" />
		<edge from-layer="92" from-port="0" to-layer="93" to-port="2" />
		<edge from-layer="93" from-port="3" to-layer="95" to-port="0" />
		<edge from-layer="94" from-port="0" to-layer="95" to-port="1" />
		<edge from-layer="95" from-port="2" to-layer="97" to-port="1" />
		<edge from-layer="96" from-port="0" to-layer="97" to-port="2" />
		<edge from-layer="97" from-port="3" to-layer="99" to-port="0" />
		<edge from-layer="98" from-port="0" to-layer="99" to-port="1" />
		<edge from-layer="99" from-port="2" to-layer="105" to-port="0" />
		<edge from-layer="99" from-port="2" to-layer="103" to-port="0" />
		<edge from-layer="100" from-port="0" to-layer="102" to-port="0" />
		<edge from-layer="101" from-port="0" to-layer="102" to-port="2" />
		<edge from-layer="102" from-port="3" to-layer="105" to-port="1" />
		<edge from-layer="102" from-port="3" to-layer="103" to-port="1" />
		<edge from-layer="103" from-port="2" to-layer="104" to-port="0" />
		<edge from-layer="104" from-port="1" to-layer="107" to-port="0" />
		<edge from-layer="105" from-port="2" to-layer="106" to-port="0" />
		<edge from-layer="106" from-port="1" to-layer="107" to-port="1" />
		<edge from-layer="107" from-port="2" to-layer="108" to-port="0" />
		<edge from-layer="108" from-port="1" to-layer="109" to-port="0" />
		<edge from-layer="109" from-port="1" to-layer="110" to-port="1" />
		<edge from-layer="110" from-port="2" to-layer="114" to-port="1" />
		<edge from-layer="110" from-port="2" to-layer="123" to-port="1" />
		<edge from-layer="110" from-port="2" to-layer="111" to-port="1" />
		<edge from-layer="111" from-port="2" to-layer="131" to-port="0" />
		<edge from-layer="112" from-port="0" to-layer="114" to-port="0" />
		<edge from-layer="113" from-port="0" to-layer="114" to-port="2" />
		<edge from-layer="114" from-port="3" to-layer="116" to-port="0" />
		<edge from-layer="115" from-port="0" to-layer="116" to-port="1" />
		<edge from-layer="116" from-port="2" to-layer="118" to-port="1" />
		<edge from-layer="117" from-port="0" to-layer="118" to-port="2" />
		<edge from-layer="118" from-port="3" to-layer="120" to-port="0" />
		<edge from-layer="119" from-port="0" to-layer="120" to-port="1" />
		<edge from-layer="120" from-port="2" to-layer="124" to-port="0" />
		<edge from-layer="120" from-port="2" to-layer="126" to-port="0" />
		<edge from-layer="121" from-port="0" to-layer="123" to-port="0" />
		<edge from-layer="122" from-port="0" to-layer="123" to-port="2" />
		<edge from-layer="123" from-port="3" to-layer="126" to-port="1" />
		<edge from-layer="123" from-port="3" to-layer="124" to-port="1" />
		<edge from-layer="124" from-port="2" to-layer="125" to-port="0" />
		<edge from-layer="125" from-port="1" to-layer="128" to-port="0" />
		<edge from-layer="126" from-port="2" to-layer="127" to-port="0" />
		<edge from-layer="127" from-port="1" to-layer="128" to-port="1" />
		<edge from-layer="128" from-port="2" to-layer="129" to-port="0" />
		<edge from-layer="129" from-port="1" to-layer="130" to-port="0" />
		<edge from-layer="130" from-port="1" to-layer="131" to-port="1" />
		<edge from-layer="131" from-port="2" to-layer="135" to-port="1" />
		<edge from-layer="131" from-port="2" to-layer="132" to-port="1" />
		<edge from-layer="131" from-port="2" to-layer="144" to-port="1" />
		<edge from-layer="132" from-port="2" to-layer="152" to-port="0" />
		<edge from-layer="133" from-port="0" to-layer="135" to-port="0" />
		<edge from-layer="134" from-port="0" to-layer="135" to-port="2" />
		<edge from-layer="135" from-port="3" to-layer="137" to-port="0" />
		<edge from-layer="136" from-port="0" to-layer="137" to-port="1" />
		<edge from-layer="137" from-port="2" to-layer="139" to-port="1" />
		<edge from-layer="138" from-port="0" to-layer="139" to-port="2" />
		<edge from-layer="139" from-port="3" to-layer="141" to-port="0" />
		<edge from-layer="140" from-port="0" to-layer="141" to-port="1" />
		<edge from-layer="141" from-port="2" to-layer="145" to-port="0" />
		<edge from-layer="141" from-port="2" to-layer="147" to-port="0" />
		<edge from-layer="142" from-port="0" to-layer="144" to-port="0" />
		<edge from-layer="143" from-port="0" to-layer="144" to-port="2" />
		<edge from-layer="144" from-port="3" to-layer="145" to-port="1" />
		<edge from-layer="144" from-port="3" to-layer="147" to-port="1" />
		<edge from-layer="145" from-port="2" to-layer="146" to-port="0" />
		<edge from-layer="146" from-port="1" to-layer="149" to-port="0" />
		<edge from-layer="147" from-port="2" to-layer="148" to-port="0" />
		<edge from-layer="148" from-port="1" to-layer="149" to-port="1" />
		<edge from-layer="149" from-port="2" to-layer="150" to-port="0" />
		<edge from-layer="150" from-port="1" to-layer="151" to-port="0" />
		<edge from-layer="151" from-port="1" to-layer="152" to-port="1" />
		<edge from-layer="152" from-port="2" to-layer="153" to-port="1" />
		<edge from-layer="152" from-port="2" to-layer="156" to-port="1" />
		<edge from-layer="152" from-port="2" to-layer="165" to-port="1" />
		<edge from-layer="153" from-port="2" to-layer="173" to-port="0" />
		<edge from-layer="154" from-port="0" to-layer="156" to-port="0" />
		<edge from-layer="155" from-port="0" to-layer="156" to-port="2" />
		<edge from-layer="156" from-port="3" to-layer="158" to-port="0" />
		<edge from-layer="157" from-port="0" to-layer="158" to-port="1" />
		<edge from-layer="158" from-port="2" to-layer="160" to-port="1" />
		<edge from-layer="159" from-port="0" to-layer="160" to-port="2" />
		<edge from-layer="160" from-port="3" to-layer="162" to-port="0" />
		<edge from-layer="161" from-port="0" to-layer="162" to-port="1" />
		<edge from-layer="162" from-port="2" to-layer="166" to-port="0" />
		<edge from-layer="162" from-port="2" to-layer="168" to-port="0" />
		<edge from-layer="163" from-port="0" to-layer="165" to-port="0" />
		<edge from-layer="164" from-port="0" to-layer="165" to-port="2" />
		<edge from-layer="165" from-port="3" to-layer="166" to-port="1" />
		<edge from-layer="165" from-port="3" to-layer="168" to-port="1" />
		<edge from-layer="166" from-port="2" to-layer="167" to-port="0" />
		<edge from-layer="167" from-port="1" to-layer="170" to-port="0" />
		<edge from-layer="168" from-port="2" to-layer="169" to-port="0" />
		<edge from-layer="169" from-port="1" to-layer="170" to-port="1" />
		<edge from-layer="170" from-port="2" to-layer="171" to-port="0" />
		<edge from-layer="171" from-port="1" to-layer="172" to-port="0" />
		<edge from-layer="172" from-port="1" to-layer="173" to-port="1" />
		<edge from-layer="173" from-port="2" to-layer="186" to-port="1" />
		<edge from-layer="173" from-port="2" to-layer="174" to-port="1" />
		<edge from-layer="173" from-port="2" to-layer="177" to-port="1" />
		<edge from-layer="174" from-port="2" to-layer="194" to-port="0" />
		<edge from-layer="175" from-port="0" to-layer="177" to-port="0" />
		<edge from-layer="176" from-port="0" to-layer="177" to-port="2" />
		<edge from-layer="177" from-port="3" to-layer="179" to-port="0" />
		<edge from-layer="178" from-port="0" to-layer="179" to-port="1" />
		<edge from-layer="179" from-port="2" to-layer="181" to-port="1" />
		<edge from-layer="180" from-port="0" to-layer="181" to-port="2" />
		<edge from-layer="181" from-port="3" to-layer="183" to-port="0" />
		<edge from-layer="182" from-port="0" to-layer="183" to-port="1" />
		<edge from-layer="183" from-port="2" to-layer="187" to-port="0" />
		<edge from-layer="183" from-port="2" to-layer="189" to-port="0" />
		<edge from-layer="184" from-port="0" to-layer="186" to-port="0" />
		<edge from-layer="185" from-port="0" to-layer="186" to-port="2" />
		<edge from-layer="186" from-port="3" to-layer="189" to-port="1" />
		<edge from-layer="186" from-port="3" to-layer="187" to-port="1" />
		<edge from-layer="187" from-port="2" to-layer="188" to-port="0" />
		<edge from-layer="188" from-port="1" to-layer="191" to-port="0" />
		<edge from-layer="189" from-port="2" to-layer="190" to-port="0" />
		<edge from-layer="190" from-port="1" to-layer="191" to-port="1" />
		<edge from-layer="191" from-port="2" to-layer="192" to-port="0" />
		<edge from-layer="192" from-port="1" to-layer="193" to-port="0" />
		<edge from-layer="193" from-port="1" to-layer="194" to-port="1" />
		<edge from-layer="194" from-port="2" to-layer="207" to-port="1" />
		<edge from-layer="194" from-port="2" to-layer="195" to-port="1" />
		<edge from-layer="194" from-port="2" to-layer="198" to-port="1" />
		<edge from-layer="195" from-port="2" to-layer="215" to-port="0" />
		<edge from-layer="196" from-port="0" to-layer="198" to-port="0" />
		<edge from-layer="197" from-port="0" to-layer="198" to-port="2" />
		<edge from-layer="198" from-port="3" to-layer="200" to-port="0" />
		<edge from-layer="199" from-port="0" to-layer="200" to-port="1" />
		<edge from-layer="200" from-port="2" to-layer="202" to-port="1" />
		<edge from-layer="201" from-port="0" to-layer="202" to-port="2" />
		<edge from-layer="202" from-port="3" to-layer="204" to-port="0" />
		<edge from-layer="203" from-port="0" to-layer="204" to-port="1" />
		<edge from-layer="204" from-port="2" to-layer="208" to-port="0" />
		<edge from-layer="204" from-port="2" to-layer="210" to-port="0" />
		<edge from-layer="205" from-port="0" to-layer="207" to-port="0" />
		<edge from-layer="206" from-port="0" to-layer="207" to-port="2" />
		<edge from-layer="207" from-port="3" to-layer="208" to-port="1" />
		<edge from-layer="207" from-port="3" to-layer="210" to-port="1" />
		<edge from-layer="208" from-port="2" to-layer="209" to-port="0" />
		<edge from-layer="209" from-port="1" to-layer="212" to-port="0" />
		<edge from-layer="210" from-port="2" to-layer="211" to-port="0" />
		<edge from-layer="211" from-port="1" to-layer="212" to-port="1" />
		<edge from-layer="212" from-port="2" to-layer="213" to-port="0" />
		<edge from-layer="213" from-port="1" to-layer="214" to-port="0" />
		<edge from-layer="214" from-port="1" to-layer="215" to-port="1" />
		<edge from-layer="215" from-port="2" to-layer="217" to-port="1" />
		<edge from-layer="216" from-port="0" to-layer="217" to-port="2" />
		<edge from-layer="217" from-port="3" to-layer="219" to-port="0" />
		<edge from-layer="218" from-port="0" to-layer="219" to-port="1" />
		<edge from-layer="219" from-port="2" to-layer="221" to-port="0" />
		<edge from-layer="220" from-port="0" to-layer="221" to-port="1" />
		<edge from-layer="221" from-port="2" to-layer="222" to-port="0" />
	</edges>
	<rt_info>
		<MO_version value="2022.3.0-9052-9752fafe8eb-releases/2022/3" />
		<Runtime_version value="2022.3.0-9052-9752fafe8eb-releases/2022/3" />
		<conversion_parameters>
			<framework value="tf" />
			<input_shape value="[1,8]" />
			<model_name value="ptt_test" />
			<output_dir value="DIR" />
			<saved_model_dir value="DIR" />
			<use_new_frontend value="True" />
		</conversion_parameters>
		<legacy_frontend value="False" />
	</rt_info>
</net>
