<?xml version="1.0"?>
<net name="TensorFlow_Frontend_IR" version="11">
	<layers>
		<layer id="0" name="input_1" type="Parameter" version="opset1">
			<data shape="1,8" element_type="f32" />
			<output>
				<port id="0" precision="FP32" names="Func/StatefulPartitionedCall/input/_0,Func/StatefulPartitionedCall/input/_0:0,input_1,input_1:0">
					<dim>1</dim>
					<dim>8</dim>
				</port>
			</output>
		</layer>
		<layer id="1" name="unknown_3" type="Const" version="opset1">
			<data element_type="f32" shape="16777216, 4" offset="0" size="268435456" />
			<output>
				<port id="0" precision="FP32" names="Func/StatefulPartitionedCall/input/_5,Func/StatefulPartitionedCall/input/_5:0,unknown_3,unknown_3:0">
					<dim>16777216</dim>
					<dim>4</dim>
				</port>
			</output>
		</layer>
		<layer id="2" name="Constant_6009" type="Const" version="opset1">
			<data element_type="i64" shape="1" offset="268435456" size="8" />
			<output>
				<port id="0" precision="I64">
					<dim>1</dim>
				</port>
			</output>
		</layer>
		<layer id="3" name="Constant_6008" type="Const" version="opset1">
			<data element_type="i64" shape="1" offset="268435456" size="8" />
			<output>
				<port id="0" precision="I64">
					<dim>1</dim>
				</port>
			</output>
		</layer>
		<layer id="4" name="Constant_6007" type="Const" version="opset1">
			<data element_type="i64" shape="1" offset="268435456" size="8" />
			<output>
				<port id="0" precision="I64">
					<dim>1</dim>
				</port>
			</output>
		</layer>
		<layer id="5" name="Constant_6006" type="Const" version="opset1">
			<data element_type="i64" shape="1" offset="268435456" size="8" />
			<output>
				<port id="0" precision="I64">
					<dim>1</dim>
				</port>
			</output>
		</layer>
		<layer id="6" name="Constant_6005" type="Const" version="opset1">
			<data element_type="i64" shape="1" offset="268435456" size="8" />
			<output>
				<port id="0" precision="I64">
					<dim>1</dim>
				</port>
			</output>
		</layer>
		<layer id="7" name="Constant_6004" type="Const" version="opset1">
			<data element_type="i64" shape="1" offset="268435456" size="8" />
			<output>
				<port id="0" precision="I64">
					<dim>1</dim>
				</port>
			</output>
		</layer>
		<layer id="8" name="Constant_6003" type="Const" version="opset1">
			<data element_type="i64" shape="1" offset="268435456" size="8" />
			<output>
				<port id="0" precision="I64">
					<dim>1</dim>
				</port>
			</output>
		</layer>
		<layer id="9" name="Constant_6002" type="Const" version="opset1">
			<data element_type="i64" shape="1" offset="268435456" size="8" />
			<output>
				<port id="0" precision="I64">
					<dim>1</dim>
				</port>
			</output>
		</layer>
		<layer id="10" name="Constant_6001" type="Const" version="opset1">
			<data element_type="i64" shape="1" offset="268435456" size="8" />
			<output>
				<port id="0" precision="I64">
					<dim>1</dim>
				</port>
			</output>
		</layer>
		<layer id="11" name="Constant_6000" type="Const" version="opset1">
			<data element_type="i64" shape="1" offset="268435456" size="8" />
			<output>
				<port id="0" precision="I64">
					<dim>1</dim>
				</port>
			</output>
		</layer>
		<layer id="12" name="Constant_5999" type="Const" version="opset1">
			<data element_type="i64" shape="1" offset="268435456" size="8" />
			<output>
				<port id="0" precision="I64">
					<dim>1</dim>
				</port>
			</output>
		</layer>
		<layer id="13" name="Constant_5998" type="Const" version="opset1">
			<data element_type="i64" shape="1" offset="268435456" size="8" />
			<output>
				<port id="0" precision="I64">
					<dim>1</dim>
				</port>
			</output>
		</layer>
		<layer id="14" name="Constant_5997" type="Const" version="opset1">
			<data element_type="i64" shape="1" offset="268435456" size="8" />
			<output>
				<port id="0" precision="I64">
					<dim>1</dim>
				</port>
			</output>
		</layer>
		<layer id="15" name="Constant_5996" type="Const" version="opset1">
			<data element_type="i64" shape="1" offset="268435456" size="8" />
			<output>
				<port id="0" precision="I64">
					<dim>1</dim>
				</port>
			</output>
		</layer>
		<layer id="16" name="Constant_5995" type="Const" version="opset1">
			<data element_type="i64" shape="1" offset="268435456" size="8" />
			<output>
				<port id="0" precision="I64">
					<dim>1</dim>
				</port>
			</output>
		</layer>
		<layer id="17" name="unknown" type="Const" version="opset1">
			<data element_type="i64" shape="256" offset="268435464" size="2048" />
			<output>
				<port id="0" precision="I64" names="Func/StatefulPartitionedCall/input/_1,Func/StatefulPartitionedCall/input/_1:0,StatefulPartitionedCall/first_keras/GatherV2/ReadVariableOp,StatefulPartitionedCall/first_keras/GatherV2/ReadVariableOp:0,unknown,unknown:0">
					<dim>256</dim>
				</port>
			</output>
		</layer>
		<layer id="18" name="StatefulPartitionedCall/first_keras/GatherV2/axis" type="Const" version="opset1">
			<data element_type="i32" shape="" offset="268437512" size="4" />
			<output>
				<port id="0" precision="I32" names="StatefulPartitionedCall/first_keras/GatherV2/axis,StatefulPartitionedCall/first_keras/GatherV2/axis:0" />
			</output>
		</layer>
		<layer id="19" name="StatefulPartitionedCall/first_keras/GatherV2" type="Gather" version="opset8">
			<data batch_dims="0" />
			<input>
				<port id="0" precision="FP32">
					<dim>1</dim>
					<dim>8</dim>
				</port>
				<port id="1" precision="I64">
					<dim>256</dim>
				</port>
				<port id="2" precision="I32" />
			</input>
			<output>
				<port id="3" precision="FP32" names="StatefulPartitionedCall/first_keras/GatherV2,StatefulPartitionedCall/first_keras/GatherV2:0">
					<dim>1</dim>
					<dim>256</dim>
				</port>
			</output>
		</layer>
		<layer id="20" name="Constant_5992" type="Const" version="opset1">
			<data element_type="f32" shape="1, 256" offset="268437516" size="1024" />
			<output>
				<port id="0" precision="FP32">
					<dim>1</dim>
					<dim>256</dim>
				</port>
			</output>
		</layer>
		<layer id="21" name="StatefulPartitionedCall/first_keras/Less" type="Less" version="opset1">
			<data auto_broadcast="numpy" />
			<input>
				<port id="0" precision="FP32">
					<dim>1</dim>
					<dim>256</dim>
				</port>
				<port id="1" precision="FP32">
					<dim>1</dim>
					<dim>256</dim>
				</port>
			</input>
			<output>
				<port id="2" precision="BOOL" names="StatefulPartitionedCall/first_keras/Less,StatefulPartitionedCall/first_keras/Less:0">
					<dim>1</dim>
					<dim>256</dim>
				</port>
			</output>
		</layer>
		<layer id="22" name="StatefulPartitionedCall/first_keras/Cast" type="Convert" version="opset1">
			<data destination_type="f32" />
			<input>
				<port id="0" precision="BOOL">
					<dim>1</dim>
					<dim>256</dim>
				</port>
			</input>
			<output>
				<port id="1" precision="FP32" names="StatefulPartitionedCall/first_keras/Cast,StatefulPartitionedCall/first_keras/Cast:0">
					<dim>1</dim>
					<dim>256</dim>
				</port>
			</output>
		</layer>
		<layer id="23" name="Constant_5993" type="Const" version="opset1">
			<data element_type="f32" shape="1, 256" offset="268437516" size="1024" />
			<output>
				<port id="0" precision="FP32">
					<dim>1</dim>
					<dim>256</dim>
				</port>
			</output>
		</layer>
		<layer id="24" name="StatefulPartitionedCall/first_keras/Equal" type="Equal" version="opset1">
			<data auto_broadcast="numpy" />
			<input>
				<port id="0" precision="FP32">
					<dim>1</dim>
					<dim>256</dim>
				</port>
				<port id="1" precision="FP32">
					<dim>1</dim>
					<dim>256</dim>
				</port>
			</input>
			<output>
				<port id="2" precision="BOOL" names="StatefulPartitionedCall/first_keras/Equal,StatefulPartitionedCall/first_keras/Equal:0">
					<dim>1</dim>
					<dim>256</dim>
				</port>
			</output>
		</layer>
		<layer id="25" name="StatefulPartitionedCall/first_keras/Cast_1" type="Convert" version="opset1">
			<data destination_type="f32" />
			<input>
				<port id="0" precision="BOOL">
					<dim>1</dim>
					<dim>256</dim>
				</port>
			</input>
			<output>
				<port id="1" precision="FP32" names="StatefulPartitionedCall/first_keras/Cast_1,StatefulPartitionedCall/first_keras/Cast_1:0">
					<dim>1</dim>
					<dim>256</dim>
				</port>
			</output>
		</layer>
		<layer id="26" name="StatefulPartitionedCall/first_keras/Add" type="Add" version="opset1">
			<data auto_broadcast="numpy" />
			<input>
				<port id="0" precision="FP32">
					<dim>1</dim>
					<dim>256</dim>
				</port>
				<port id="1" precision="FP32">
					<dim>1</dim>
					<dim>256</dim>
				</port>
			</input>
			<output>
				<port id="2" precision="FP32" names="StatefulPartitionedCall/first_keras/Add,StatefulPartitionedCall/first_keras/Add:0">
					<dim>1</dim>
					<dim>256</dim>
				</port>
			</output>
		</layer>
		<layer id="27" name="StatefulPartitionedCall/first_keras/Cast_2" type="Convert" version="opset1">
			<data destination_type="boolean" />
			<input>
				<port id="0" precision="FP32">
					<dim>1</dim>
					<dim>256</dim>
				</port>
			</input>
			<output>
				<port id="1" precision="BOOL" names="StatefulPartitionedCall/first_keras/Cast_2,StatefulPartitionedCall/first_keras/Cast_2:0">
					<dim>1</dim>
					<dim>256</dim>
				</port>
			</output>
		</layer>
		<layer id="28" name="StatefulPartitionedCall/first_keras/Cast_3" type="Convert" version="opset1">
			<data destination_type="i64" />
			<input>
				<port id="0" precision="BOOL">
					<dim>1</dim>
					<dim>256</dim>
				</port>
			</input>
			<output>
				<port id="1" precision="I64" names="StatefulPartitionedCall/first_keras/Cast_3,StatefulPartitionedCall/first_keras/Cast_3:0">
					<dim>1</dim>
					<dim>256</dim>
				</port>
			</output>
		</layer>
		<layer id="29" name="Constant_5994" type="Const" version="opset1">
			<data element_type="i64" shape="1, 256" offset="268438540" size="2048" />
			<output>
				<port id="0" precision="I64">
					<dim>1</dim>
					<dim>256</dim>
				</port>
			</output>
		</layer>
		<layer id="30" name="StatefulPartitionedCall/first_keras/add_1" type="Add" version="opset1">
			<data auto_broadcast="numpy" />
			<input>
				<port id="0" precision="I64">
					<dim>1</dim>
					<dim>256</dim>
				</port>
				<port id="1" precision="I64">
					<dim>1</dim>
					<dim>256</dim>
				</port>
			</input>
			<output>
				<port id="2" precision="I64" names="StatefulPartitionedCall/first_keras/add_1,StatefulPartitionedCall/first_keras/add_1:0">
					<dim>1</dim>
					<dim>256</dim>
				</port>
			</output>
		</layer>
		<layer id="31" name="Constant_3255" type="Const" version="opset1">
			<data element_type="i64" shape="1" offset="268440588" size="8" />
			<output>
				<port id="0" precision="I64">
					<dim>1</dim>
				</port>
			</output>
		</layer>
		<layer id="32" name="StatefulPartitionedCall/first_keras/Reshape" type="Reshape" version="opset1">
			<data special_zero="false" />
			<input>
				<port id="0" precision="I64">
					<dim>1</dim>
					<dim>256</dim>
				</port>
				<port id="1" precision="I64">
					<dim>1</dim>
				</port>
			</input>
			<output>
				<port id="2" precision="I64" names="StatefulPartitionedCall/first_keras/Reshape,StatefulPartitionedCall/first_keras/Reshape:0">
					<dim>256</dim>
				</port>
			</output>
		</layer>
		<layer id="33" name="StatefulPartitionedCall/first_keras/mul" type="Multiply" version="opset1">
			<data auto_broadcast="numpy" />
			<input>
				<port id="0" precision="I64">
					<dim>1</dim>
				</port>
				<port id="1" precision="I64">
					<dim>256</dim>
				</port>
			</input>
			<output>
				<port id="2" precision="I64" names="StatefulPartitionedCall/first_keras/mul,StatefulPartitionedCall/first_keras/mul:0">
					<dim>256</dim>
				</port>
			</output>
		</layer>
		<layer id="34" name="StatefulPartitionedCall/first_keras/GatherV2_1/params" type="Const" version="opset1">
			<data element_type="i64" shape="512" offset="268440596" size="4096" />
			<output>
				<port id="0" precision="I64" names="StatefulPartitionedCall/first_keras/GatherV2_1/params,StatefulPartitionedCall/first_keras/GatherV2_1/params:0">
					<dim>512</dim>
				</port>
			</output>
		</layer>
		<layer id="35" name="StatefulPartitionedCall/first_keras/GatherV2_1/axis" type="Const" version="opset1">
			<data element_type="i32" shape="" offset="268444692" size="4" />
			<output>
				<port id="0" precision="I32" names="StatefulPartitionedCall/first_keras/GatherV2_1/axis,StatefulPartitionedCall/first_keras/GatherV2_1/axis:0" />
			</output>
		</layer>
		<layer id="36" name="StatefulPartitionedCall/first_keras/GatherV2_1" type="Gather" version="opset8">
			<data batch_dims="0" />
			<input>
				<port id="0" precision="I64">
					<dim>512</dim>
				</port>
				<port id="1" precision="I64">
					<dim>256</dim>
				</port>
				<port id="2" precision="I32" />
			</input>
			<output>
				<port id="3" precision="I64" names="StatefulPartitionedCall/first_keras/GatherV2_1,StatefulPartitionedCall/first_keras/GatherV2_1:0">
					<dim>256</dim>
				</port>
			</output>
		</layer>
		<layer id="37" name="Concat_1057" type="Const" version="opset1">
			<data element_type="i32" shape="2" offset="268444696" size="8" />
			<output>
				<port id="0" precision="I32" names="StatefulPartitionedCall/first_keras/Reshape_1/shape,StatefulPartitionedCall/first_keras/Reshape_1/shape:0">
					<dim>2</dim>
				</port>
			</output>
		</layer>
		<layer id="38" name="StatefulPartitionedCall/first_keras/Reshape_1" type="Reshape" version="opset1">
			<data special_zero="false" />
			<input>
				<port id="0" precision="I64">
					<dim>256</dim>
				</port>
				<port id="1" precision="I32">
					<dim>2</dim>
				</port>
			</input>
			<output>
				<port id="2" precision="I64" names="StatefulPartitionedCall/first_keras/Reshape_1,StatefulPartitionedCall/first_keras/Reshape_1:0">
					<dim>1</dim>
					<dim>256</dim>
				</port>
			</output>
		</layer>
		<layer id="39" name="StatefulPartitionedCall/first_keras/GatherV2_2/axis" type="Const" version="opset1">
			<data element_type="i32" shape="" offset="268437512" size="4" />
			<output>
				<port id="0" precision="I32" names="StatefulPartitionedCall/first_keras/GatherV2_2/axis,StatefulPartitionedCall/first_keras/GatherV2_2/axis:0" />
			</output>
		</layer>
		<layer id="40" name="StatefulPartitionedCall/first_keras/GatherV2_2" type="Gather" version="opset8">
			<data batch_dims="0" />
			<input>
				<port id="0" precision="FP32">
					<dim>1</dim>
					<dim>8</dim>
				</port>
				<port id="1" precision="I64">
					<dim>1</dim>
					<dim>256</dim>
				</port>
				<port id="2" precision="I32" />
			</input>
			<output>
				<port id="3" precision="FP32" names="StatefulPartitionedCall/first_keras/GatherV2_2,StatefulPartitionedCall/first_keras/GatherV2_2:0">
					<dim>1</dim>
					<dim>1</dim>
					<dim>256</dim>
				</port>
			</output>
		</layer>
		<layer id="41" name="Constant_3256" type="Const" version="opset1">
			<data element_type="i64" shape="1" offset="268440588" size="8" />
			<output>
				<port id="0" precision="I64">
					<dim>1</dim>
				</port>
			</output>
		</layer>
		<layer id="42" name="StatefulPartitionedCall/first_keras/Reshape_2" type="Reshape" version="opset1">
			<data special_zero="false" />
			<input>
				<port id="0" precision="FP32">
					<dim>1</dim>
					<dim>1</dim>
					<dim>256</dim>
				</port>
				<port id="1" precision="I64">
					<dim>1</dim>
				</port>
			</input>
			<output>
				<port id="2" precision="FP32" names="StatefulPartitionedCall/first_keras/Reshape_2,StatefulPartitionedCall/first_keras/Reshape_2:0">
					<dim>256</dim>
				</port>
			</output>
		</layer>
		<layer id="43" name="StatefulPartitionedCall/first_keras/GatherV2_3/params" type="Const" version="opset1">
			<data element_type="f32" shape="512" offset="268444704" size="2048" />
			<output>
				<port id="0" precision="FP32" names="StatefulPartitionedCall/first_keras/GatherV2_3/params,StatefulPartitionedCall/first_keras/GatherV2_3/params:0">
					<dim>512</dim>
				</port>
			</output>
		</layer>
		<layer id="44" name="StatefulPartitionedCall/first_keras/GatherV2_3/axis" type="Const" version="opset1">
			<data element_type="i32" shape="" offset="268444692" size="4" />
			<output>
				<port id="0" precision="I32" names="StatefulPartitionedCall/first_keras/GatherV2_3/axis,StatefulPartitionedCall/first_keras/GatherV2_3/axis:0" />
			</output>
		</layer>
		<layer id="45" name="StatefulPartitionedCall/first_keras/GatherV2_3" type="Gather" version="opset8">
			<data batch_dims="0" />
			<input>
				<port id="0" precision="FP32">
					<dim>512</dim>
				</port>
				<port id="1" precision="I64">
					<dim>256</dim>
				</port>
				<port id="2" precision="I32" />
			</input>
			<output>
				<port id="3" precision="FP32" names="StatefulPartitionedCall/first_keras/GatherV2_3,StatefulPartitionedCall/first_keras/GatherV2_3:0">
					<dim>256</dim>
				</port>
			</output>
		</layer>
		<layer id="46" name="StatefulPartitionedCall/first_keras/Less_1" type="Less" version="opset1">
			<data auto_broadcast="numpy" />
			<input>
				<port id="0" precision="FP32">
					<dim>256</dim>
				</port>
				<port id="1" precision="FP32">
					<dim>256</dim>
				</port>
			</input>
			<output>
				<port id="2" precision="BOOL" names="StatefulPartitionedCall/first_keras/Less_1,StatefulPartitionedCall/first_keras/Less_1:0">
					<dim>256</dim>
				</port>
			</output>
		</layer>
		<layer id="47" name="StatefulPartitionedCall/first_keras/Cast_4" type="Convert" version="opset1">
			<data destination_type="f32" />
			<input>
				<port id="0" precision="BOOL">
					<dim>256</dim>
				</port>
			</input>
			<output>
				<port id="1" precision="FP32" names="StatefulPartitionedCall/first_keras/Cast_4,StatefulPartitionedCall/first_keras/Cast_4:0">
					<dim>256</dim>
				</port>
			</output>
		</layer>
		<layer id="48" name="StatefulPartitionedCall/first_keras/Equal_1" type="Equal" version="opset1">
			<data auto_broadcast="numpy" />
			<input>
				<port id="0" precision="FP32">
					<dim>256</dim>
				</port>
				<port id="1" precision="FP32">
					<dim>256</dim>
				</port>
			</input>
			<output>
				<port id="2" precision="BOOL" names="StatefulPartitionedCall/first_keras/Equal_1,StatefulPartitionedCall/first_keras/Equal_1:0">
					<dim>256</dim>
				</port>
			</output>
		</layer>
		<layer id="49" name="StatefulPartitionedCall/first_keras/Cast_5" type="Convert" version="opset1">
			<data destination_type="f32" />
			<input>
				<port id="0" precision="BOOL">
					<dim>256</dim>
				</port>
			</input>
			<output>
				<port id="1" precision="FP32" names="StatefulPartitionedCall/first_keras/Cast_5,StatefulPartitionedCall/first_keras/Cast_5:0">
					<dim>256</dim>
				</port>
			</output>
		</layer>
		<layer id="50" name="StatefulPartitionedCall/first_keras/Add_2" type="Add" version="opset1">
			<data auto_broadcast="numpy" />
			<input>
				<port id="0" precision="FP32">
					<dim>256</dim>
				</port>
				<port id="1" precision="FP32">
					<dim>256</dim>
				</port>
			</input>
			<output>
				<port id="2" precision="FP32" names="StatefulPartitionedCall/first_keras/Add_2,StatefulPartitionedCall/first_keras/Add_2:0">
					<dim>256</dim>
				</port>
			</output>
		</layer>
		<layer id="51" name="StatefulPartitionedCall/first_keras/Cast_6" type="Convert" version="opset1">
			<data destination_type="boolean" />
			<input>
				<port id="0" precision="FP32">
					<dim>256</dim>
				</port>
			</input>
			<output>
				<port id="1" precision="BOOL" names="StatefulPartitionedCall/first_keras/Cast_6,StatefulPartitionedCall/first_keras/Cast_6:0">
					<dim>256</dim>
				</port>
			</output>
		</layer>
		<layer id="52" name="StatefulPartitionedCall/first_keras/Cast_7" type="Convert" version="opset1">
			<data destination_type="i64" />
			<input>
				<port id="0" precision="BOOL">
					<dim>256</dim>
				</port>
			</input>
			<output>
				<port id="1" precision="I64" names="StatefulPartitionedCall/first_keras/Cast_7,StatefulPartitionedCall/first_keras/Cast_7:0">
					<dim>256</dim>
				</port>
			</output>
		</layer>
		<layer id="53" name="StatefulPartitionedCall/first_keras/add_3" type="Add" version="opset1">
			<data auto_broadcast="numpy" />
			<input>
				<port id="0" precision="I64">
					<dim>256</dim>
				</port>
				<port id="1" precision="I64">
					<dim>256</dim>
				</port>
			</input>
			<output>
				<port id="2" precision="I64" names="StatefulPartitionedCall/first_keras/add_3,StatefulPartitionedCall/first_keras/add_3:0">
					<dim>256</dim>
				</port>
			</output>
		</layer>
		<layer id="54" name="StatefulPartitionedCall/first_keras/mul_1" type="Multiply" version="opset1">
			<data auto_broadcast="numpy" />
			<input>
				<port id="0" precision="I64">
					<dim>1</dim>
				</port>
				<port id="1" precision="I64">
					<dim>256</dim>
				</port>
			</input>
			<output>
				<port id="2" precision="I64" names="StatefulPartitionedCall/first_keras/mul_1,StatefulPartitionedCall/first_keras/mul_1:0">
					<dim>256</dim>
				</port>
			</output>
		</layer>
		<layer id="55" name="StatefulPartitionedCall/first_keras/GatherV2_4/params" type="Const" version="opset1">
			<data element_type="i64" shape="1024" offset="268446752" size="8192" />
			<output>
				<port id="0" precision="I64" names="StatefulPartitionedCall/first_keras/GatherV2_4/params,StatefulPartitionedCall/first_keras/GatherV2_4/params:0">
					<dim>1024</dim>
				</port>
			</output>
		</layer>
		<layer id="56" name="StatefulPartitionedCall/first_keras/GatherV2_4/axis" type="Const" version="opset1">
			<data element_type="i32" shape="" offset="268444692" size="4" />
			<output>
				<port id="0" precision="I32" names="StatefulPartitionedCall/first_keras/GatherV2_4/axis,StatefulPartitionedCall/first_keras/GatherV2_4/axis:0" />
			</output>
		</layer>
		<layer id="57" name="StatefulPartitionedCall/first_keras/GatherV2_4" type="Gather" version="opset8">
			<data batch_dims="0" />
			<input>
				<port id="0" precision="I64">
					<dim>1024</dim>
				</port>
				<port id="1" precision="I64">
					<dim>256</dim>
				</port>
				<port id="2" precision="I32" />
			</input>
			<output>
				<port id="3" precision="I64" names="StatefulPartitionedCall/first_keras/GatherV2_4,StatefulPartitionedCall/first_keras/GatherV2_4:0">
					<dim>256</dim>
				</port>
			</output>
		</layer>
		<layer id="58" name="Concat_1106" type="Const" version="opset1">
			<data element_type="i32" shape="2" offset="268444696" size="8" />
			<output>
				<port id="0" precision="I32" names="StatefulPartitionedCall/first_keras/Reshape_3/shape,StatefulPartitionedCall/first_keras/Reshape_3/shape:0">
					<dim>2</dim>
				</port>
			</output>
		</layer>
		<layer id="59" name="StatefulPartitionedCall/first_keras/Reshape_3" type="Reshape" version="opset1">
			<data special_zero="false" />
			<input>
				<port id="0" precision="I64">
					<dim>256</dim>
				</port>
				<port id="1" precision="I32">
					<dim>2</dim>
				</port>
			</input>
			<output>
				<port id="2" precision="I64" names="StatefulPartitionedCall/first_keras/Reshape_3,StatefulPartitionedCall/first_keras/Reshape_3:0">
					<dim>1</dim>
					<dim>256</dim>
				</port>
			</output>
		</layer>
		<layer id="60" name="StatefulPartitionedCall/first_keras/GatherV2_5/axis" type="Const" version="opset1">
			<data element_type="i32" shape="" offset="268437512" size="4" />
			<output>
				<port id="0" precision="I32" names="StatefulPartitionedCall/first_keras/GatherV2_5/axis,StatefulPartitionedCall/first_keras/GatherV2_5/axis:0" />
			</output>
		</layer>
		<layer id="61" name="StatefulPartitionedCall/first_keras/GatherV2_5" type="Gather" version="opset8">
			<data batch_dims="0" />
			<input>
				<port id="0" precision="FP32">
					<dim>1</dim>
					<dim>8</dim>
				</port>
				<port id="1" precision="I64">
					<dim>1</dim>
					<dim>256</dim>
				</port>
				<port id="2" precision="I32" />
			</input>
			<output>
				<port id="3" precision="FP32" names="StatefulPartitionedCall/first_keras/GatherV2_5,StatefulPartitionedCall/first_keras/GatherV2_5:0">
					<dim>1</dim>
					<dim>1</dim>
					<dim>256</dim>
				</port>
			</output>
		</layer>
		<layer id="62" name="Constant_3257" type="Const" version="opset1">
			<data element_type="i64" shape="1" offset="268440588" size="8" />
			<output>
				<port id="0" precision="I64">
					<dim>1</dim>
				</port>
			</output>
		</layer>
		<layer id="63" name="StatefulPartitionedCall/first_keras/Reshape_4" type="Reshape" version="opset1">
			<data special_zero="false" />
			<input>
				<port id="0" precision="FP32">
					<dim>1</dim>
					<dim>1</dim>
					<dim>256</dim>
				</port>
				<port id="1" precision="I64">
					<dim>1</dim>
				</port>
			</input>
			<output>
				<port id="2" precision="FP32" names="StatefulPartitionedCall/first_keras/Reshape_4,StatefulPartitionedCall/first_keras/Reshape_4:0">
					<dim>256</dim>
				</port>
			</output>
		</layer>
		<layer id="64" name="StatefulPartitionedCall/first_keras/GatherV2_6/params" type="Const" version="opset1">
			<data element_type="f32" shape="1024" offset="268454944" size="4096" />
			<output>
				<port id="0" precision="FP32" names="StatefulPartitionedCall/first_keras/GatherV2_6/params,StatefulPartitionedCall/first_keras/GatherV2_6/params:0">
					<dim>1024</dim>
				</port>
			</output>
		</layer>
		<layer id="65" name="StatefulPartitionedCall/first_keras/GatherV2_6/axis" type="Const" version="opset1">
			<data element_type="i32" shape="" offset="268444692" size="4" />
			<output>
				<port id="0" precision="I32" names="StatefulPartitionedCall/first_keras/GatherV2_6/axis,StatefulPartitionedCall/first_keras/GatherV2_6/axis:0" />
			</output>
		</layer>
		<layer id="66" name="StatefulPartitionedCall/first_keras/GatherV2_6" type="Gather" version="opset8">
			<data batch_dims="0" />
			<input>
				<port id="0" precision="FP32">
					<dim>1024</dim>
				</port>
				<port id="1" precision="I64">
					<dim>256</dim>
				</port>
				<port id="2" precision="I32" />
			</input>
			<output>
				<port id="3" precision="FP32" names="StatefulPartitionedCall/first_keras/GatherV2_6,StatefulPartitionedCall/first_keras/GatherV2_6:0">
					<dim>256</dim>
				</port>
			</output>
		</layer>
		<layer id="67" name="StatefulPartitionedCall/first_keras/Less_2" type="Less" version="opset1">
			<data auto_broadcast="numpy" />
			<input>
				<port id="0" precision="FP32">
					<dim>256</dim>
				</port>
				<port id="1" precision="FP32">
					<dim>256</dim>
				</port>
			</input>
			<output>
				<port id="2" precision="BOOL" names="StatefulPartitionedCall/first_keras/Less_2,StatefulPartitionedCall/first_keras/Less_2:0">
					<dim>256</dim>
				</port>
			</output>
		</layer>
		<layer id="68" name="StatefulPartitionedCall/first_keras/Cast_8" type="Convert" version="opset1">
			<data destination_type="f32" />
			<input>
				<port id="0" precision="BOOL">
					<dim>256</dim>
				</port>
			</input>
			<output>
				<port id="1" precision="FP32" names="StatefulPartitionedCall/first_keras/Cast_8,StatefulPartitionedCall/first_keras/Cast_8:0">
					<dim>256</dim>
				</port>
			</output>
		</layer>
		<layer id="69" name="StatefulPartitionedCall/first_keras/Equal_2" type="Equal" version="opset1">
			<data auto_broadcast="numpy" />
			<input>
				<port id="0" precision="FP32">
					<dim>256</dim>
				</port>
				<port id="1" precision="FP32">
					<dim>256</dim>
				</port>
			</input>
			<output>
				<port id="2" precision="BOOL" names="StatefulPartitionedCall/first_keras/Equal_2,StatefulPartitionedCall/first_keras/Equal_2:0">
					<dim>256</dim>
				</port>
			</output>
		</layer>
		<layer id="70" name="StatefulPartitionedCall/first_keras/Cast_9" type="Convert" version="opset1">
			<data destination_type="f32" />
			<input>
				<port id="0" precision="BOOL">
					<dim>256</dim>
				</port>
			</input>
			<output>
				<port id="1" precision="FP32" names="StatefulPartitionedCall/first_keras/Cast_9,StatefulPartitionedCall/first_keras/Cast_9:0">
					<dim>256</dim>
				</port>
			</output>
		</layer>
		<layer id="71" name="StatefulPartitionedCall/first_keras/Add_4" type="Add" version="opset1">
			<data auto_broadcast="numpy" />
			<input>
				<port id="0" precision="FP32">
					<dim>256</dim>
				</port>
				<port id="1" precision="FP32">
					<dim>256</dim>
				</port>
			</input>
			<output>
				<port id="2" precision="FP32" names="StatefulPartitionedCall/first_keras/Add_4,StatefulPartitionedCall/first_keras/Add_4:0">
					<dim>256</dim>
				</port>
			</output>
		</layer>
		<layer id="72" name="StatefulPartitionedCall/first_keras/Cast_10" type="Convert" version="opset1">
			<data destination_type="boolean" />
			<input>
				<port id="0" precision="FP32">
					<dim>256</dim>
				</port>
			</input>
			<output>
				<port id="1" precision="BOOL" names="StatefulPartitionedCall/first_keras/Cast_10,StatefulPartitionedCall/first_keras/Cast_10:0">
					<dim>256</dim>
				</port>
			</output>
		</layer>
		<layer id="73" name="StatefulPartitionedCall/first_keras/Cast_11" type="Convert" version="opset1">
			<data destination_type="i64" />
			<input>
				<port id="0" precision="BOOL">
					<dim>256</dim>
				</port>
			</input>
			<output>
				<port id="1" precision="I64" names="StatefulPartitionedCall/first_keras/Cast_11,StatefulPartitionedCall/first_keras/Cast_11:0">
					<dim>256</dim>
				</port>
			</output>
		</layer>
		<layer id="74" name="StatefulPartitionedCall/first_keras/add_5" type="Add" version="opset1">
			<data auto_broadcast="numpy" />
			<input>
				<port id="0" precision="I64">
					<dim>256</dim>
				</port>
				<port id="1" precision="I64">
					<dim>256</dim>
				</port>
			</input>
			<output>
				<port id="2" precision="I64" names="StatefulPartitionedCall/first_keras/add_5,StatefulPartitionedCall/first_keras/add_5:0">
					<dim>256</dim>
				</port>
			</output>
		</layer>
		<layer id="75" name="StatefulPartitionedCall/first_keras/mul_2" type="Multiply" version="opset1">
			<data auto_broadcast="numpy" />
			<input>
				<port id="0" precision="I64">
					<dim>1</dim>
				</port>
				<port id="1" precision="I64">
					<dim>256</dim>
				</port>
			</input>
			<output>
				<port id="2" precision="I64" names="StatefulPartitionedCall/first_keras/mul_2,StatefulPartitionedCall/first_keras/mul_2:0">
					<dim>256</dim>
				</port>
			</output>
		</layer>
		<layer id="76" name="StatefulPartitionedCall/first_keras/GatherV2_7/params" type="Const" version="opset1">
			<data element_type="i64" shape="2048" offset="268459040" size="16384" />
			<output>
				<port id="0" precision="I64" names="StatefulPartitionedCall/first_keras/GatherV2_7/params,StatefulPartitionedCall/first_keras/GatherV2_7/params:0">
					<dim>2048</dim>
				</port>
			</output>
		</layer>
		<layer id="77" name="StatefulPartitionedCall/first_keras/GatherV2_7/axis" type="Const" version="opset1">
			<data element_type="i32" shape="" offset="268444692" size="4" />
			<output>
				<port id="0" precision="I32" names="StatefulPartitionedCall/first_keras/GatherV2_7/axis,StatefulPartitionedCall/first_keras/GatherV2_7/axis:0" />
			</output>
		</layer>
		<layer id="78" name="StatefulPartitionedCall/first_keras/GatherV2_7" type="Gather" version="opset8">
			<data batch_dims="0" />
			<input>
				<port id="0" precision="I64">
					<dim>2048</dim>
				</port>
				<port id="1" precision="I64">
					<dim>256</dim>
				</port>
				<port id="2" precision="I32" />
			</input>
			<output>
				<port id="3" precision="I64" names="StatefulPartitionedCall/first_keras/GatherV2_7,StatefulPartitionedCall/first_keras/GatherV2_7:0">
					<dim>256</dim>
				</port>
			</output>
		</layer>
		<layer id="79" name="Concat_1155" type="Const" version="opset1">
			<data element_type="i32" shape="2" offset="268444696" size="8" />
			<output>
				<port id="0" precision="I32" names="StatefulPartitionedCall/first_keras/Reshape_5/shape,StatefulPartitionedCall/first_keras/Reshape_5/shape:0">
					<dim>2</dim>
				</port>
			</output>
		</layer>
		<layer id="80" name="StatefulPartitionedCall/first_keras/Reshape_5" type="Reshape" version="opset1">
			<data special_zero="false" />
			<input>
				<port id="0" precision="I64">
					<dim>256</dim>
				</port>
				<port id="1" precision="I32">
					<dim>2</dim>
				</port>
			</input>
			<output>
				<port id="2" precision="I64" names="StatefulPartitionedCall/first_keras/Reshape_5,StatefulPartitionedCall/first_keras/Reshape_5:0">
					<dim>1</dim>
					<dim>256</dim>
				</port>
			</output>
		</layer>
		<layer id="81" name="StatefulPartitionedCall/first_keras/GatherV2_8/axis" type="Const" version="opset1">
			<data element_type="i32" shape="" offset="268437512" size="4" />
			<output>
				<port id="0" precision="I32" names="StatefulPartitionedCall/first_keras/GatherV2_8/axis,StatefulPartitionedCall/first_keras/GatherV2_8/axis:0" />
			</output>
		</layer>
		<layer id="82" name="StatefulPartitionedCall/first_keras/GatherV2_8" type="Gather" version="opset8">
			<data batch_dims="0" />
			<input>
				<port id="0" precision="FP32">
					<dim>1</dim>
					<dim>8</dim>
				</port>
				<port id="1" precision="I64">
					<dim>1</dim>
					<dim>256</dim>
				</port>
				<port id="2" precision="I32" />
			</input>
			<output>
				<port id="3" precision="FP32" names="StatefulPartitionedCall/first_keras/GatherV2_8,StatefulPartitionedCall/first_keras/GatherV2_8:0">
					<dim>1</dim>
					<dim>1</dim>
					<dim>256</dim>
				</port>
			</output>
		</layer>
		<layer id="83" name="Constant_3258" type="Const" version="opset1">
			<data element_type="i64" shape="1" offset="268440588" size="8" />
			<output>
				<port id="0" precision="I64">
					<dim>1</dim>
				</port>
			</output>
		</layer>
		<layer id="84" name="StatefulPartitionedCall/first_keras/Reshape_6" type="Reshape" version="opset1">
			<data special_zero="false" />
			<input>
				<port id="0" precision="FP32">
					<dim>1</dim>
					<dim>1</dim>
					<dim>256</dim>
				</port>
				<port id="1" precision="I64">
					<dim>1</dim>
				</port>
			</input>
			<output>
				<port id="2" precision="FP32" names="StatefulPartitionedCall/first_keras/Reshape_6,StatefulPartitionedCall/first_keras/Reshape_6:0">
					<dim>256</dim>
				</port>
			</output>
		</layer>
		<layer id="85" name="StatefulPartitionedCall/first_keras/GatherV2_9/params" type="Const" version="opset1">
			<data element_type="f32" shape="2048" offset="268475424" size="8192" />
			<output>
				<port id="0" precision="FP32" names="StatefulPartitionedCall/first_keras/GatherV2_9/params,StatefulPartitionedCall/first_keras/GatherV2_9/params:0">
					<dim>2048</dim>
				</port>
			</output>
		</layer>
		<layer id="86" name="StatefulPartitionedCall/first_keras/GatherV2_9/axis" type="Const" version="opset1">
			<data element_type="i32" shape="" offset="268444692" size="4" />
			<output>
				<port id="0" precision="I32" names="StatefulPartitionedCall/first_keras/GatherV2_9/axis,StatefulPartitionedCall/first_keras/GatherV2_9/axis:0" />
			</output>
		</layer>
		<layer id="87" name="StatefulPartitionedCall/first_keras/GatherV2_9" type="Gather" version="opset8">
			<data batch_dims="0" />
			<input>
				<port id="0" precision="FP32">
					<dim>2048</dim>
				</port>
				<port id="1" precision="I64">
					<dim>256</dim>
				</port>
				<port id="2" precision="I32" />
			</input>
			<output>
				<port id="3" precision="FP32" names="StatefulPartitionedCall/first_keras/GatherV2_9,StatefulPartitionedCall/first_keras/GatherV2_9:0">
					<dim>256</dim>
				</port>
			</output>
		</layer>
		<layer id="88" name="StatefulPartitionedCall/first_keras/Less_3" type="Less" version="opset1">
			<data auto_broadcast="numpy" />
			<input>
				<port id="0" precision="FP32">
					<dim>256</dim>
				</port>
				<port id="1" precision="FP32">
					<dim>256</dim>
				</port>
			</input>
			<output>
				<port id="2" precision="BOOL" names="StatefulPartitionedCall/first_keras/Less_3,StatefulPartitionedCall/first_keras/Less_3:0">
					<dim>256</dim>
				</port>
			</output>
		</layer>
		<layer id="89" name="StatefulPartitionedCall/first_keras/Cast_12" type="Convert" version="opset1">
			<data destination_type="f32" />
			<input>
				<port id="0" precision="BOOL">
					<dim>256</dim>
				</port>
			</input>
			<output>
				<port id="1" precision="FP32" names="StatefulPartitionedCall/first_keras/Cast_12,StatefulPartitionedCall/first_keras/Cast_12:0">
					<dim>256</dim>
				</port>
			</output>
		</layer>
		<layer id="90" name="StatefulPartitionedCall/first_keras/Equal_3" type="Equal" version="opset1">
			<data auto_broadcast="numpy" />
			<input>
				<port id="0" precision="FP32">
					<dim>256</dim>
				</port>
				<port id="1" precision="FP32">
					<dim>256</dim>
				</port>
			</input>
			<output>
				<port id="2" precision="BOOL" names="StatefulPartitionedCall/first_keras/Equal_3,StatefulPartitionedCall/first_keras/Equal_3:0">
					<dim>256</dim>
				</port>
			</output>
		</layer>
		<layer id="91" name="StatefulPartitionedCall/first_keras/Cast_13" type="Convert" version="opset1">
			<data destination_type="f32" />
			<input>
				<port id="0" precision="BOOL">
					<dim>256</dim>
				</port>
			</input>
			<output>
				<port id="1" precision="FP32" names="StatefulPartitionedCall/first_keras/Cast_13,StatefulPartitionedCall/first_keras/Cast_13:0">
					<dim>256</dim>
				</port>
			</output>
		</layer>
		<layer id="92" name="StatefulPartitionedCall/first_keras/Add_6" type="Add" version="opset1">
			<data auto_broadcast="numpy" />
			<input>
				<port id="0" precision="FP32">
					<dim>256</dim>
				</port>
				<port id="1" precision="FP32">
					<dim>256</dim>
				</port>
			</input>
			<output>
				<port id="2" precision="FP32" names="StatefulPartitionedCall/first_keras/Add_6,StatefulPartitionedCall/first_keras/Add_6:0">
					<dim>256</dim>
				</port>
			</output>
		</layer>
		<layer id="93" name="StatefulPartitionedCall/first_keras/Cast_14" type="Convert" version="opset1">
			<data destination_type="boolean" />
			<input>
				<port id="0" precision="FP32">
					<dim>256</dim>
				</port>
			</input>
			<output>
				<port id="1" precision="BOOL" names="StatefulPartitionedCall/first_keras/Cast_14,StatefulPartitionedCall/first_keras/Cast_14:0">
					<dim>256</dim>
				</port>
			</output>
		</layer>
		<layer id="94" name="StatefulPartitionedCall/first_keras/Cast_15" type="Convert" version="opset1">
			<data destination_type="i64" />
			<input>
				<port id="0" precision="BOOL">
					<dim>256</dim>
				</port>
			</input>
			<output>
				<port id="1" precision="I64" names="StatefulPartitionedCall/first_keras/Cast_15,StatefulPartitionedCall/first_keras/Cast_15:0">
					<dim>256</dim>
				</port>
			</output>
		</layer>
		<layer id="95" name="StatefulPartitionedCall/first_keras/add_7" type="Add" version="opset1">
			<data auto_broadcast="numpy" />
			<input>
				<port id="0" precision="I64">
					<dim>256</dim>
				</port>
				<port id="1" precision="I64">
					<dim>256</dim>
				</port>
			</input>
			<output>
				<port id="2" precision="I64" names="StatefulPartitionedCall/first_keras/add_7,StatefulPartitionedCall/first_keras/add_7:0">
					<dim>256</dim>
				</port>
			</output>
		</layer>
		<layer id="96" name="StatefulPartitionedCall/first_keras/mul_3" type="Multiply" version="opset1">
			<data auto_broadcast="numpy" />
			<input>
				<port id="0" precision="I64">
					<dim>1</dim>
				</port>
				<port id="1" precision="I64">
					<dim>256</dim>
				</port>
			</input>
			<output>
				<port id="2" precision="I64" names="StatefulPartitionedCall/first_keras/mul_3,StatefulPartitionedCall/first_keras/mul_3:0">
					<dim>256</dim>
				</port>
			</output>
		</layer>
		<layer id="97" name="StatefulPartitionedCall/first_keras/GatherV2_10/params" type="Const" version="opset1">
			<data element_type="i64" shape="4096" offset="268483616" size="32768" />
			<output>
				<port id="0" precision="I64" names="StatefulPartitionedCall/first_keras/GatherV2_10/params,StatefulPartitionedCall/first_keras/GatherV2_10/params:0">
					<dim>4096</dim>
				</port>
			</output>
		</layer>
		<layer id="98" name="StatefulPartitionedCall/first_keras/GatherV2_10/axis" type="Const" version="opset1">
			<data element_type="i32" shape="" offset="268444692" size="4" />
			<output>
				<port id="0" precision="I32" names="StatefulPartitionedCall/first_keras/GatherV2_10/axis,StatefulPartitionedCall/first_keras/GatherV2_10/axis:0" />
			</output>
		</layer>
		<layer id="99" name="StatefulPartitionedCall/first_keras/GatherV2_10" type="Gather" version="opset8">
			<data batch_dims="0" />
			<input>
				<port id="0" precision="I64">
					<dim>4096</dim>
				</port>
				<port id="1" precision="I64">
					<dim>256</dim>
				</port>
				<port id="2" precision="I32" />
			</input>
			<output>
				<port id="3" precision="I64" names="StatefulPartitionedCall/first_keras/GatherV2_10,StatefulPartitionedCall/first_keras/GatherV2_10:0">
					<dim>256</dim>
				</port>
			</output>
		</layer>
		<layer id="100" name="Concat_1204" type="Const" version="opset1">
			<data element_type="i32" shape="2" offset="268444696" size="8" />
			<output>
				<port id="0" precision="I32" names="StatefulPartitionedCall/first_keras/Reshape_7/shape,StatefulPartitionedCall/first_keras/Reshape_7/shape:0">
					<dim>2</dim>
				</port>
			</output>
		</layer>
		<layer id="101" name="StatefulPartitionedCall/first_keras/Reshape_7" type="Reshape" version="opset1">
			<data special_zero="false" />
			<input>
				<port id="0" precision="I64">
					<dim>256</dim>
				</port>
				<port id="1" precision="I32">
					<dim>2</dim>
				</port>
			</input>
			<output>
				<port id="2" precision="I64" names="StatefulPartitionedCall/first_keras/Reshape_7,StatefulPartitionedCall/first_keras/Reshape_7:0">
					<dim>1</dim>
					<dim>256</dim>
				</port>
			</output>
		</layer>
		<layer id="102" name="StatefulPartitionedCall/first_keras/GatherV2_11/axis" type="Const" version="opset1">
			<data element_type="i32" shape="" offset="268437512" size="4" />
			<output>
				<port id="0" precision="I32" names="StatefulPartitionedCall/first_keras/GatherV2_11/axis,StatefulPartitionedCall/first_keras/GatherV2_11/axis:0" />
			</output>
		</layer>
		<layer id="103" name="StatefulPartitionedCall/first_keras/GatherV2_11" type="Gather" version="opset8">
			<data batch_dims="0" />
			<input>
				<port id="0" precision="FP32">
					<dim>1</dim>
					<dim>8</dim>
				</port>
				<port id="1" precision="I64">
					<dim>1</dim>
					<dim>256</dim>
				</port>
				<port id="2" precision="I32" />
			</input>
			<output>
				<port id="3" precision="FP32" names="StatefulPartitionedCall/first_keras/GatherV2_11,StatefulPartitionedCall/first_keras/GatherV2_11:0">
					<dim>1</dim>
					<dim>1</dim>
					<dim>256</dim>
				</port>
			</output>
		</layer>
		<layer id="104" name="Constant_3259" type="Const" version="opset1">
			<data element_type="i64" shape="1" offset="268440588" size="8" />
			<output>
				<port id="0" precision="I64">
					<dim>1</dim>
				</port>
			</output>
		</layer>
		<layer id="105" name="StatefulPartitionedCall/first_keras/Reshape_8" type="Reshape" version="opset1">
			<data special_zero="false" />
			<input>
				<port id="0" precision="FP32">
					<dim>1</dim>
					<dim>1</dim>
					<dim>256</dim>
				</port>
				<port id="1" precision="I64">
					<dim>1</dim>
				</port>
			</input>
			<output>
				<port id="2" precision="FP32" names="StatefulPartitionedCall/first_keras/Reshape_8,StatefulPartitionedCall/first_keras/Reshape_8:0">
					<dim>256</dim>
				</port>
			</output>
		</layer>
		<layer id="106" name="StatefulPartitionedCall/first_keras/GatherV2_12/params" type="Const" version="opset1">
			<data element_type="f32" shape="4096" offset="268516384" size="16384" />
			<output>
				<port id="0" precision="FP32" names="StatefulPartitionedCall/first_keras/GatherV2_12/params,StatefulPartitionedCall/first_keras/GatherV2_12/params:0">
					<dim>4096</dim>
				</port>
			</output>
		</layer>
		<layer id="107" name="StatefulPartitionedCall/first_keras/GatherV2_12/axis" type="Const" version="opset1">
			<data element_type="i32" shape="" offset="268444692" size="4" />
			<output>
				<port id="0" precision="I32" names="StatefulPartitionedCall/first_keras/GatherV2_12/axis,StatefulPartitionedCall/first_keras/GatherV2_12/axis:0" />
			</output>
		</layer>
		<layer id="108" name="StatefulPartitionedCall/first_keras/GatherV2_12" type="Gather" version="opset8">
			<data batch_dims="0" />
			<input>
				<port id="0" precision="FP32">
					<dim>4096</dim>
				</port>
				<port id="1" precision="I64">
					<dim>256</dim>
				</port>
				<port id="2" precision="I32" />
			</input>
			<output>
				<port id="3" precision="FP32" names="StatefulPartitionedCall/first_keras/GatherV2_12,StatefulPartitionedCall/first_keras/GatherV2_12:0">
					<dim>256</dim>
				</port>
			</output>
		</layer>
		<layer id="109" name="StatefulPartitionedCall/first_keras/Less_4" type="Less" version="opset1">
			<data auto_broadcast="numpy" />
			<input>
				<port id="0" precision="FP32">
					<dim>256</dim>
				</port>
				<port id="1" precision="FP32">
					<dim>256</dim>
				</port>
			</input>
			<output>
				<port id="2" precision="BOOL" names="StatefulPartitionedCall/first_keras/Less_4,StatefulPartitionedCall/first_keras/Less_4:0">
					<dim>256</dim>
				</port>
			</output>
		</layer>
		<layer id="110" name="StatefulPartitionedCall/first_keras/Cast_16" type="Convert" version="opset1">
			<data destination_type="f32" />
			<input>
				<port id="0" precision="BOOL">
					<dim>256</dim>
				</port>
			</input>
			<output>
				<port id="1" precision="FP32" names="StatefulPartitionedCall/first_keras/Cast_16,StatefulPartitionedCall/first_keras/Cast_16:0">
					<dim>256</dim>
				</port>
			</output>
		</layer>
		<layer id="111" name="StatefulPartitionedCall/first_keras/Equal_4" type="Equal" version="opset1">
			<data auto_broadcast="numpy" />
			<input>
				<port id="0" precision="FP32">
					<dim>256</dim>
				</port>
				<port id="1" precision="FP32">
					<dim>256</dim>
				</port>
			</input>
			<output>
				<port id="2" precision="BOOL" names="StatefulPartitionedCall/first_keras/Equal_4,StatefulPartitionedCall/first_keras/Equal_4:0">
					<dim>256</dim>
				</port>
			</output>
		</layer>
		<layer id="112" name="StatefulPartitionedCall/first_keras/Cast_17" type="Convert" version="opset1">
			<data destination_type="f32" />
			<input>
				<port id="0" precision="BOOL">
					<dim>256</dim>
				</port>
			</input>
			<output>
				<port id="1" precision="FP32" names="StatefulPartitionedCall/first_keras/Cast_17,StatefulPartitionedCall/first_keras/Cast_17:0">
					<dim>256</dim>
				</port>
			</output>
		</layer>
		<layer id="113" name="StatefulPartitionedCall/first_keras/Add_8" type="Add" version="opset1">
			<data auto_broadcast="numpy" />
			<input>
				<port id="0" precision="FP32">
					<dim>256</dim>
				</port>
				<port id="1" precision="FP32">
					<dim>256</dim>
				</port>
			</input>
			<output>
				<port id="2" precision="FP32" names="StatefulPartitionedCall/first_keras/Add_8,StatefulPartitionedCall/first_keras/Add_8:0">
					<dim>256</dim>
				</port>
			</output>
		</layer>
		<layer id="114" name="StatefulPartitionedCall/first_keras/Cast_18" type="Convert" version="opset1">
			<data destination_type="boolean" />
			<input>
				<port id="0" precision="FP32">
					<dim>256</dim>
				</port>
			</input>
			<output>
				<port id="1" precision="BOOL" names="StatefulPartitionedCall/first_keras/Cast_18,StatefulPartitionedCall/first_keras/Cast_18:0">
					<dim>256</dim>
				</port>
			</output>
		</layer>
		<layer id="115" name="StatefulPartitionedCall/first_keras/Cast_19" type="Convert" version="opset1">
			<data destination_type="i64" />
			<input>
				<port id="0" precision="BOOL">
					<dim>256</dim>
				</port>
			</input>
			<output>
				<port id="1" precision="I64" names="StatefulPartitionedCall/first_keras/Cast_19,StatefulPartitionedCall/first_keras/Cast_19:0">
					<dim>256</dim>
				</port>
			</output>
		</layer>
		<layer id="116" name="StatefulPartitionedCall/first_keras/add_9" type="Add" version="opset1">
			<data auto_broadcast="numpy" />
			<input>
				<port id="0" precision="I64">
					<dim>256</dim>
				</port>
				<port id="1" precision="I64">
					<dim>256</dim>
				</port>
			</input>
			<output>
				<port id="2" precision="I64" names="StatefulPartitionedCall/first_keras/add_9,StatefulPartitionedCall/first_keras/add_9:0">
					<dim>256</dim>
				</port>
			</output>
		</layer>
		<layer id="117" name="StatefulPartitionedCall/first_keras/mul_4" type="Multiply" version="opset1">
			<data auto_broadcast="numpy" />
			<input>
				<port id="0" precision="I64">
					<dim>1</dim>
				</port>
				<port id="1" precision="I64">
					<dim>256</dim>
				</port>
			</input>
			<output>
				<port id="2" precision="I64" names="StatefulPartitionedCall/first_keras/mul_4,StatefulPartitionedCall/first_keras/mul_4:0">
					<dim>256</dim>
				</port>
			</output>
		</layer>
		<layer id="118" name="StatefulPartitionedCall/first_keras/GatherV2_13/params" type="Const" version="opset1">
			<data element_type="i64" shape="8192" offset="268532768" size="65536" />
			<output>
				<port id="0" precision="I64" names="StatefulPartitionedCall/first_keras/GatherV2_13/params,StatefulPartitionedCall/first_keras/GatherV2_13/params:0">
					<dim>8192</dim>
				</port>
			</output>
		</layer>
		<layer id="119" name="StatefulPartitionedCall/first_keras/GatherV2_13/axis" type="Const" version="opset1">
			<data element_type="i32" shape="" offset="268444692" size="4" />
			<output>
				<port id="0" precision="I32" names="StatefulPartitionedCall/first_keras/GatherV2_13/axis,StatefulPartitionedCall/first_keras/GatherV2_13/axis:0" />
			</output>
		</layer>
		<layer id="120" name="StatefulPartitionedCall/first_keras/GatherV2_13" type="Gather" version="opset8">
			<data batch_dims="0" />
			<input>
				<port id="0" precision="I64">
					<dim>8192</dim>
				</port>
				<port id="1" precision="I64">
					<dim>256</dim>
				</port>
				<port id="2" precision="I32" />
			</input>
			<output>
				<port id="3" precision="I64" names="StatefulPartitionedCall/first_keras/GatherV2_13,StatefulPartitionedCall/first_keras/GatherV2_13:0">
					<dim>256</dim>
				</port>
			</output>
		</layer>
		<layer id="121" name="Concat_1253" type="Const" version="opset1">
			<data element_type="i32" shape="2" offset="268444696" size="8" />
			<output>
				<port id="0" precision="I32" names="StatefulPartitionedCall/first_keras/Reshape_9/shape,StatefulPartitionedCall/first_keras/Reshape_9/shape:0">
					<dim>2</dim>
				</port>
			</output>
		</layer>
		<layer id="122" name="StatefulPartitionedCall/first_keras/Reshape_9" type="Reshape" version="opset1">
			<data special_zero="false" />
			<input>
				<port id="0" precision="I64">
					<dim>256</dim>
				</port>
				<port id="1" precision="I32">
					<dim>2</dim>
				</port>
			</input>
			<output>
				<port id="2" precision="I64" names="StatefulPartitionedCall/first_keras/Reshape_9,StatefulPartitionedCall/first_keras/Reshape_9:0">
					<dim>1</dim>
					<dim>256</dim>
				</port>
			</output>
		</layer>
		<layer id="123" name="StatefulPartitionedCall/first_keras/GatherV2_14/axis" type="Const" version="opset1">
			<data element_type="i32" shape="" offset="268437512" size="4" />
			<output>
				<port id="0" precision="I32" names="StatefulPartitionedCall/first_keras/GatherV2_14/axis,StatefulPartitionedCall/first_keras/GatherV2_14/axis:0" />
			</output>
		</layer>
		<layer id="124" name="StatefulPartitionedCall/first_keras/GatherV2_14" type="Gather" version="opset8">
			<data batch_dims="0" />
			<input>
				<port id="0" precision="FP32">
					<dim>1</dim>
					<dim>8</dim>
				</port>
				<port id="1" precision="I64">
					<dim>1</dim>
					<dim>256</dim>
				</port>
				<port id="2" precision="I32" />
			</input>
			<output>
				<port id="3" precision="FP32" names="StatefulPartitionedCall/first_keras/GatherV2_14,StatefulPartitionedCall/first_keras/GatherV2_14:0">
					<dim>1</dim>
					<dim>1</dim>
					<dim>256</dim>
				</port>
			</output>
		</layer>
		<layer id="125" name="Constant_3260" type="Const" version="opset1">
			<data element_type="i64" shape="1" offset="268440588" size="8" />
			<output>
				<port id="0" precision="I64">
					<dim>1</dim>
				</port>
			</output>
		</layer>
		<layer id="126" name="StatefulPartitionedCall/first_keras/Reshape_10" type="Reshape" version="opset1">
			<data special_zero="false" />
			<input>
				<port id="0" precision="FP32">
					<dim>1</dim>
					<dim>1</dim>
					<dim>256</dim>
				</port>
				<port id="1" precision="I64">
					<dim>1</dim>
				</port>
			</input>
			<output>
				<port id="2" precision="FP32" names="StatefulPartitionedCall/first_keras/Reshape_10,StatefulPartitionedCall/first_keras/Reshape_10:0">
					<dim>256</dim>
				</port>
			</output>
		</layer>
		<layer id="127" name="StatefulPartitionedCall/first_keras/GatherV2_15/params" type="Const" version="opset1">
			<data element_type="f32" shape="8192" offset="268598304" size="32768" />
			<output>
				<port id="0" precision="FP32" names="StatefulPartitionedCall/first_keras/GatherV2_15/params,StatefulPartitionedCall/first_keras/GatherV2_15/params:0">
					<dim>8192</dim>
				</port>
			</output>
		</layer>
		<layer id="128" name="StatefulPartitionedCall/first_keras/GatherV2_15/axis" type="Const" version="opset1">
			<data element_type="i32" shape="" offset="268444692" size="4" />
			<output>
				<port id="0" precision="I32" names="StatefulPartitionedCall/first_keras/GatherV2_15/axis,StatefulPartitionedCall/first_keras/GatherV2_15/axis:0" />
			</output>
		</layer>
		<layer id="129" name="StatefulPartitionedCall/first_keras/GatherV2_15" type="Gather" version="opset8">
			<data batch_dims="0" />
			<input>
				<port id="0" precision="FP32">
					<dim>8192</dim>
				</port>
				<port id="1" precision="I64">
					<dim>256</dim>
				</port>
				<port id="2" precision="I32" />
			</input>
			<output>
				<port id="3" precision="FP32" names="StatefulPartitionedCall/first_keras/GatherV2_15,StatefulPartitionedCall/first_keras/GatherV2_15:0">
					<dim>256</dim>
				</port>
			</output>
		</layer>
		<layer id="130" name="StatefulPartitionedCall/first_keras/Less_5" type="Less" version="opset1">
			<data auto_broadcast="numpy" />
			<input>
				<port id="0" precision="FP32">
					<dim>256</dim>
				</port>
				<port id="1" precision="FP32">
					<dim>256</dim>
				</port>
			</input>
			<output>
				<port id="2" precision="BOOL" names="StatefulPartitionedCall/first_keras/Less_5,StatefulPartitionedCall/first_keras/Less_5:0">
					<dim>256</dim>
				</port>
			</output>
		</layer>
		<layer id="131" name="StatefulPartitionedCall/first_keras/Cast_20" type="Convert" version="opset1">
			<data destination_type="f32" />
			<input>
				<port id="0" precision="BOOL">
					<dim>256</dim>
				</port>
			</input>
			<output>
				<port id="1" precision="FP32" names="StatefulPartitionedCall/first_keras/Cast_20,StatefulPartitionedCall/first_keras/Cast_20:0">
					<dim>256</dim>
				</port>
			</output>
		</layer>
		<layer id="132" name="StatefulPartitionedCall/first_keras/Equal_5" type="Equal" version="opset1">
			<data auto_broadcast="numpy" />
			<input>
				<port id="0" precision="FP32">
					<dim>256</dim>
				</port>
				<port id="1" precision="FP32">
					<dim>256</dim>
				</port>
			</input>
			<output>
				<port id="2" precision="BOOL" names="StatefulPartitionedCall/first_keras/Equal_5,StatefulPartitionedCall/first_keras/Equal_5:0">
					<dim>256</dim>
				</port>
			</output>
		</layer>
		<layer id="133" name="StatefulPartitionedCall/first_keras/Cast_21" type="Convert" version="opset1">
			<data destination_type="f32" />
			<input>
				<port id="0" precision="BOOL">
					<dim>256</dim>
				</port>
			</input>
			<output>
				<port id="1" precision="FP32" names="StatefulPartitionedCall/first_keras/Cast_21,StatefulPartitionedCall/first_keras/Cast_21:0">
					<dim>256</dim>
				</port>
			</output>
		</layer>
		<layer id="134" name="StatefulPartitionedCall/first_keras/Add_10" type="Add" version="opset1">
			<data auto_broadcast="numpy" />
			<input>
				<port id="0" precision="FP32">
					<dim>256</dim>
				</port>
				<port id="1" precision="FP32">
					<dim>256</dim>
				</port>
			</input>
			<output>
				<port id="2" precision="FP32" names="StatefulPartitionedCall/first_keras/Add_10,StatefulPartitionedCall/first_keras/Add_10:0">
					<dim>256</dim>
				</port>
			</output>
		</layer>
		<layer id="135" name="StatefulPartitionedCall/first_keras/Cast_22" type="Convert" version="opset1">
			<data destination_type="boolean" />
			<input>
				<port id="0" precision="FP32">
					<dim>256</dim>
				</port>
			</input>
			<output>
				<port id="1" precision="BOOL" names="StatefulPartitionedCall/first_keras/Cast_22,StatefulPartitionedCall/first_keras/Cast_22:0">
					<dim>256</dim>
				</port>
			</output>
		</layer>
		<layer id="136" name="StatefulPartitionedCall/first_keras/Cast_23" type="Convert" version="opset1">
			<data destination_type="i64" />
			<input>
				<port id="0" precision="BOOL">
					<dim>256</dim>
				</port>
			</input>
			<output>
				<port id="1" precision="I64" names="StatefulPartitionedCall/first_keras/Cast_23,StatefulPartitionedCall/first_keras/Cast_23:0">
					<dim>256</dim>
				</port>
			</output>
		</layer>
		<layer id="137" name="StatefulPartitionedCall/first_keras/add_11" type="Add" version="opset1">
			<data auto_broadcast="numpy" />
			<input>
				<port id="0" precision="I64">
					<dim>256</dim>
				</port>
				<port id="1" precision="I64">
					<dim>256</dim>
				</port>
			</input>
			<output>
				<port id="2" precision="I64" names="StatefulPartitionedCall/first_keras/add_11,StatefulPartitionedCall/first_keras/add_11:0">
					<dim>256</dim>
				</port>
			</output>
		</layer>
		<layer id="138" name="StatefulPartitionedCall/first_keras/mul_5" type="Multiply" version="opset1">
			<data auto_broadcast="numpy" />
			<input>
				<port id="0" precision="I64">
					<dim>1</dim>
				</port>
				<port id="1" precision="I64">
					<dim>256</dim>
				</port>
			</input>
			<output>
				<port id="2" precision="I64" names="StatefulPartitionedCall/first_keras/mul_5,StatefulPartitionedCall/first_keras/mul_5:0">
					<dim>256</dim>
				</port>
			</output>
		</layer>
		<layer id="139" name="StatefulPartitionedCall/first_keras/GatherV2_16/params" type="Const" version="opset1">
			<data element_type="i64" shape="16384" offset="268631072" size="131072" />
			<output>
				<port id="0" precision="I64" names="StatefulPartitionedCall/first_keras/GatherV2_16/params,StatefulPartitionedCall/first_keras/GatherV2_16/params:0">
					<dim>16384</dim>
				</port>
			</output>
		</layer>
		<layer id="140" name="StatefulPartitionedCall/first_keras/GatherV2_16/axis" type="Const" version="opset1">
			<data element_type="i32" shape="" offset="268444692" size="4" />
			<output>
				<port id="0" precision="I32" names="StatefulPartitionedCall/first_keras/GatherV2_16/axis,StatefulPartitionedCall/first_keras/GatherV2_16/axis:0" />
			</output>
		</layer>
		<layer id="141" name="StatefulPartitionedCall/first_keras/GatherV2_16" type="Gather" version="opset8">
			<data batch_dims="0" />
			<input>
				<port id="0" precision="I64">
					<dim>16384</dim>
				</port>
				<port id="1" precision="I64">
					<dim>256</dim>
				</port>
				<port id="2" precision="I32" />
			</input>
			<output>
				<port id="3" precision="I64" names="StatefulPartitionedCall/first_keras/GatherV2_16,StatefulPartitionedCall/first_keras/GatherV2_16:0">
					<dim>256</dim>
				</port>
			</output>
		</layer>
		<layer id="142" name="Concat_1302" type="Const" version="opset1">
			<data element_type="i32" shape="2" offset="268444696" size="8" />
			<output>
				<port id="0" precision="I32" names="StatefulPartitionedCall/first_keras/Reshape_11/shape,StatefulPartitionedCall/first_keras/Reshape_11/shape:0">
					<dim>2</dim>
				</port>
			</output>
		</layer>
		<layer id="143" name="StatefulPartitionedCall/first_keras/Reshape_11" type="Reshape" version="opset1">
			<data special_zero="false" />
			<input>
				<port id="0" precision="I64">
					<dim>256</dim>
				</port>
				<port id="1" precision="I32">
					<dim>2</dim>
				</port>
			</input>
			<output>
				<port id="2" precision="I64" names="StatefulPartitionedCall/first_keras/Reshape_11,StatefulPartitionedCall/first_keras/Reshape_11:0">
					<dim>1</dim>
					<dim>256</dim>
				</port>
			</output>
		</layer>
		<layer id="144" name="StatefulPartitionedCall/first_keras/GatherV2_17/axis" type="Const" version="opset1">
			<data element_type="i32" shape="" offset="268437512" size="4" />
			<output>
				<port id="0" precision="I32" names="StatefulPartitionedCall/first_keras/GatherV2_17/axis,StatefulPartitionedCall/first_keras/GatherV2_17/axis:0" />
			</output>
		</layer>
		<layer id="145" name="StatefulPartitionedCall/first_keras/GatherV2_17" type="Gather" version="opset8">
			<data batch_dims="0" />
			<input>
				<port id="0" precision="FP32">
					<dim>1</dim>
					<dim>8</dim>
				</port>
				<port id="1" precision="I64">
					<dim>1</dim>
					<dim>256</dim>
				</port>
				<port id="2" precision="I32" />
			</input>
			<output>
				<port id="3" precision="FP32" names="StatefulPartitionedCall/first_keras/GatherV2_17,StatefulPartitionedCall/first_keras/GatherV2_17:0">
					<dim>1</dim>
					<dim>1</dim>
					<dim>256</dim>
				</port>
			</output>
		</layer>
		<layer id="146" name="Constant_3261" type="Const" version="opset1">
			<data element_type="i64" shape="1" offset="268440588" size="8" />
			<output>
				<port id="0" precision="I64">
					<dim>1</dim>
				</port>
			</output>
		</layer>
		<layer id="147" name="StatefulPartitionedCall/first_keras/Reshape_12" type="Reshape" version="opset1">
			<data special_zero="false" />
			<input>
				<port id="0" precision="FP32">
					<dim>1</dim>
					<dim>1</dim>
					<dim>256</dim>
				</port>
				<port id="1" precision="I64">
					<dim>1</dim>
				</port>
			</input>
			<output>
				<port id="2" precision="FP32" names="StatefulPartitionedCall/first_keras/Reshape_12,StatefulPartitionedCall/first_keras/Reshape_12:0">
					<dim>256</dim>
				</port>
			</output>
		</layer>
		<layer id="148" name="StatefulPartitionedCall/first_keras/GatherV2_18/params" type="Const" version="opset1">
			<data element_type="f32" shape="16384" offset="268762144" size="65536" />
			<output>
				<port id="0" precision="FP32" names="StatefulPartitionedCall/first_keras/GatherV2_18/params,StatefulPartitionedCall/first_keras/GatherV2_18/params:0">
					<dim>16384</dim>
				</port>
			</output>
		</layer>
		<layer id="149" name="StatefulPartitionedCall/first_keras/GatherV2_18/axis" type="Const" version="opset1">
			<data element_type="i32" shape="" offset="268444692" size="4" />
			<output>
				<port id="0" precision="I32" names="StatefulPartitionedCall/first_keras/GatherV2_18/axis,StatefulPartitionedCall/first_keras/GatherV2_18/axis:0" />
			</output>
		</layer>
		<layer id="150" name="StatefulPartitionedCall/first_keras/GatherV2_18" type="Gather" version="opset8">
			<data batch_dims="0" />
			<input>
				<port id="0" precision="FP32">
					<dim>16384</dim>
				</port>
				<port id="1" precision="I64">
					<dim>256</dim>
				</port>
				<port id="2" precision="I32" />
			</input>
			<output>
				<port id="3" precision="FP32" names="StatefulPartitionedCall/first_keras/GatherV2_18,StatefulPartitionedCall/first_keras/GatherV2_18:0">
					<dim>256</dim>
				</port>
			</output>
		</layer>
		<layer id="151" name="StatefulPartitionedCall/first_keras/Less_6" type="Less" version="opset1">
			<data auto_broadcast="numpy" />
			<input>
				<port id="0" precision="FP32">
					<dim>256</dim>
				</port>
				<port id="1" precision="FP32">
					<dim>256</dim>
				</port>
			</input>
			<output>
				<port id="2" precision="BOOL" names="StatefulPartitionedCall/first_keras/Less_6,StatefulPartitionedCall/first_keras/Less_6:0">
					<dim>256</dim>
				</port>
			</output>
		</layer>
		<layer id="152" name="StatefulPartitionedCall/first_keras/Cast_24" type="Convert" version="opset1">
			<data destination_type="f32" />
			<input>
				<port id="0" precision="BOOL">
					<dim>256</dim>
				</port>
			</input>
			<output>
				<port id="1" precision="FP32" names="StatefulPartitionedCall/first_keras/Cast_24,StatefulPartitionedCall/first_keras/Cast_24:0">
					<dim>256</dim>
				</port>
			</output>
		</layer>
		<layer id="153" name="StatefulPartitionedCall/first_keras/Equal_6" type="Equal" version="opset1">
			<data auto_broadcast="numpy" />
			<input>
				<port id="0" precision="FP32">
					<dim>256</dim>
				</port>
				<port id="1" precision="FP32">
					<dim>256</dim>
				</port>
			</input>
			<output>
				<port id="2" precision="BOOL" names="StatefulPartitionedCall/first_keras/Equal_6,StatefulPartitionedCall/first_keras/Equal_6:0">
					<dim>256</dim>
				</port>
			</output>
		</layer>
		<layer id="154" name="StatefulPartitionedCall/first_keras/Cast_25" type="Convert" version="opset1">
			<data destination_type="f32" />
			<input>
				<port id="0" precision="BOOL">
					<dim>256</dim>
				</port>
			</input>
			<output>
				<port id="1" precision="FP32" names="StatefulPartitionedCall/first_keras/Cast_25,StatefulPartitionedCall/first_keras/Cast_25:0">
					<dim>256</dim>
				</port>
			</output>
		</layer>
		<layer id="155" name="StatefulPartitionedCall/first_keras/Add_12" type="Add" version="opset1">
			<data auto_broadcast="numpy" />
			<input>
				<port id="0" precision="FP32">
					<dim>256</dim>
				</port>
				<port id="1" precision="FP32">
					<dim>256</dim>
				</port>
			</input>
			<output>
				<port id="2" precision="FP32" names="StatefulPartitionedCall/first_keras/Add_12,StatefulPartitionedCall/first_keras/Add_12:0">
					<dim>256</dim>
				</port>
			</output>
		</layer>
		<layer id="156" name="StatefulPartitionedCall/first_keras/Cast_26" type="Convert" version="opset1">
			<data destination_type="boolean" />
			<input>
				<port id="0" precision="FP32">
					<dim>256</dim>
				</port>
			</input>
			<output>
				<port id="1" precision="BOOL" names="StatefulPartitionedCall/first_keras/Cast_26,StatefulPartitionedCall/first_keras/Cast_26:0">
					<dim>256</dim>
				</port>
			</output>
		</layer>
		<layer id="157" name="StatefulPartitionedCall/first_keras/Cast_27" type="Convert" version="opset1">
			<data destination_type="i64" />
			<input>
				<port id="0" precision="BOOL">
					<dim>256</dim>
				</port>
			</input>
			<output>
				<port id="1" precision="I64" names="StatefulPartitionedCall/first_keras/Cast_27,StatefulPartitionedCall/first_keras/Cast_27:0">
					<dim>256</dim>
				</port>
			</output>
		</layer>
		<layer id="158" name="StatefulPartitionedCall/first_keras/add_13" type="Add" version="opset1">
			<data auto_broadcast="numpy" />
			<input>
				<port id="0" precision="I64">
					<dim>256</dim>
				</port>
				<port id="1" precision="I64">
					<dim>256</dim>
				</port>
			</input>
			<output>
				<port id="2" precision="I64" names="StatefulPartitionedCall/first_keras/add_13,StatefulPartitionedCall/first_keras/add_13:0">
					<dim>256</dim>
				</port>
			</output>
		</layer>
		<layer id="159" name="StatefulPartitionedCall/first_keras/mul_6" type="Multiply" version="opset1">
			<data auto_broadcast="numpy" />
			<input>
				<port id="0" precision="I64">
					<dim>1</dim>
				</port>
				<port id="1" precision="I64">
					<dim>256</dim>
				</port>
			</input>
			<output>
				<port id="2" precision="I64" names="StatefulPartitionedCall/first_keras/mul_6,StatefulPartitionedCall/first_keras/mul_6:0">
					<dim>256</dim>
				</port>
			</output>
		</layer>
		<layer id="160" name="StatefulPartitionedCall/first_keras/GatherV2_19/params" type="Const" version="opset1">
			<data element_type="i64" shape="32768" offset="268827680" size="262144" />
			<output>
				<port id="0" precision="I64" names="StatefulPartitionedCall/first_keras/GatherV2_19/params,StatefulPartitionedCall/first_keras/GatherV2_19/params:0">
					<dim>32768</dim>
				</port>
			</output>
		</layer>
		<layer id="161" name="StatefulPartitionedCall/first_keras/GatherV2_19/axis" type="Const" version="opset1">
			<data element_type="i32" shape="" offset="268444692" size="4" />
			<output>
				<port id="0" precision="I32" names="StatefulPartitionedCall/first_keras/GatherV2_19/axis,StatefulPartitionedCall/first_keras/GatherV2_19/axis:0" />
			</output>
		</layer>
		<layer id="162" name="StatefulPartitionedCall/first_keras/GatherV2_19" type="Gather" version="opset8">
			<data batch_dims="0" />
			<input>
				<port id="0" precision="I64">
					<dim>32768</dim>
				</port>
				<port id="1" precision="I64">
					<dim>256</dim>
				</port>
				<port id="2" precision="I32" />
			</input>
			<output>
				<port id="3" precision="I64" names="StatefulPartitionedCall/first_keras/GatherV2_19,StatefulPartitionedCall/first_keras/GatherV2_19:0">
					<dim>256</dim>
				</port>
			</output>
		</layer>
		<layer id="163" name="Concat_1351" type="Const" version="opset1">
			<data element_type="i32" shape="2" offset="268444696" size="8" />
			<output>
				<port id="0" precision="I32" names="StatefulPartitionedCall/first_keras/Reshape_13/shape,StatefulPartitionedCall/first_keras/Reshape_13/shape:0">
					<dim>2</dim>
				</port>
			</output>
		</layer>
		<layer id="164" name="StatefulPartitionedCall/first_keras/Reshape_13" type="Reshape" version="opset1">
			<data special_zero="false" />
			<input>
				<port id="0" precision="I64">
					<dim>256</dim>
				</port>
				<port id="1" precision="I32">
					<dim>2</dim>
				</port>
			</input>
			<output>
				<port id="2" precision="I64" names="StatefulPartitionedCall/first_keras/Reshape_13,StatefulPartitionedCall/first_keras/Reshape_13:0">
					<dim>1</dim>
					<dim>256</dim>
				</port>
			</output>
		</layer>
		<layer id="165" name="StatefulPartitionedCall/first_keras/GatherV2_20/axis" type="Const" version="opset1">
			<data element_type="i32" shape="" offset="268437512" size="4" />
			<output>
				<port id="0" precision="I32" names="StatefulPartitionedCall/first_keras/GatherV2_20/axis,StatefulPartitionedCall/first_keras/GatherV2_20/axis:0" />
			</output>
		</layer>
		<layer id="166" name="StatefulPartitionedCall/first_keras/GatherV2_20" type="Gather" version="opset8">
			<data batch_dims="0" />
			<input>
				<port id="0" precision="FP32">
					<dim>1</dim>
					<dim>8</dim>
				</port>
				<port id="1" precision="I64">
					<dim>1</dim>
					<dim>256</dim>
				</port>
				<port id="2" precision="I32" />
			</input>
			<output>
				<port id="3" precision="FP32" names="StatefulPartitionedCall/first_keras/GatherV2_20,StatefulPartitionedCall/first_keras/GatherV2_20:0">
					<dim>1</dim>
					<dim>1</dim>
					<dim>256</dim>
				</port>
			</output>
		</layer>
		<layer id="167" name="Constant_3262" type="Const" version="opset1">
			<data element_type="i64" shape="1" offset="268440588" size="8" />
			<output>
				<port id="0" precision="I64">
					<dim>1</dim>
				</port>
			</output>
		</layer>
		<layer id="168" name="StatefulPartitionedCall/first_keras/Reshape_14" type="Reshape" version="opset1">
			<data special_zero="false" />
			<input>
				<port id="0" precision="FP32">
					<dim>1</dim>
					<dim>1</dim>
					<dim>256</dim>
				</port>
				<port id="1" precision="I64">
					<dim>1</dim>
				</port>
			</input>
			<output>
				<port id="2" precision="FP32" names="StatefulPartitionedCall/first_keras/Reshape_14,StatefulPartitionedCall/first_keras/Reshape_14:0">
					<dim>256</dim>
				</port>
			</output>
		</layer>
		<layer id="169" name="StatefulPartitionedCall/first_keras/GatherV2_21/params" type="Const" version="opset1">
			<data element_type="f32" shape="32768" offset="269089824" size="131072" />
			<output>
				<port id="0" precision="FP32" names="StatefulPartitionedCall/first_keras/GatherV2_21/params,StatefulPartitionedCall/first_keras/GatherV2_21/params:0">
					<dim>32768</dim>
				</port>
			</output>
		</layer>
		<layer id="170" name="StatefulPartitionedCall/first_keras/GatherV2_21/axis" type="Const" version="opset1">
			<data element_type="i32" shape="" offset="268444692" size="4" />
			<output>
				<port id="0" precision="I32" names="StatefulPartitionedCall/first_keras/GatherV2_21/axis,StatefulPartitionedCall/first_keras/GatherV2_21/axis:0" />
			</output>
		</layer>
		<layer id="171" name="StatefulPartitionedCall/first_keras/GatherV2_21" type="Gather" version="opset8">
			<data batch_dims="0" />
			<input>
				<port id="0" precision="FP32">
					<dim>32768</dim>
				</port>
				<port id="1" precision="I64">
					<dim>256</dim>
				</port>
				<port id="2" precision="I32" />
			</input>
			<output>
				<port id="3" precision="FP32" names="StatefulPartitionedCall/first_keras/GatherV2_21,StatefulPartitionedCall/first_keras/GatherV2_21:0">
					<dim>256</dim>
				</port>
			</output>
		</layer>
		<layer id="172" name="StatefulPartitionedCall/first_keras/Less_7" type="Less" version="opset1">
			<data auto_broadcast="numpy" />
			<input>
				<port id="0" precision="FP32">
					<dim>256</dim>
				</port>
				<port id="1" precision="FP32">
					<dim>256</dim>
				</port>
			</input>
			<output>
				<port id="2" precision="BOOL" names="StatefulPartitionedCall/first_keras/Less_7,StatefulPartitionedCall/first_keras/Less_7:0">
					<dim>256</dim>
				</port>
			</output>
		</layer>
		<layer id="173" name="StatefulPartitionedCall/first_keras/Cast_28" type="Convert" version="opset1">
			<data destination_type="f32" />
			<input>
				<port id="0" precision="BOOL">
					<dim>256</dim>
				</port>
			</input>
			<output>
				<port id="1" precision="FP32" names="StatefulPartitionedCall/first_keras/Cast_28,StatefulPartitionedCall/first_keras/Cast_28:0">
					<dim>256</dim>
				</port>
			</output>
		</layer>
		<layer id="174" name="StatefulPartitionedCall/first_keras/Equal_7" type="Equal" version="opset1">
			<data auto_broadcast="numpy" />
			<input>
				<port id="0" precision="FP32">
					<dim>256</dim>
				</port>
				<port id="1" precision="FP32">
					<dim>256</dim>
				</port>
			</input>
			<output>
				<port id="2" precision="BOOL" names="StatefulPartitionedCall/first_keras/Equal_7,StatefulPartitionedCall/first_keras/Equal_7:0">
					<dim>256</dim>
				</port>
			</output>
		</layer>
		<layer id="175" name="StatefulPartitionedCall/first_keras/Cast_29" type="Convert" version="opset1">
			<data destination_type="f32" />
			<input>
				<port id="0" precision="BOOL">
					<dim>256</dim>
				</port>
			</input>
			<output>
				<port id="1" precision="FP32" names="StatefulPartitionedCall/first_keras/Cast_29,StatefulPartitionedCall/first_keras/Cast_29:0">
					<dim>256</dim>
				</port>
			</output>
		</layer>
		<layer id="176" name="StatefulPartitionedCall/first_keras/Add_14" type="Add" version="opset1">
			<data auto_broadcast="numpy" />
			<input>
				<port id="0" precision="FP32">
					<dim>256</dim>
				</port>
				<port id="1" precision="FP32">
					<dim>256</dim>
				</port>
			</input>
			<output>
				<port id="2" precision="FP32" names="StatefulPartitionedCall/first_keras/Add_14,StatefulPartitionedCall/first_keras/Add_14:0">
					<dim>256</dim>
				</port>
			</output>
		</layer>
		<layer id="177" name="StatefulPartitionedCall/first_keras/Cast_30" type="Convert" version="opset1">
			<data destination_type="boolean" />
			<input>
				<port id="0" precision="FP32">
					<dim>256</dim>
				</port>
			</input>
			<output>
				<port id="1" precision="BOOL" names="StatefulPartitionedCall/first_keras/Cast_30,StatefulPartitionedCall/first_keras/Cast_30:0">
					<dim>256</dim>
				</port>
			</output>
		</layer>
		<layer id="178" name="StatefulPartitionedCall/first_keras/Cast_31" type="Convert" version="opset1">
			<data destination_type="i64" />
			<input>
				<port id="0" precision="BOOL">
					<dim>256</dim>
				</port>
			</input>
			<output>
				<port id="1" precision="I64" names="StatefulPartitionedCall/first_keras/Cast_31,StatefulPartitionedCall/first_keras/Cast_31:0">
					<dim>256</dim>
				</port>
			</output>
		</layer>
		<layer id="179" name="StatefulPartitionedCall/first_keras/add_15" type="Add" version="opset1">
			<data auto_broadcast="numpy" />
			<input>
				<port id="0" precision="I64">
					<dim>256</dim>
				</port>
				<port id="1" precision="I64">
					<dim>256</dim>
				</port>
			</input>
			<output>
				<port id="2" precision="I64" names="StatefulPartitionedCall/first_keras/add_15,StatefulPartitionedCall/first_keras/add_15:0">
					<dim>256</dim>
				</port>
			</output>
		</layer>
		<layer id="180" name="StatefulPartitionedCall/first_keras/mul_7" type="Multiply" version="opset1">
			<data auto_broadcast="numpy" />
			<input>
				<port id="0" precision="I64">
					<dim>1</dim>
				</port>
				<port id="1" precision="I64">
					<dim>256</dim>
				</port>
			</input>
			<output>
				<port id="2" precision="I64" names="StatefulPartitionedCall/first_keras/mul_7,StatefulPartitionedCall/first_keras/mul_7:0">
					<dim>256</dim>
				</port>
			</output>
		</layer>
		<layer id="181" name="StatefulPartitionedCall/first_keras/GatherV2_22/params" type="Const" version="opset1">
			<data element_type="i64" shape="65536" offset="269220896" size="524288" />
			<output>
				<port id="0" precision="I64" names="StatefulPartitionedCall/first_keras/GatherV2_22/params,StatefulPartitionedCall/first_keras/GatherV2_22/params:0">
					<dim>65536</dim>
				</port>
			</output>
		</layer>
		<layer id="182" name="StatefulPartitionedCall/first_keras/GatherV2_22/axis" type="Const" version="opset1">
			<data element_type="i32" shape="" offset="268444692" size="4" />
			<output>
				<port id="0" precision="I32" names="StatefulPartitionedCall/first_keras/GatherV2_22/axis,StatefulPartitionedCall/first_keras/GatherV2_22/axis:0" />
			</output>
		</layer>
		<layer id="183" name="StatefulPartitionedCall/first_keras/GatherV2_22" type="Gather" version="opset8">
			<data batch_dims="0" />
			<input>
				<port id="0" precision="I64">
					<dim>65536</dim>
				</port>
				<port id="1" precision="I64">
					<dim>256</dim>
				</port>
				<port id="2" precision="I32" />
			</input>
			<output>
				<port id="3" precision="I64" names="StatefulPartitionedCall/first_keras/GatherV2_22,StatefulPartitionedCall/first_keras/GatherV2_22:0">
					<dim>256</dim>
				</port>
			</output>
		</layer>
		<layer id="184" name="Concat_1400" type="Const" version="opset1">
			<data element_type="i32" shape="2" offset="268444696" size="8" />
			<output>
				<port id="0" precision="I32" names="StatefulPartitionedCall/first_keras/Reshape_15/shape,StatefulPartitionedCall/first_keras/Reshape_15/shape:0">
					<dim>2</dim>
				</port>
			</output>
		</layer>
		<layer id="185" name="StatefulPartitionedCall/first_keras/Reshape_15" type="Reshape" version="opset1">
			<data special_zero="false" />
			<input>
				<port id="0" precision="I64">
					<dim>256</dim>
				</port>
				<port id="1" precision="I32">
					<dim>2</dim>
				</port>
			</input>
			<output>
				<port id="2" precision="I64" names="StatefulPartitionedCall/first_keras/Reshape_15,StatefulPartitionedCall/first_keras/Reshape_15:0">
					<dim>1</dim>
					<dim>256</dim>
				</port>
			</output>
		</layer>
		<layer id="186" name="StatefulPartitionedCall/first_keras/GatherV2_23/axis" type="Const" version="opset1">
			<data element_type="i32" shape="" offset="268437512" size="4" />
			<output>
				<port id="0" precision="I32" names="StatefulPartitionedCall/first_keras/GatherV2_23/axis,StatefulPartitionedCall/first_keras/GatherV2_23/axis:0" />
			</output>
		</layer>
		<layer id="187" name="StatefulPartitionedCall/first_keras/GatherV2_23" type="Gather" version="opset8">
			<data batch_dims="0" />
			<input>
				<port id="0" precision="FP32">
					<dim>1</dim>
					<dim>8</dim>
				</port>
				<port id="1" precision="I64">
					<dim>1</dim>
					<dim>256</dim>
				</port>
				<port id="2" precision="I32" />
			</input>
			<output>
				<port id="3" precision="FP32" names="StatefulPartitionedCall/first_keras/GatherV2_23,StatefulPartitionedCall/first_keras/GatherV2_23:0">
					<dim>1</dim>
					<dim>1</dim>
					<dim>256</dim>
				</port>
			</output>
		</layer>
		<layer id="188" name="Constant_3263" type="Const" version="opset1">
			<data element_type="i64" shape="1" offset="268440588" size="8" />
			<output>
				<port id="0" precision="I64">
					<dim>1</dim>
				</port>
			</output>
		</layer>
		<layer id="189" name="StatefulPartitionedCall/first_keras/Reshape_16" type="Reshape" version="opset1">
			<data special_zero="false" />
			<input>
				<port id="0" precision="FP32">
					<dim>1</dim>
					<dim>1</dim>
					<dim>256</dim>
				</port>
				<port id="1" precision="I64">
					<dim>1</dim>
				</port>
			</input>
			<output>
				<port id="2" precision="FP32" names="StatefulPartitionedCall/first_keras/Reshape_16,StatefulPartitionedCall/first_keras/Reshape_16:0">
					<dim>256</dim>
				</port>
			</output>
		</layer>
		<layer id="190" name="StatefulPartitionedCall/first_keras/GatherV2_24/params" type="Const" version="opset1">
			<data element_type="f32" shape="65536" offset="269745184" size="262144" />
			<output>
				<port id="0" precision="FP32" names="StatefulPartitionedCall/first_keras/GatherV2_24/params,StatefulPartitionedCall/first_keras/GatherV2_24/params:0">
					<dim>65536</dim>
				</port>
			</output>
		</layer>
		<layer id="191" name="StatefulPartitionedCall/first_keras/GatherV2_24/axis" type="Const" version="opset1">
			<data element_type="i32" shape="" offset="268444692" size="4" />
			<output>
				<port id="0" precision="I32" names="StatefulPartitionedCall/first_keras/GatherV2_24/axis,StatefulPartitionedCall/first_keras/GatherV2_24/axis:0" />
			</output>
		</layer>
		<layer id="192" name="StatefulPartitionedCall/first_keras/GatherV2_24" type="Gather" version="opset8">
			<data batch_dims="0" />
			<input>
				<port id="0" precision="FP32">
					<dim>65536</dim>
				</port>
				<port id="1" precision="I64">
					<dim>256</dim>
				</port>
				<port id="2" precision="I32" />
			</input>
			<output>
				<port id="3" precision="FP32" names="StatefulPartitionedCall/first_keras/GatherV2_24,StatefulPartitionedCall/first_keras/GatherV2_24:0">
					<dim>256</dim>
				</port>
			</output>
		</layer>
		<layer id="193" name="StatefulPartitionedCall/first_keras/Less_8" type="Less" version="opset1">
			<data auto_broadcast="numpy" />
			<input>
				<port id="0" precision="FP32">
					<dim>256</dim>
				</port>
				<port id="1" precision="FP32">
					<dim>256</dim>
				</port>
			</input>
			<output>
				<port id="2" precision="BOOL" names="StatefulPartitionedCall/first_keras/Less_8,StatefulPartitionedCall/first_keras/Less_8:0">
					<dim>256</dim>
				</port>
			</output>
		</layer>
		<layer id="194" name="StatefulPartitionedCall/first_keras/Cast_32" type="Convert" version="opset1">
			<data destination_type="f32" />
			<input>
				<port id="0" precision="BOOL">
					<dim>256</dim>
				</port>
			</input>
			<output>
				<port id="1" precision="FP32" names="StatefulPartitionedCall/first_keras/Cast_32,StatefulPartitionedCall/first_keras/Cast_32:0">
					<dim>256</dim>
				</port>
			</output>
		</layer>
		<layer id="195" name="StatefulPartitionedCall/first_keras/Equal_8" type="Equal" version="opset1">
			<data auto_broadcast="numpy" />
			<input>
				<port id="0" precision="FP32">
					<dim>256</dim>
				</port>
				<port id="1" precision="FP32">
					<dim>256</dim>
				</port>
			</input>
			<output>
				<port id="2" precision="BOOL" names="StatefulPartitionedCall/first_keras/Equal_8,StatefulPartitionedCall/first_keras/Equal_8:0">
					<dim>256</dim>
				</port>
			</output>
		</layer>
		<layer id="196" name="StatefulPartitionedCall/first_keras/Cast_33" type="Convert" version="opset1">
			<data destination_type="f32" />
			<input>
				<port id="0" precision="BOOL">
					<dim>256</dim>
				</port>
			</input>
			<output>
				<port id="1" precision="FP32" names="StatefulPartitionedCall/first_keras/Cast_33,StatefulPartitionedCall/first_keras/Cast_33:0">
					<dim>256</dim>
				</port>
			</output>
		</layer>
		<layer id="197" name="StatefulPartitionedCall/first_keras/Add_16" type="Add" version="opset1">
			<data auto_broadcast="numpy" />
			<input>
				<port id="0" precision="FP32">
					<dim>256</dim>
				</port>
				<port id="1" precision="FP32">
					<dim>256</dim>
				</port>
			</input>
			<output>
				<port id="2" precision="FP32" names="StatefulPartitionedCall/first_keras/Add_16,StatefulPartitionedCall/first_keras/Add_16:0">
					<dim>256</dim>
				</port>
			</output>
		</layer>
		<layer id="198" name="StatefulPartitionedCall/first_keras/Cast_34" type="Convert" version="opset1">
			<data destination_type="boolean" />
			<input>
				<port id="0" precision="FP32">
					<dim>256</dim>
				</port>
			</input>
			<output>
				<port id="1" precision="BOOL" names="StatefulPartitionedCall/first_keras/Cast_34,StatefulPartitionedCall/first_keras/Cast_34:0">
					<dim>256</dim>
				</port>
			</output>
		</layer>
		<layer id="199" name="StatefulPartitionedCall/first_keras/Cast_35" type="Convert" version="opset1">
			<data destination_type="i64" />
			<input>
				<port id="0" precision="BOOL">
					<dim>256</dim>
				</port>
			</input>
			<output>
				<port id="1" precision="I64" names="StatefulPartitionedCall/first_keras/Cast_35,StatefulPartitionedCall/first_keras/Cast_35:0">
					<dim>256</dim>
				</port>
			</output>
		</layer>
		<layer id="200" name="StatefulPartitionedCall/first_keras/add_17" type="Add" version="opset1">
			<data auto_broadcast="numpy" />
			<input>
				<port id="0" precision="I64">
					<dim>256</dim>
				</port>
				<port id="1" precision="I64">
					<dim>256</dim>
				</port>
			</input>
			<output>
				<port id="2" precision="I64" names="StatefulPartitionedCall/first_keras/add_17,StatefulPartitionedCall/first_keras/add_17:0">
					<dim>256</dim>
				</port>
			</output>
		</layer>
		<layer id="201" name="StatefulPartitionedCall/first_keras/mul_8" type="Multiply" version="opset1">
			<data auto_broadcast="numpy" />
			<input>
				<port id="0" precision="I64">
					<dim>1</dim>
				</port>
				<port id="1" precision="I64">
					<dim>256</dim>
				</port>
			</input>
			<output>
				<port id="2" precision="I64" names="StatefulPartitionedCall/first_keras/mul_8,StatefulPartitionedCall/first_keras/mul_8:0">
					<dim>256</dim>
				</port>
			</output>
		</layer>
		<layer id="202" name="StatefulPartitionedCall/first_keras/GatherV2_25/params" type="Const" version="opset1">
			<data element_type="i64" shape="131072" offset="270007328" size="1048576" />
			<output>
				<port id="0" precision="I64" names="StatefulPartitionedCall/first_keras/GatherV2_25/params,StatefulPartitionedCall/first_keras/GatherV2_25/params:0">
					<dim>131072</dim>
				</port>
			</output>
		</layer>
		<layer id="203" name="StatefulPartitionedCall/first_keras/GatherV2_25/axis" type="Const" version="opset1">
			<data element_type="i32" shape="" offset="268444692" size="4" />
			<output>
				<port id="0" precision="I32" names="StatefulPartitionedCall/first_keras/GatherV2_25/axis,StatefulPartitionedCall/first_keras/GatherV2_25/axis:0" />
			</output>
		</layer>
		<layer id="204" name="StatefulPartitionedCall/first_keras/GatherV2_25" type="Gather" version="opset8">
			<data batch_dims="0" />
			<input>
				<port id="0" precision="I64">
					<dim>131072</dim>
				</port>
				<port id="1" precision="I64">
					<dim>256</dim>
				</port>
				<port id="2" precision="I32" />
			</input>
			<output>
				<port id="3" precision="I64" names="StatefulPartitionedCall/first_keras/GatherV2_25,StatefulPartitionedCall/first_keras/GatherV2_25:0">
					<dim>256</dim>
				</port>
			</output>
		</layer>
		<layer id="205" name="Concat_1449" type="Const" version="opset1">
			<data element_type="i32" shape="2" offset="268444696" size="8" />
			<output>
				<port id="0" precision="I32" names="StatefulPartitionedCall/first_keras/Reshape_17/shape,StatefulPartitionedCall/first_keras/Reshape_17/shape:0">
					<dim>2</dim>
				</port>
			</output>
		</layer>
		<layer id="206" name="StatefulPartitionedCall/first_keras/Reshape_17" type="Reshape" version="opset1">
			<data special_zero="false" />
			<input>
				<port id="0" precision="I64">
					<dim>256</dim>
				</port>
				<port id="1" precision="I32">
					<dim>2</dim>
				</port>
			</input>
			<output>
				<port id="2" precision="I64" names="StatefulPartitionedCall/first_keras/Reshape_17,StatefulPartitionedCall/first_keras/Reshape_17:0">
					<dim>1</dim>
					<dim>256</dim>
				</port>
			</output>
		</layer>
		<layer id="207" name="StatefulPartitionedCall/first_keras/GatherV2_26/axis" type="Const" version="opset1">
			<data element_type="i32" shape="" offset="268437512" size="4" />
			<output>
				<port id="0" precision="I32" names="StatefulPartitionedCall/first_keras/GatherV2_26/axis,StatefulPartitionedCall/first_keras/GatherV2_26/axis:0" />
			</output>
		</layer>
		<layer id="208" name="StatefulPartitionedCall/first_keras/GatherV2_26" type="Gather" version="opset8">
			<data batch_dims="0" />
			<input>
				<port id="0" precision="FP32">
					<dim>1</dim>
					<dim>8</dim>
				</port>
				<port id="1" precision="I64">
					<dim>1</dim>
					<dim>256</dim>
				</port>
				<port id="2" precision="I32" />
			</input>
			<output>
				<port id="3" precision="FP32" names="StatefulPartitionedCall/first_keras/GatherV2_26,StatefulPartitionedCall/first_keras/GatherV2_26:0">
					<dim>1</dim>
					<dim>1</dim>
					<dim>256</dim>
				</port>
			</output>
		</layer>
		<layer id="209" name="Constant_3264" type="Const" version="opset1">
			<data element_type="i64" shape="1" offset="268440588" size="8" />
			<output>
				<port id="0" precision="I64">
					<dim>1</dim>
				</port>
			</output>
		</layer>
		<layer id="210" name="StatefulPartitionedCall/first_keras/Reshape_18" type="Reshape" version="opset1">
			<data special_zero="false" />
			<input>
				<port id="0" precision="FP32">
					<dim>1</dim>
					<dim>1</dim>
					<dim>256</dim>
				</port>
				<port id="1" precision="I64">
					<dim>1</dim>
				</port>
			</input>
			<output>
				<port id="2" precision="FP32" names="StatefulPartitionedCall/first_keras/Reshape_18,StatefulPartitionedCall/first_keras/Reshape_18:0">
					<dim>256</dim>
				</port>
			</output>
		</layer>
		<layer id="211" name="StatefulPartitionedCall/first_keras/GatherV2_27/params" type="Const" version="opset1">
			<data element_type="f32" shape="131072" offset="271055904" size="524288" />
			<output>
				<port id="0" precision="FP32" names="StatefulPartitionedCall/first_keras/GatherV2_27/params,StatefulPartitionedCall/first_keras/GatherV2_27/params:0">
					<dim>131072</dim>
				</port>
			</output>
		</layer>
		<layer id="212" name="StatefulPartitionedCall/first_keras/GatherV2_27/axis" type="Const" version="opset1">
			<data element_type="i32" shape="" offset="268444692" size="4" />
			<output>
				<port id="0" precision="I32" names="StatefulPartitionedCall/first_keras/GatherV2_27/axis,StatefulPartitionedCall/first_keras/GatherV2_27/axis:0" />
			</output>
		</layer>
		<layer id="213" name="StatefulPartitionedCall/first_keras/GatherV2_27" type="Gather" version="opset8">
			<data batch_dims="0" />
			<input>
				<port id="0" precision="FP32">
					<dim>131072</dim>
				</port>
				<port id="1" precision="I64">
					<dim>256</dim>
				</port>
				<port id="2" precision="I32" />
			</input>
			<output>
				<port id="3" precision="FP32" names="StatefulPartitionedCall/first_keras/GatherV2_27,StatefulPartitionedCall/first_keras/GatherV2_27:0">
					<dim>256</dim>
				</port>
			</output>
		</layer>
		<layer id="214" name="StatefulPartitionedCall/first_keras/Less_9" type="Less" version="opset1">
			<data auto_broadcast="numpy" />
			<input>
				<port id="0" precision="FP32">
					<dim>256</dim>
				</port>
				<port id="1" precision="FP32">
					<dim>256</dim>
				</port>
			</input>
			<output>
				<port id="2" precision="BOOL" names="StatefulPartitionedCall/first_keras/Less_9,StatefulPartitionedCall/first_keras/Less_9:0">
					<dim>256</dim>
				</port>
			</output>
		</layer>
		<layer id="215" name="StatefulPartitionedCall/first_keras/Cast_36" type="Convert" version="opset1">
			<data destination_type="f32" />
			<input>
				<port id="0" precision="BOOL">
					<dim>256</dim>
				</port>
			</input>
			<output>
				<port id="1" precision="FP32" names="StatefulPartitionedCall/first_keras/Cast_36,StatefulPartitionedCall/first_keras/Cast_36:0">
					<dim>256</dim>
				</port>
			</output>
		</layer>
		<layer id="216" name="StatefulPartitionedCall/first_keras/Equal_9" type="Equal" version="opset1">
			<data auto_broadcast="numpy" />
			<input>
				<port id="0" precision="FP32">
					<dim>256</dim>
				</port>
				<port id="1" precision="FP32">
					<dim>256</dim>
				</port>
			</input>
			<output>
				<port id="2" precision="BOOL" names="StatefulPartitionedCall/first_keras/Equal_9,StatefulPartitionedCall/first_keras/Equal_9:0">
					<dim>256</dim>
				</port>
			</output>
		</layer>
		<layer id="217" name="StatefulPartitionedCall/first_keras/Cast_37" type="Convert" version="opset1">
			<data destination_type="f32" />
			<input>
				<port id="0" precision="BOOL">
					<dim>256</dim>
				</port>
			</input>
			<output>
				<port id="1" precision="FP32" names="StatefulPartitionedCall/first_keras/Cast_37,StatefulPartitionedCall/first_keras/Cast_37:0">
					<dim>256</dim>
				</port>
			</output>
		</layer>
		<layer id="218" name="StatefulPartitionedCall/first_keras/Add_18" type="Add" version="opset1">
			<data auto_broadcast="numpy" />
			<input>
				<port id="0" precision="FP32">
					<dim>256</dim>
				</port>
				<port id="1" precision="FP32">
					<dim>256</dim>
				</port>
			</input>
			<output>
				<port id="2" precision="FP32" names="StatefulPartitionedCall/first_keras/Add_18,StatefulPartitionedCall/first_keras/Add_18:0">
					<dim>256</dim>
				</port>
			</output>
		</layer>
		<layer id="219" name="StatefulPartitionedCall/first_keras/Cast_38" type="Convert" version="opset1">
			<data destination_type="boolean" />
			<input>
				<port id="0" precision="FP32">
					<dim>256</dim>
				</port>
			</input>
			<output>
				<port id="1" precision="BOOL" names="StatefulPartitionedCall/first_keras/Cast_38,StatefulPartitionedCall/first_keras/Cast_38:0">
					<dim>256</dim>
				</port>
			</output>
		</layer>
		<layer id="220" name="StatefulPartitionedCall/first_keras/Cast_39" type="Convert" version="opset1">
			<data destination_type="i64" />
			<input>
				<port id="0" precision="BOOL">
					<dim>256</dim>
				</port>
			</input>
			<output>
				<port id="1" precision="I64" names="StatefulPartitionedCall/first_keras/Cast_39,StatefulPartitionedCall/first_keras/Cast_39:0">
					<dim>256</dim>
				</port>
			</output>
		</layer>
		<layer id="221" name="StatefulPartitionedCall/first_keras/add_19" type="Add" version="opset1">
			<data auto_broadcast="numpy" />
			<input>
				<port id="0" precision="I64">
					<dim>256</dim>
				</port>
				<port id="1" precision="I64">
					<dim>256</dim>
				</port>
			</input>
			<output>
				<port id="2" precision="I64" names="StatefulPartitionedCall/first_keras/add_19,StatefulPartitionedCall/first_keras/add_19:0">
					<dim>256</dim>
				</port>
			</output>
		</layer>
		<layer id="222" name="StatefulPartitionedCall/first_keras/mul_9" type="Multiply" version="opset1">
			<data auto_broadcast="numpy" />
			<input>
				<port id="0" precision="I64">
					<dim>1</dim>
				</port>
				<port id="1" precision="I64">
					<dim>256</dim>
				</port>
			</input>
			<output>
				<port id="2" precision="I64" names="StatefulPartitionedCall/first_keras/mul_9,StatefulPartitionedCall/first_keras/mul_9:0">
					<dim>256</dim>
				</port>
			</output>
		</layer>
		<layer id="223" name="StatefulPartitionedCall/first_keras/GatherV2_28/params" type="Const" version="opset1">
			<data element_type="i64" shape="262144" offset="271580192" size="2097152" />
			<output>
				<port id="0" precision="I64" names="StatefulPartitionedCall/first_keras/GatherV2_28/params,StatefulPartitionedCall/first_keras/GatherV2_28/params:0">
					<dim>262144</dim>
				</port>
			</output>
		</layer>
		<layer id="224" name="StatefulPartitionedCall/first_keras/GatherV2_28/axis" type="Const" version="opset1">
			<data element_type="i32" shape="" offset="268444692" size="4" />
			<output>
				<port id="0" precision="I32" names="StatefulPartitionedCall/first_keras/GatherV2_28/axis,StatefulPartitionedCall/first_keras/GatherV2_28/axis:0" />
			</output>
		</layer>
		<layer id="225" name="StatefulPartitionedCall/first_keras/GatherV2_28" type="Gather" version="opset8">
			<data batch_dims="0" />
			<input>
				<port id="0" precision="I64">
					<dim>262144</dim>
				</port>
				<port id="1" precision="I64">
					<dim>256</dim>
				</port>
				<port id="2" precision="I32" />
			</input>
			<output>
				<port id="3" precision="I64" names="StatefulPartitionedCall/first_keras/GatherV2_28,StatefulPartitionedCall/first_keras/GatherV2_28:0">
					<dim>256</dim>
				</port>
			</output>
		</layer>
		<layer id="226" name="Concat_1498" type="Const" version="opset1">
			<data element_type="i32" shape="2" offset="268444696" size="8" />
			<output>
				<port id="0" precision="I32" names="StatefulPartitionedCall/first_keras/Reshape_19/shape,StatefulPartitionedCall/first_keras/Reshape_19/shape:0">
					<dim>2</dim>
				</port>
			</output>
		</layer>
		<layer id="227" name="StatefulPartitionedCall/first_keras/Reshape_19" type="Reshape" version="opset1">
			<data special_zero="false" />
			<input>
				<port id="0" precision="I64">
					<dim>256</dim>
				</port>
				<port id="1" precision="I32">
					<dim>2</dim>
				</port>
			</input>
			<output>
				<port id="2" precision="I64" names="StatefulPartitionedCall/first_keras/Reshape_19,StatefulPartitionedCall/first_keras/Reshape_19:0">
					<dim>1</dim>
					<dim>256</dim>
				</port>
			</output>
		</layer>
		<layer id="228" name="StatefulPartitionedCall/first_keras/GatherV2_29/axis" type="Const" version="opset1">
			<data element_type="i32" shape="" offset="268437512" size="4" />
			<output>
				<port id="0" precision="I32" names="StatefulPartitionedCall/first_keras/GatherV2_29/axis,StatefulPartitionedCall/first_keras/GatherV2_29/axis:0" />
			</output>
		</layer>
		<layer id="229" name="StatefulPartitionedCall/first_keras/GatherV2_29" type="Gather" version="opset8">
			<data batch_dims="0" />
			<input>
				<port id="0" precision="FP32">
					<dim>1</dim>
					<dim>8</dim>
				</port>
				<port id="1" precision="I64">
					<dim>1</dim>
					<dim>256</dim>
				</port>
				<port id="2" precision="I32" />
			</input>
			<output>
				<port id="3" precision="FP32" names="StatefulPartitionedCall/first_keras/GatherV2_29,StatefulPartitionedCall/first_keras/GatherV2_29:0">
					<dim>1</dim>
					<dim>1</dim>
					<dim>256</dim>
				</port>
			</output>
		</layer>
		<layer id="230" name="Constant_3265" type="Const" version="opset1">
			<data element_type="i64" shape="1" offset="268440588" size="8" />
			<output>
				<port id="0" precision="I64">
					<dim>1</dim>
				</port>
			</output>
		</layer>
		<layer id="231" name="StatefulPartitionedCall/first_keras/Reshape_20" type="Reshape" version="opset1">
			<data special_zero="false" />
			<input>
				<port id="0" precision="FP32">
					<dim>1</dim>
					<dim>1</dim>
					<dim>256</dim>
				</port>
				<port id="1" precision="I64">
					<dim>1</dim>
				</port>
			</input>
			<output>
				<port id="2" precision="FP32" names="StatefulPartitionedCall/first_keras/Reshape_20,StatefulPartitionedCall/first_keras/Reshape_20:0">
					<dim>256</dim>
				</port>
			</output>
		</layer>
		<layer id="232" name="StatefulPartitionedCall/first_keras/GatherV2_30/params" type="Const" version="opset1">
			<data element_type="f32" shape="262144" offset="273677344" size="1048576" />
			<output>
				<port id="0" precision="FP32" names="StatefulPartitionedCall/first_keras/GatherV2_30/params,StatefulPartitionedCall/first_keras/GatherV2_30/params:0">
					<dim>262144</dim>
				</port>
			</output>
		</layer>
		<layer id="233" name="StatefulPartitionedCall/first_keras/GatherV2_30/axis" type="Const" version="opset1">
			<data element_type="i32" shape="" offset="268444692" size="4" />
			<output>
				<port id="0" precision="I32" names="StatefulPartitionedCall/first_keras/GatherV2_30/axis,StatefulPartitionedCall/first_keras/GatherV2_30/axis:0" />
			</output>
		</layer>
		<layer id="234" name="StatefulPartitionedCall/first_keras/GatherV2_30" type="Gather" version="opset8">
			<data batch_dims="0" />
			<input>
				<port id="0" precision="FP32">
					<dim>262144</dim>
				</port>
				<port id="1" precision="I64">
					<dim>256</dim>
				</port>
				<port id="2" precision="I32" />
			</input>
			<output>
				<port id="3" precision="FP32" names="StatefulPartitionedCall/first_keras/GatherV2_30,StatefulPartitionedCall/first_keras/GatherV2_30:0">
					<dim>256</dim>
				</port>
			</output>
		</layer>
		<layer id="235" name="StatefulPartitionedCall/first_keras/Less_10" type="Less" version="opset1">
			<data auto_broadcast="numpy" />
			<input>
				<port id="0" precision="FP32">
					<dim>256</dim>
				</port>
				<port id="1" precision="FP32">
					<dim>256</dim>
				</port>
			</input>
			<output>
				<port id="2" precision="BOOL" names="StatefulPartitionedCall/first_keras/Less_10,StatefulPartitionedCall/first_keras/Less_10:0">
					<dim>256</dim>
				</port>
			</output>
		</layer>
		<layer id="236" name="StatefulPartitionedCall/first_keras/Cast_40" type="Convert" version="opset1">
			<data destination_type="f32" />
			<input>
				<port id="0" precision="BOOL">
					<dim>256</dim>
				</port>
			</input>
			<output>
				<port id="1" precision="FP32" names="StatefulPartitionedCall/first_keras/Cast_40,StatefulPartitionedCall/first_keras/Cast_40:0">
					<dim>256</dim>
				</port>
			</output>
		</layer>
		<layer id="237" name="StatefulPartitionedCall/first_keras/Equal_10" type="Equal" version="opset1">
			<data auto_broadcast="numpy" />
			<input>
				<port id="0" precision="FP32">
					<dim>256</dim>
				</port>
				<port id="1" precision="FP32">
					<dim>256</dim>
				</port>
			</input>
			<output>
				<port id="2" precision="BOOL" names="StatefulPartitionedCall/first_keras/Equal_10,StatefulPartitionedCall/first_keras/Equal_10:0">
					<dim>256</dim>
				</port>
			</output>
		</layer>
		<layer id="238" name="StatefulPartitionedCall/first_keras/Cast_41" type="Convert" version="opset1">
			<data destination_type="f32" />
			<input>
				<port id="0" precision="BOOL">
					<dim>256</dim>
				</port>
			</input>
			<output>
				<port id="1" precision="FP32" names="StatefulPartitionedCall/first_keras/Cast_41,StatefulPartitionedCall/first_keras/Cast_41:0">
					<dim>256</dim>
				</port>
			</output>
		</layer>
		<layer id="239" name="StatefulPartitionedCall/first_keras/Add_20" type="Add" version="opset1">
			<data auto_broadcast="numpy" />
			<input>
				<port id="0" precision="FP32">
					<dim>256</dim>
				</port>
				<port id="1" precision="FP32">
					<dim>256</dim>
				</port>
			</input>
			<output>
				<port id="2" precision="FP32" names="StatefulPartitionedCall/first_keras/Add_20,StatefulPartitionedCall/first_keras/Add_20:0">
					<dim>256</dim>
				</port>
			</output>
		</layer>
		<layer id="240" name="StatefulPartitionedCall/first_keras/Cast_42" type="Convert" version="opset1">
			<data destination_type="boolean" />
			<input>
				<port id="0" precision="FP32">
					<dim>256</dim>
				</port>
			</input>
			<output>
				<port id="1" precision="BOOL" names="StatefulPartitionedCall/first_keras/Cast_42,StatefulPartitionedCall/first_keras/Cast_42:0">
					<dim>256</dim>
				</port>
			</output>
		</layer>
		<layer id="241" name="StatefulPartitionedCall/first_keras/Cast_43" type="Convert" version="opset1">
			<data destination_type="i64" />
			<input>
				<port id="0" precision="BOOL">
					<dim>256</dim>
				</port>
			</input>
			<output>
				<port id="1" precision="I64" names="StatefulPartitionedCall/first_keras/Cast_43,StatefulPartitionedCall/first_keras/Cast_43:0">
					<dim>256</dim>
				</port>
			</output>
		</layer>
		<layer id="242" name="StatefulPartitionedCall/first_keras/add_21" type="Add" version="opset1">
			<data auto_broadcast="numpy" />
			<input>
				<port id="0" precision="I64">
					<dim>256</dim>
				</port>
				<port id="1" precision="I64">
					<dim>256</dim>
				</port>
			</input>
			<output>
				<port id="2" precision="I64" names="StatefulPartitionedCall/first_keras/add_21,StatefulPartitionedCall/first_keras/add_21:0">
					<dim>256</dim>
				</port>
			</output>
		</layer>
		<layer id="243" name="StatefulPartitionedCall/first_keras/mul_10" type="Multiply" version="opset1">
			<data auto_broadcast="numpy" />
			<input>
				<port id="0" precision="I64">
					<dim>1</dim>
				</port>
				<port id="1" precision="I64">
					<dim>256</dim>
				</port>
			</input>
			<output>
				<port id="2" precision="I64" names="StatefulPartitionedCall/first_keras/mul_10,StatefulPartitionedCall/first_keras/mul_10:0">
					<dim>256</dim>
				</port>
			</output>
		</layer>
		<layer id="244" name="StatefulPartitionedCall/first_keras/GatherV2_31/params" type="Const" version="opset1">
			<data element_type="i64" shape="524288" offset="274725920" size="4194304" />
			<output>
				<port id="0" precision="I64" names="StatefulPartitionedCall/first_keras/GatherV2_31/params,StatefulPartitionedCall/first_keras/GatherV2_31/params:0">
					<dim>524288</dim>
				</port>
			</output>
		</layer>
		<layer id="245" name="StatefulPartitionedCall/first_keras/GatherV2_31/axis" type="Const" version="opset1">
			<data element_type="i32" shape="" offset="268444692" size="4" />
			<output>
				<port id="0" precision="I32" names="StatefulPartitionedCall/first_keras/GatherV2_31/axis,StatefulPartitionedCall/first_keras/GatherV2_31/axis:0" />
			</output>
		</layer>
		<layer id="246" name="StatefulPartitionedCall/first_keras/GatherV2_31" type="Gather" version="opset8">
			<data batch_dims="0" />
			<input>
				<port id="0" precision="I64">
					<dim>524288</dim>
				</port>
				<port id="1" precision="I64">
					<dim>256</dim>
				</port>
				<port id="2" precision="I32" />
			</input>
			<output>
				<port id="3" precision="I64" names="StatefulPartitionedCall/first_keras/GatherV2_31,StatefulPartitionedCall/first_keras/GatherV2_31:0">
					<dim>256</dim>
				</port>
			</output>
		</layer>
		<layer id="247" name="Concat_1547" type="Const" version="opset1">
			<data element_type="i32" shape="2" offset="268444696" size="8" />
			<output>
				<port id="0" precision="I32" names="StatefulPartitionedCall/first_keras/Reshape_21/shape,StatefulPartitionedCall/first_keras/Reshape_21/shape:0">
					<dim>2</dim>
				</port>
			</output>
		</layer>
		<layer id="248" name="StatefulPartitionedCall/first_keras/Reshape_21" type="Reshape" version="opset1">
			<data special_zero="false" />
			<input>
				<port id="0" precision="I64">
					<dim>256</dim>
				</port>
				<port id="1" precision="I32">
					<dim>2</dim>
				</port>
			</input>
			<output>
				<port id="2" precision="I64" names="StatefulPartitionedCall/first_keras/Reshape_21,StatefulPartitionedCall/first_keras/Reshape_21:0">
					<dim>1</dim>
					<dim>256</dim>
				</port>
			</output>
		</layer>
		<layer id="249" name="StatefulPartitionedCall/first_keras/GatherV2_32/axis" type="Const" version="opset1">
			<data element_type="i32" shape="" offset="268437512" size="4" />
			<output>
				<port id="0" precision="I32" names="StatefulPartitionedCall/first_keras/GatherV2_32/axis,StatefulPartitionedCall/first_keras/GatherV2_32/axis:0" />
			</output>
		</layer>
		<layer id="250" name="StatefulPartitionedCall/first_keras/GatherV2_32" type="Gather" version="opset8">
			<data batch_dims="0" />
			<input>
				<port id="0" precision="FP32">
					<dim>1</dim>
					<dim>8</dim>
				</port>
				<port id="1" precision="I64">
					<dim>1</dim>
					<dim>256</dim>
				</port>
				<port id="2" precision="I32" />
			</input>
			<output>
				<port id="3" precision="FP32" names="StatefulPartitionedCall/first_keras/GatherV2_32,StatefulPartitionedCall/first_keras/GatherV2_32:0">
					<dim>1</dim>
					<dim>1</dim>
					<dim>256</dim>
				</port>
			</output>
		</layer>
		<layer id="251" name="Constant_3266" type="Const" version="opset1">
			<data element_type="i64" shape="1" offset="268440588" size="8" />
			<output>
				<port id="0" precision="I64">
					<dim>1</dim>
				</port>
			</output>
		</layer>
		<layer id="252" name="StatefulPartitionedCall/first_keras/Reshape_22" type="Reshape" version="opset1">
			<data special_zero="false" />
			<input>
				<port id="0" precision="FP32">
					<dim>1</dim>
					<dim>1</dim>
					<dim>256</dim>
				</port>
				<port id="1" precision="I64">
					<dim>1</dim>
				</port>
			</input>
			<output>
				<port id="2" precision="FP32" names="StatefulPartitionedCall/first_keras/Reshape_22,StatefulPartitionedCall/first_keras/Reshape_22:0">
					<dim>256</dim>
				</port>
			</output>
		</layer>
		<layer id="253" name="StatefulPartitionedCall/first_keras/GatherV2_33/params" type="Const" version="opset1">
			<data element_type="f32" shape="524288" offset="278920224" size="2097152" />
			<output>
				<port id="0" precision="FP32" names="StatefulPartitionedCall/first_keras/GatherV2_33/params,StatefulPartitionedCall/first_keras/GatherV2_33/params:0">
					<dim>524288</dim>
				</port>
			</output>
		</layer>
		<layer id="254" name="StatefulPartitionedCall/first_keras/GatherV2_33/axis" type="Const" version="opset1">
			<data element_type="i32" shape="" offset="268444692" size="4" />
			<output>
				<port id="0" precision="I32" names="StatefulPartitionedCall/first_keras/GatherV2_33/axis,StatefulPartitionedCall/first_keras/GatherV2_33/axis:0" />
			</output>
		</layer>
		<layer id="255" name="StatefulPartitionedCall/first_keras/GatherV2_33" type="Gather" version="opset8">
			<data batch_dims="0" />
			<input>
				<port id="0" precision="FP32">
					<dim>524288</dim>
				</port>
				<port id="1" precision="I64">
					<dim>256</dim>
				</port>
				<port id="2" precision="I32" />
			</input>
			<output>
				<port id="3" precision="FP32" names="StatefulPartitionedCall/first_keras/GatherV2_33,StatefulPartitionedCall/first_keras/GatherV2_33:0">
					<dim>256</dim>
				</port>
			</output>
		</layer>
		<layer id="256" name="StatefulPartitionedCall/first_keras/Less_11" type="Less" version="opset1">
			<data auto_broadcast="numpy" />
			<input>
				<port id="0" precision="FP32">
					<dim>256</dim>
				</port>
				<port id="1" precision="FP32">
					<dim>256</dim>
				</port>
			</input>
			<output>
				<port id="2" precision="BOOL" names="StatefulPartitionedCall/first_keras/Less_11,StatefulPartitionedCall/first_keras/Less_11:0">
					<dim>256</dim>
				</port>
			</output>
		</layer>
		<layer id="257" name="StatefulPartitionedCall/first_keras/Cast_44" type="Convert" version="opset1">
			<data destination_type="f32" />
			<input>
				<port id="0" precision="BOOL">
					<dim>256</dim>
				</port>
			</input>
			<output>
				<port id="1" precision="FP32" names="StatefulPartitionedCall/first_keras/Cast_44,StatefulPartitionedCall/first_keras/Cast_44:0">
					<dim>256</dim>
				</port>
			</output>
		</layer>
		<layer id="258" name="StatefulPartitionedCall/first_keras/Equal_11" type="Equal" version="opset1">
			<data auto_broadcast="numpy" />
			<input>
				<port id="0" precision="FP32">
					<dim>256</dim>
				</port>
				<port id="1" precision="FP32">
					<dim>256</dim>
				</port>
			</input>
			<output>
				<port id="2" precision="BOOL" names="StatefulPartitionedCall/first_keras/Equal_11,StatefulPartitionedCall/first_keras/Equal_11:0">
					<dim>256</dim>
				</port>
			</output>
		</layer>
		<layer id="259" name="StatefulPartitionedCall/first_keras/Cast_45" type="Convert" version="opset1">
			<data destination_type="f32" />
			<input>
				<port id="0" precision="BOOL">
					<dim>256</dim>
				</port>
			</input>
			<output>
				<port id="1" precision="FP32" names="StatefulPartitionedCall/first_keras/Cast_45,StatefulPartitionedCall/first_keras/Cast_45:0">
					<dim>256</dim>
				</port>
			</output>
		</layer>
		<layer id="260" name="StatefulPartitionedCall/first_keras/Add_22" type="Add" version="opset1">
			<data auto_broadcast="numpy" />
			<input>
				<port id="0" precision="FP32">
					<dim>256</dim>
				</port>
				<port id="1" precision="FP32">
					<dim>256</dim>
				</port>
			</input>
			<output>
				<port id="2" precision="FP32" names="StatefulPartitionedCall/first_keras/Add_22,StatefulPartitionedCall/first_keras/Add_22:0">
					<dim>256</dim>
				</port>
			</output>
		</layer>
		<layer id="261" name="StatefulPartitionedCall/first_keras/Cast_46" type="Convert" version="opset1">
			<data destination_type="boolean" />
			<input>
				<port id="0" precision="FP32">
					<dim>256</dim>
				</port>
			</input>
			<output>
				<port id="1" precision="BOOL" names="StatefulPartitionedCall/first_keras/Cast_46,StatefulPartitionedCall/first_keras/Cast_46:0">
					<dim>256</dim>
				</port>
			</output>
		</layer>
		<layer id="262" name="StatefulPartitionedCall/first_keras/Cast_47" type="Convert" version="opset1">
			<data destination_type="i64" />
			<input>
				<port id="0" precision="BOOL">
					<dim>256</dim>
				</port>
			</input>
			<output>
				<port id="1" precision="I64" names="StatefulPartitionedCall/first_keras/Cast_47,StatefulPartitionedCall/first_keras/Cast_47:0">
					<dim>256</dim>
				</port>
			</output>
		</layer>
		<layer id="263" name="StatefulPartitionedCall/first_keras/add_23" type="Add" version="opset1">
			<data auto_broadcast="numpy" />
			<input>
				<port id="0" precision="I64">
					<dim>256</dim>
				</port>
				<port id="1" precision="I64">
					<dim>256</dim>
				</port>
			</input>
			<output>
				<port id="2" precision="I64" names="StatefulPartitionedCall/first_keras/add_23,StatefulPartitionedCall/first_keras/add_23:0">
					<dim>256</dim>
				</port>
			</output>
		</layer>
		<layer id="264" name="StatefulPartitionedCall/first_keras/mul_11" type="Multiply" version="opset1">
			<data auto_broadcast="numpy" />
			<input>
				<port id="0" precision="I64">
					<dim>1</dim>
				</port>
				<port id="1" precision="I64">
					<dim>256</dim>
				</port>
			</input>
			<output>
				<port id="2" precision="I64" names="StatefulPartitionedCall/first_keras/mul_11,StatefulPartitionedCall/first_keras/mul_11:0">
					<dim>256</dim>
				</port>
			</output>
		</layer>
		<layer id="265" name="StatefulPartitionedCall/first_keras/GatherV2_34/params" type="Const" version="opset1">
			<data element_type="i64" shape="1048576" offset="281017376" size="8388608" />
			<output>
				<port id="0" precision="I64" names="StatefulPartitionedCall/first_keras/GatherV2_34/params,StatefulPartitionedCall/first_keras/GatherV2_34/params:0">
					<dim>1048576</dim>
				</port>
			</output>
		</layer>
		<layer id="266" name="StatefulPartitionedCall/first_keras/GatherV2_34/axis" type="Const" version="opset1">
			<data element_type="i32" shape="" offset="268444692" size="4" />
			<output>
				<port id="0" precision="I32" names="StatefulPartitionedCall/first_keras/GatherV2_34/axis,StatefulPartitionedCall/first_keras/GatherV2_34/axis:0" />
			</output>
		</layer>
		<layer id="267" name="StatefulPartitionedCall/first_keras/GatherV2_34" type="Gather" version="opset8">
			<data batch_dims="0" />
			<input>
				<port id="0" precision="I64">
					<dim>1048576</dim>
				</port>
				<port id="1" precision="I64">
					<dim>256</dim>
				</port>
				<port id="2" precision="I32" />
			</input>
			<output>
				<port id="3" precision="I64" names="StatefulPartitionedCall/first_keras/GatherV2_34,StatefulPartitionedCall/first_keras/GatherV2_34:0">
					<dim>256</dim>
				</port>
			</output>
		</layer>
		<layer id="268" name="Concat_1596" type="Const" version="opset1">
			<data element_type="i32" shape="2" offset="268444696" size="8" />
			<output>
				<port id="0" precision="I32" names="StatefulPartitionedCall/first_keras/Reshape_23/shape,StatefulPartitionedCall/first_keras/Reshape_23/shape:0">
					<dim>2</dim>
				</port>
			</output>
		</layer>
		<layer id="269" name="StatefulPartitionedCall/first_keras/Reshape_23" type="Reshape" version="opset1">
			<data special_zero="false" />
			<input>
				<port id="0" precision="I64">
					<dim>256</dim>
				</port>
				<port id="1" precision="I32">
					<dim>2</dim>
				</port>
			</input>
			<output>
				<port id="2" precision="I64" names="StatefulPartitionedCall/first_keras/Reshape_23,StatefulPartitionedCall/first_keras/Reshape_23:0">
					<dim>1</dim>
					<dim>256</dim>
				</port>
			</output>
		</layer>
		<layer id="270" name="StatefulPartitionedCall/first_keras/GatherV2_35/axis" type="Const" version="opset1">
			<data element_type="i32" shape="" offset="268437512" size="4" />
			<output>
				<port id="0" precision="I32" names="StatefulPartitionedCall/first_keras/GatherV2_35/axis,StatefulPartitionedCall/first_keras/GatherV2_35/axis:0" />
			</output>
		</layer>
		<layer id="271" name="StatefulPartitionedCall/first_keras/GatherV2_35" type="Gather" version="opset8">
			<data batch_dims="0" />
			<input>
				<port id="0" precision="FP32">
					<dim>1</dim>
					<dim>8</dim>
				</port>
				<port id="1" precision="I64">
					<dim>1</dim>
					<dim>256</dim>
				</port>
				<port id="2" precision="I32" />
			</input>
			<output>
				<port id="3" precision="FP32" names="StatefulPartitionedCall/first_keras/GatherV2_35,StatefulPartitionedCall/first_keras/GatherV2_35:0">
					<dim>1</dim>
					<dim>1</dim>
					<dim>256</dim>
				</port>
			</output>
		</layer>
		<layer id="272" name="Constant_3267" type="Const" version="opset1">
			<data element_type="i64" shape="1" offset="268440588" size="8" />
			<output>
				<port id="0" precision="I64">
					<dim>1</dim>
				</port>
			</output>
		</layer>
		<layer id="273" name="StatefulPartitionedCall/first_keras/Reshape_24" type="Reshape" version="opset1">
			<data special_zero="false" />
			<input>
				<port id="0" precision="FP32">
					<dim>1</dim>
					<dim>1</dim>
					<dim>256</dim>
				</port>
				<port id="1" precision="I64">
					<dim>1</dim>
				</port>
			</input>
			<output>
				<port id="2" precision="FP32" names="StatefulPartitionedCall/first_keras/Reshape_24,StatefulPartitionedCall/first_keras/Reshape_24:0">
					<dim>256</dim>
				</port>
			</output>
		</layer>
		<layer id="274" name="StatefulPartitionedCall/first_keras/GatherV2_36/params" type="Const" version="opset1">
			<data element_type="f32" shape="1048576" offset="289405984" size="4194304" />
			<output>
				<port id="0" precision="FP32" names="StatefulPartitionedCall/first_keras/GatherV2_36/params,StatefulPartitionedCall/first_keras/GatherV2_36/params:0">
					<dim>1048576</dim>
				</port>
			</output>
		</layer>
		<layer id="275" name="StatefulPartitionedCall/first_keras/GatherV2_36/axis" type="Const" version="opset1">
			<data element_type="i32" shape="" offset="268444692" size="4" />
			<output>
				<port id="0" precision="I32" names="StatefulPartitionedCall/first_keras/GatherV2_36/axis,StatefulPartitionedCall/first_keras/GatherV2_36/axis:0" />
			</output>
		</layer>
		<layer id="276" name="StatefulPartitionedCall/first_keras/GatherV2_36" type="Gather" version="opset8">
			<data batch_dims="0" />
			<input>
				<port id="0" precision="FP32">
					<dim>1048576</dim>
				</port>
				<port id="1" precision="I64">
					<dim>256</dim>
				</port>
				<port id="2" precision="I32" />
			</input>
			<output>
				<port id="3" precision="FP32" names="StatefulPartitionedCall/first_keras/GatherV2_36,StatefulPartitionedCall/first_keras/GatherV2_36:0">
					<dim>256</dim>
				</port>
			</output>
		</layer>
		<layer id="277" name="StatefulPartitionedCall/first_keras/Less_12" type="Less" version="opset1">
			<data auto_broadcast="numpy" />
			<input>
				<port id="0" precision="FP32">
					<dim>256</dim>
				</port>
				<port id="1" precision="FP32">
					<dim>256</dim>
				</port>
			</input>
			<output>
				<port id="2" precision="BOOL" names="StatefulPartitionedCall/first_keras/Less_12,StatefulPartitionedCall/first_keras/Less_12:0">
					<dim>256</dim>
				</port>
			</output>
		</layer>
		<layer id="278" name="StatefulPartitionedCall/first_keras/Cast_48" type="Convert" version="opset1">
			<data destination_type="f32" />
			<input>
				<port id="0" precision="BOOL">
					<dim>256</dim>
				</port>
			</input>
			<output>
				<port id="1" precision="FP32" names="StatefulPartitionedCall/first_keras/Cast_48,StatefulPartitionedCall/first_keras/Cast_48:0">
					<dim>256</dim>
				</port>
			</output>
		</layer>
		<layer id="279" name="StatefulPartitionedCall/first_keras/Equal_12" type="Equal" version="opset1">
			<data auto_broadcast="numpy" />
			<input>
				<port id="0" precision="FP32">
					<dim>256</dim>
				</port>
				<port id="1" precision="FP32">
					<dim>256</dim>
				</port>
			</input>
			<output>
				<port id="2" precision="BOOL" names="StatefulPartitionedCall/first_keras/Equal_12,StatefulPartitionedCall/first_keras/Equal_12:0">
					<dim>256</dim>
				</port>
			</output>
		</layer>
		<layer id="280" name="StatefulPartitionedCall/first_keras/Cast_49" type="Convert" version="opset1">
			<data destination_type="f32" />
			<input>
				<port id="0" precision="BOOL">
					<dim>256</dim>
				</port>
			</input>
			<output>
				<port id="1" precision="FP32" names="StatefulPartitionedCall/first_keras/Cast_49,StatefulPartitionedCall/first_keras/Cast_49:0">
					<dim>256</dim>
				</port>
			</output>
		</layer>
		<layer id="281" name="StatefulPartitionedCall/first_keras/Add_24" type="Add" version="opset1">
			<data auto_broadcast="numpy" />
			<input>
				<port id="0" precision="FP32">
					<dim>256</dim>
				</port>
				<port id="1" precision="FP32">
					<dim>256</dim>
				</port>
			</input>
			<output>
				<port id="2" precision="FP32" names="StatefulPartitionedCall/first_keras/Add_24,StatefulPartitionedCall/first_keras/Add_24:0">
					<dim>256</dim>
				</port>
			</output>
		</layer>
		<layer id="282" name="StatefulPartitionedCall/first_keras/Cast_50" type="Convert" version="opset1">
			<data destination_type="boolean" />
			<input>
				<port id="0" precision="FP32">
					<dim>256</dim>
				</port>
			</input>
			<output>
				<port id="1" precision="BOOL" names="StatefulPartitionedCall/first_keras/Cast_50,StatefulPartitionedCall/first_keras/Cast_50:0">
					<dim>256</dim>
				</port>
			</output>
		</layer>
		<layer id="283" name="StatefulPartitionedCall/first_keras/Cast_51" type="Convert" version="opset1">
			<data destination_type="i64" />
			<input>
				<port id="0" precision="BOOL">
					<dim>256</dim>
				</port>
			</input>
			<output>
				<port id="1" precision="I64" names="StatefulPartitionedCall/first_keras/Cast_51,StatefulPartitionedCall/first_keras/Cast_51:0">
					<dim>256</dim>
				</port>
			</output>
		</layer>
		<layer id="284" name="StatefulPartitionedCall/first_keras/add_25" type="Add" version="opset1">
			<data auto_broadcast="numpy" />
			<input>
				<port id="0" precision="I64">
					<dim>256</dim>
				</port>
				<port id="1" precision="I64">
					<dim>256</dim>
				</port>
			</input>
			<output>
				<port id="2" precision="I64" names="StatefulPartitionedCall/first_keras/add_25,StatefulPartitionedCall/first_keras/add_25:0">
					<dim>256</dim>
				</port>
			</output>
		</layer>
		<layer id="285" name="StatefulPartitionedCall/first_keras/mul_12" type="Multiply" version="opset1">
			<data auto_broadcast="numpy" />
			<input>
				<port id="0" precision="I64">
					<dim>1</dim>
				</port>
				<port id="1" precision="I64">
					<dim>256</dim>
				</port>
			</input>
			<output>
				<port id="2" precision="I64" names="StatefulPartitionedCall/first_keras/mul_12,StatefulPartitionedCall/first_keras/mul_12:0">
					<dim>256</dim>
				</port>
			</output>
		</layer>
		<layer id="286" name="StatefulPartitionedCall/first_keras/GatherV2_37/params" type="Const" version="opset1">
			<data element_type="i64" shape="2097152" offset="293600288" size="16777216" />
			<output>
				<port id="0" precision="I64" names="StatefulPartitionedCall/first_keras/GatherV2_37/params,StatefulPartitionedCall/first_keras/GatherV2_37/params:0">
					<dim>2097152</dim>
				</port>
			</output>
		</layer>
		<layer id="287" name="StatefulPartitionedCall/first_keras/GatherV2_37/axis" type="Const" version="opset1">
			<data element_type="i32" shape="" offset="268444692" size="4" />
			<output>
				<port id="0" precision="I32" names="StatefulPartitionedCall/first_keras/GatherV2_37/axis,StatefulPartitionedCall/first_keras/GatherV2_37/axis:0" />
			</output>
		</layer>
		<layer id="288" name="StatefulPartitionedCall/first_keras/GatherV2_37" type="Gather" version="opset8">
			<data batch_dims="0" />
			<input>
				<port id="0" precision="I64">
					<dim>2097152</dim>
				</port>
				<port id="1" precision="I64">
					<dim>256</dim>
				</port>
				<port id="2" precision="I32" />
			</input>
			<output>
				<port id="3" precision="I64" names="StatefulPartitionedCall/first_keras/GatherV2_37,StatefulPartitionedCall/first_keras/GatherV2_37:0">
					<dim>256</dim>
				</port>
			</output>
		</layer>
		<layer id="289" name="Concat_1645" type="Const" version="opset1">
			<data element_type="i32" shape="2" offset="268444696" size="8" />
			<output>
				<port id="0" precision="I32" names="StatefulPartitionedCall/first_keras/Reshape_25/shape,StatefulPartitionedCall/first_keras/Reshape_25/shape:0">
					<dim>2</dim>
				</port>
			</output>
		</layer>
		<layer id="290" name="StatefulPartitionedCall/first_keras/Reshape_25" type="Reshape" version="opset1">
			<data special_zero="false" />
			<input>
				<port id="0" precision="I64">
					<dim>256</dim>
				</port>
				<port id="1" precision="I32">
					<dim>2</dim>
				</port>
			</input>
			<output>
				<port id="2" precision="I64" names="StatefulPartitionedCall/first_keras/Reshape_25,StatefulPartitionedCall/first_keras/Reshape_25:0">
					<dim>1</dim>
					<dim>256</dim>
				</port>
			</output>
		</layer>
		<layer id="291" name="StatefulPartitionedCall/first_keras/GatherV2_38/axis" type="Const" version="opset1">
			<data element_type="i32" shape="" offset="268437512" size="4" />
			<output>
				<port id="0" precision="I32" names="StatefulPartitionedCall/first_keras/GatherV2_38/axis,StatefulPartitionedCall/first_keras/GatherV2_38/axis:0" />
			</output>
		</layer>
		<layer id="292" name="StatefulPartitionedCall/first_keras/GatherV2_38" type="Gather" version="opset8">
			<data batch_dims="0" />
			<input>
				<port id="0" precision="FP32">
					<dim>1</dim>
					<dim>8</dim>
				</port>
				<port id="1" precision="I64">
					<dim>1</dim>
					<dim>256</dim>
				</port>
				<port id="2" precision="I32" />
			</input>
			<output>
				<port id="3" precision="FP32" names="StatefulPartitionedCall/first_keras/GatherV2_38,StatefulPartitionedCall/first_keras/GatherV2_38:0">
					<dim>1</dim>
					<dim>1</dim>
					<dim>256</dim>
				</port>
			</output>
		</layer>
		<layer id="293" name="Constant_3268" type="Const" version="opset1">
			<data element_type="i64" shape="1" offset="268440588" size="8" />
			<output>
				<port id="0" precision="I64">
					<dim>1</dim>
				</port>
			</output>
		</layer>
		<layer id="294" name="StatefulPartitionedCall/first_keras/Reshape_26" type="Reshape" version="opset1">
			<data special_zero="false" />
			<input>
				<port id="0" precision="FP32">
					<dim>1</dim>
					<dim>1</dim>
					<dim>256</dim>
				</port>
				<port id="1" precision="I64">
					<dim>1</dim>
				</port>
			</input>
			<output>
				<port id="2" precision="FP32" names="StatefulPartitionedCall/first_keras/Reshape_26,StatefulPartitionedCall/first_keras/Reshape_26:0">
					<dim>256</dim>
				</port>
			</output>
		</layer>
		<layer id="295" name="StatefulPartitionedCall/first_keras/GatherV2_39/params" type="Const" version="opset1">
			<data element_type="f32" shape="2097152" offset="310377504" size="8388608" />
			<output>
				<port id="0" precision="FP32" names="StatefulPartitionedCall/first_keras/GatherV2_39/params,StatefulPartitionedCall/first_keras/GatherV2_39/params:0">
					<dim>2097152</dim>
				</port>
			</output>
		</layer>
		<layer id="296" name="StatefulPartitionedCall/first_keras/GatherV2_39/axis" type="Const" version="opset1">
			<data element_type="i32" shape="" offset="268444692" size="4" />
			<output>
				<port id="0" precision="I32" names="StatefulPartitionedCall/first_keras/GatherV2_39/axis,StatefulPartitionedCall/first_keras/GatherV2_39/axis:0" />
			</output>
		</layer>
		<layer id="297" name="StatefulPartitionedCall/first_keras/GatherV2_39" type="Gather" version="opset8">
			<data batch_dims="0" />
			<input>
				<port id="0" precision="FP32">
					<dim>2097152</dim>
				</port>
				<port id="1" precision="I64">
					<dim>256</dim>
				</port>
				<port id="2" precision="I32" />
			</input>
			<output>
				<port id="3" precision="FP32" names="StatefulPartitionedCall/first_keras/GatherV2_39,StatefulPartitionedCall/first_keras/GatherV2_39:0">
					<dim>256</dim>
				</port>
			</output>
		</layer>
		<layer id="298" name="StatefulPartitionedCall/first_keras/Less_13" type="Less" version="opset1">
			<data auto_broadcast="numpy" />
			<input>
				<port id="0" precision="FP32">
					<dim>256</dim>
				</port>
				<port id="1" precision="FP32">
					<dim>256</dim>
				</port>
			</input>
			<output>
				<port id="2" precision="BOOL" names="StatefulPartitionedCall/first_keras/Less_13,StatefulPartitionedCall/first_keras/Less_13:0">
					<dim>256</dim>
				</port>
			</output>
		</layer>
		<layer id="299" name="StatefulPartitionedCall/first_keras/Cast_52" type="Convert" version="opset1">
			<data destination_type="f32" />
			<input>
				<port id="0" precision="BOOL">
					<dim>256</dim>
				</port>
			</input>
			<output>
				<port id="1" precision="FP32" names="StatefulPartitionedCall/first_keras/Cast_52,StatefulPartitionedCall/first_keras/Cast_52:0">
					<dim>256</dim>
				</port>
			</output>
		</layer>
		<layer id="300" name="StatefulPartitionedCall/first_keras/Equal_13" type="Equal" version="opset1">
			<data auto_broadcast="numpy" />
			<input>
				<port id="0" precision="FP32">
					<dim>256</dim>
				</port>
				<port id="1" precision="FP32">
					<dim>256</dim>
				</port>
			</input>
			<output>
				<port id="2" precision="BOOL" names="StatefulPartitionedCall/first_keras/Equal_13,StatefulPartitionedCall/first_keras/Equal_13:0">
					<dim>256</dim>
				</port>
			</output>
		</layer>
		<layer id="301" name="StatefulPartitionedCall/first_keras/Cast_53" type="Convert" version="opset1">
			<data destination_type="f32" />
			<input>
				<port id="0" precision="BOOL">
					<dim>256</dim>
				</port>
			</input>
			<output>
				<port id="1" precision="FP32" names="StatefulPartitionedCall/first_keras/Cast_53,StatefulPartitionedCall/first_keras/Cast_53:0">
					<dim>256</dim>
				</port>
			</output>
		</layer>
		<layer id="302" name="StatefulPartitionedCall/first_keras/Add_26" type="Add" version="opset1">
			<data auto_broadcast="numpy" />
			<input>
				<port id="0" precision="FP32">
					<dim>256</dim>
				</port>
				<port id="1" precision="FP32">
					<dim>256</dim>
				</port>
			</input>
			<output>
				<port id="2" precision="FP32" names="StatefulPartitionedCall/first_keras/Add_26,StatefulPartitionedCall/first_keras/Add_26:0">
					<dim>256</dim>
				</port>
			</output>
		</layer>
		<layer id="303" name="StatefulPartitionedCall/first_keras/Cast_54" type="Convert" version="opset1">
			<data destination_type="boolean" />
			<input>
				<port id="0" precision="FP32">
					<dim>256</dim>
				</port>
			</input>
			<output>
				<port id="1" precision="BOOL" names="StatefulPartitionedCall/first_keras/Cast_54,StatefulPartitionedCall/first_keras/Cast_54:0">
					<dim>256</dim>
				</port>
			</output>
		</layer>
		<layer id="304" name="StatefulPartitionedCall/first_keras/Cast_55" type="Convert" version="opset1">
			<data destination_type="i64" />
			<input>
				<port id="0" precision="BOOL">
					<dim>256</dim>
				</port>
			</input>
			<output>
				<port id="1" precision="I64" names="StatefulPartitionedCall/first_keras/Cast_55,StatefulPartitionedCall/first_keras/Cast_55:0">
					<dim>256</dim>
				</port>
			</output>
		</layer>
		<layer id="305" name="StatefulPartitionedCall/first_keras/add_27" type="Add" version="opset1">
			<data auto_broadcast="numpy" />
			<input>
				<port id="0" precision="I64">
					<dim>256</dim>
				</port>
				<port id="1" precision="I64">
					<dim>256</dim>
				</port>
			</input>
			<output>
				<port id="2" precision="I64" names="StatefulPartitionedCall/first_keras/add_27,StatefulPartitionedCall/first_keras/add_27:0">
					<dim>256</dim>
				</port>
			</output>
		</layer>
		<layer id="306" name="StatefulPartitionedCall/first_keras/mul_13" type="Multiply" version="opset1">
			<data auto_broadcast="numpy" />
			<input>
				<port id="0" precision="I64">
					<dim>1</dim>
				</port>
				<port id="1" precision="I64">
					<dim>256</dim>
				</port>
			</input>
			<output>
				<port id="2" precision="I64" names="StatefulPartitionedCall/first_keras/mul_13,StatefulPartitionedCall/first_keras/mul_13:0">
					<dim>256</dim>
				</port>
			</output>
		</layer>
		<layer id="307" name="StatefulPartitionedCall/first_keras/GatherV2_40/params" type="Const" version="opset1">
			<data element_type="i64" shape="4194304" offset="318766112" size="33554432" />
			<output>
				<port id="0" precision="I64" names="StatefulPartitionedCall/first_keras/GatherV2_40/params,StatefulPartitionedCall/first_keras/GatherV2_40/params:0">
					<dim>4194304</dim>
				</port>
			</output>
		</layer>
		<layer id="308" name="StatefulPartitionedCall/first_keras/GatherV2_40/axis" type="Const" version="opset1">
			<data element_type="i32" shape="" offset="268444692" size="4" />
			<output>
				<port id="0" precision="I32" names="StatefulPartitionedCall/first_keras/GatherV2_40/axis,StatefulPartitionedCall/first_keras/GatherV2_40/axis:0" />
			</output>
		</layer>
		<layer id="309" name="StatefulPartitionedCall/first_keras/GatherV2_40" type="Gather" version="opset8">
			<data batch_dims="0" />
			<input>
				<port id="0" precision="I64">
					<dim>4194304</dim>
				</port>
				<port id="1" precision="I64">
					<dim>256</dim>
				</port>
				<port id="2" precision="I32" />
			</input>
			<output>
				<port id="3" precision="I64" names="StatefulPartitionedCall/first_keras/GatherV2_40,StatefulPartitionedCall/first_keras/GatherV2_40:0">
					<dim>256</dim>
				</port>
			</output>
		</layer>
		<layer id="310" name="Concat_1694" type="Const" version="opset1">
			<data element_type="i32" shape="2" offset="268444696" size="8" />
			<output>
				<port id="0" precision="I32" names="StatefulPartitionedCall/first_keras/Reshape_27/shape,StatefulPartitionedCall/first_keras/Reshape_27/shape:0">
					<dim>2</dim>
				</port>
			</output>
		</layer>
		<layer id="311" name="StatefulPartitionedCall/first_keras/Reshape_27" type="Reshape" version="opset1">
			<data special_zero="false" />
			<input>
				<port id="0" precision="I64">
					<dim>256</dim>
				</port>
				<port id="1" precision="I32">
					<dim>2</dim>
				</port>
			</input>
			<output>
				<port id="2" precision="I64" names="StatefulPartitionedCall/first_keras/Reshape_27,StatefulPartitionedCall/first_keras/Reshape_27:0">
					<dim>1</dim>
					<dim>256</dim>
				</port>
			</output>
		</layer>
		<layer id="312" name="StatefulPartitionedCall/first_keras/GatherV2_41/axis" type="Const" version="opset1">
			<data element_type="i32" shape="" offset="268437512" size="4" />
			<output>
				<port id="0" precision="I32" names="StatefulPartitionedCall/first_keras/GatherV2_41/axis,StatefulPartitionedCall/first_keras/GatherV2_41/axis:0" />
			</output>
		</layer>
		<layer id="313" name="StatefulPartitionedCall/first_keras/GatherV2_41" type="Gather" version="opset8">
			<data batch_dims="0" />
			<input>
				<port id="0" precision="FP32">
					<dim>1</dim>
					<dim>8</dim>
				</port>
				<port id="1" precision="I64">
					<dim>1</dim>
					<dim>256</dim>
				</port>
				<port id="2" precision="I32" />
			</input>
			<output>
				<port id="3" precision="FP32" names="StatefulPartitionedCall/first_keras/GatherV2_41,StatefulPartitionedCall/first_keras/GatherV2_41:0">
					<dim>1</dim>
					<dim>1</dim>
					<dim>256</dim>
				</port>
			</output>
		</layer>
		<layer id="314" name="Constant_3269" type="Const" version="opset1">
			<data element_type="i64" shape="1" offset="268440588" size="8" />
			<output>
				<port id="0" precision="I64">
					<dim>1</dim>
				</port>
			</output>
		</layer>
		<layer id="315" name="StatefulPartitionedCall/first_keras/Reshape_28" type="Reshape" version="opset1">
			<data special_zero="false" />
			<input>
				<port id="0" precision="FP32">
					<dim>1</dim>
					<dim>1</dim>
					<dim>256</dim>
				</port>
				<port id="1" precision="I64">
					<dim>1</dim>
				</port>
			</input>
			<output>
				<port id="2" precision="FP32" names="StatefulPartitionedCall/first_keras/Reshape_28,StatefulPartitionedCall/first_keras/Reshape_28:0">
					<dim>256</dim>
				</port>
			</output>
		</layer>
		<layer id="316" name="StatefulPartitionedCall/first_keras/GatherV2_42/params" type="Const" version="opset1">
			<data element_type="f32" shape="4194304" offset="352320544" size="16777216" />
			<output>
				<port id="0" precision="FP32" names="StatefulPartitionedCall/first_keras/GatherV2_42/params,StatefulPartitionedCall/first_keras/GatherV2_42/params:0">
					<dim>4194304</dim>
				</port>
			</output>
		</layer>
		<layer id="317" name="StatefulPartitionedCall/first_keras/GatherV2_42/axis" type="Const" version="opset1">
			<data element_type="i32" shape="" offset="268444692" size="4" />
			<output>
				<port id="0" precision="I32" names="StatefulPartitionedCall/first_keras/GatherV2_42/axis,StatefulPartitionedCall/first_keras/GatherV2_42/axis:0" />
			</output>
		</layer>
		<layer id="318" name="StatefulPartitionedCall/first_keras/GatherV2_42" type="Gather" version="opset8">
			<data batch_dims="0" />
			<input>
				<port id="0" precision="FP32">
					<dim>4194304</dim>
				</port>
				<port id="1" precision="I64">
					<dim>256</dim>
				</port>
				<port id="2" precision="I32" />
			</input>
			<output>
				<port id="3" precision="FP32" names="StatefulPartitionedCall/first_keras/GatherV2_42,StatefulPartitionedCall/first_keras/GatherV2_42:0">
					<dim>256</dim>
				</port>
			</output>
		</layer>
		<layer id="319" name="StatefulPartitionedCall/first_keras/Less_14" type="Less" version="opset1">
			<data auto_broadcast="numpy" />
			<input>
				<port id="0" precision="FP32">
					<dim>256</dim>
				</port>
				<port id="1" precision="FP32">
					<dim>256</dim>
				</port>
			</input>
			<output>
				<port id="2" precision="BOOL" names="StatefulPartitionedCall/first_keras/Less_14,StatefulPartitionedCall/first_keras/Less_14:0">
					<dim>256</dim>
				</port>
			</output>
		</layer>
		<layer id="320" name="StatefulPartitionedCall/first_keras/Cast_56" type="Convert" version="opset1">
			<data destination_type="f32" />
			<input>
				<port id="0" precision="BOOL">
					<dim>256</dim>
				</port>
			</input>
			<output>
				<port id="1" precision="FP32" names="StatefulPartitionedCall/first_keras/Cast_56,StatefulPartitionedCall/first_keras/Cast_56:0">
					<dim>256</dim>
				</port>
			</output>
		</layer>
		<layer id="321" name="StatefulPartitionedCall/first_keras/Equal_14" type="Equal" version="opset1">
			<data auto_broadcast="numpy" />
			<input>
				<port id="0" precision="FP32">
					<dim>256</dim>
				</port>
				<port id="1" precision="FP32">
					<dim>256</dim>
				</port>
			</input>
			<output>
				<port id="2" precision="BOOL" names="StatefulPartitionedCall/first_keras/Equal_14,StatefulPartitionedCall/first_keras/Equal_14:0">
					<dim>256</dim>
				</port>
			</output>
		</layer>
		<layer id="322" name="StatefulPartitionedCall/first_keras/Cast_57" type="Convert" version="opset1">
			<data destination_type="f32" />
			<input>
				<port id="0" precision="BOOL">
					<dim>256</dim>
				</port>
			</input>
			<output>
				<port id="1" precision="FP32" names="StatefulPartitionedCall/first_keras/Cast_57,StatefulPartitionedCall/first_keras/Cast_57:0">
					<dim>256</dim>
				</port>
			</output>
		</layer>
		<layer id="323" name="StatefulPartitionedCall/first_keras/Add_28" type="Add" version="opset1">
			<data auto_broadcast="numpy" />
			<input>
				<port id="0" precision="FP32">
					<dim>256</dim>
				</port>
				<port id="1" precision="FP32">
					<dim>256</dim>
				</port>
			</input>
			<output>
				<port id="2" precision="FP32" names="StatefulPartitionedCall/first_keras/Add_28,StatefulPartitionedCall/first_keras/Add_28:0">
					<dim>256</dim>
				</port>
			</output>
		</layer>
		<layer id="324" name="StatefulPartitionedCall/first_keras/Cast_58" type="Convert" version="opset1">
			<data destination_type="boolean" />
			<input>
				<port id="0" precision="FP32">
					<dim>256</dim>
				</port>
			</input>
			<output>
				<port id="1" precision="BOOL" names="StatefulPartitionedCall/first_keras/Cast_58,StatefulPartitionedCall/first_keras/Cast_58:0">
					<dim>256</dim>
				</port>
			</output>
		</layer>
		<layer id="325" name="StatefulPartitionedCall/first_keras/Cast_59" type="Convert" version="opset1">
			<data destination_type="i64" />
			<input>
				<port id="0" precision="BOOL">
					<dim>256</dim>
				</port>
			</input>
			<output>
				<port id="1" precision="I64" names="StatefulPartitionedCall/first_keras/Cast_59,StatefulPartitionedCall/first_keras/Cast_59:0">
					<dim>256</dim>
				</port>
			</output>
		</layer>
		<layer id="326" name="StatefulPartitionedCall/first_keras/add_29" type="Add" version="opset1">
			<data auto_broadcast="numpy" />
			<input>
				<port id="0" precision="I64">
					<dim>256</dim>
				</port>
				<port id="1" precision="I64">
					<dim>256</dim>
				</port>
			</input>
			<output>
				<port id="2" precision="I64" names="StatefulPartitionedCall/first_keras/add_29,StatefulPartitionedCall/first_keras/add_29:0">
					<dim>256</dim>
				</port>
			</output>
		</layer>
		<layer id="327" name="StatefulPartitionedCall/first_keras/mul_14" type="Multiply" version="opset1">
			<data auto_broadcast="numpy" />
			<input>
				<port id="0" precision="I64">
					<dim>1</dim>
				</port>
				<port id="1" precision="I64">
					<dim>256</dim>
				</port>
			</input>
			<output>
				<port id="2" precision="I64" names="StatefulPartitionedCall/first_keras/mul_14,StatefulPartitionedCall/first_keras/mul_14:0">
					<dim>256</dim>
				</port>
			</output>
		</layer>
		<layer id="328" name="StatefulPartitionedCall/first_keras/GatherV2_43/params" type="Const" version="opset1">
			<data element_type="i64" shape="8388608" offset="369097760" size="67108864" />
			<output>
				<port id="0" precision="I64" names="StatefulPartitionedCall/first_keras/GatherV2_43/params,StatefulPartitionedCall/first_keras/GatherV2_43/params:0">
					<dim>8388608</dim>
				</port>
			</output>
		</layer>
		<layer id="329" name="StatefulPartitionedCall/first_keras/GatherV2_43/axis" type="Const" version="opset1">
			<data element_type="i32" shape="" offset="268444692" size="4" />
			<output>
				<port id="0" precision="I32" names="StatefulPartitionedCall/first_keras/GatherV2_43/axis,StatefulPartitionedCall/first_keras/GatherV2_43/axis:0" />
			</output>
		</layer>
		<layer id="330" name="StatefulPartitionedCall/first_keras/GatherV2_43" type="Gather" version="opset8">
			<data batch_dims="0" />
			<input>
				<port id="0" precision="I64">
					<dim>8388608</dim>
				</port>
				<port id="1" precision="I64">
					<dim>256</dim>
				</port>
				<port id="2" precision="I32" />
			</input>
			<output>
				<port id="3" precision="I64" names="StatefulPartitionedCall/first_keras/GatherV2_43,StatefulPartitionedCall/first_keras/GatherV2_43:0">
					<dim>256</dim>
				</port>
			</output>
		</layer>
		<layer id="331" name="Concat_1743" type="Const" version="opset1">
			<data element_type="i32" shape="2" offset="268444696" size="8" />
			<output>
				<port id="0" precision="I32" names="StatefulPartitionedCall/first_keras/Reshape_29/shape,StatefulPartitionedCall/first_keras/Reshape_29/shape:0">
					<dim>2</dim>
				</port>
			</output>
		</layer>
		<layer id="332" name="StatefulPartitionedCall/first_keras/Reshape_29" type="Reshape" version="opset1">
			<data special_zero="false" />
			<input>
				<port id="0" precision="I64">
					<dim>256</dim>
				</port>
				<port id="1" precision="I32">
					<dim>2</dim>
				</port>
			</input>
			<output>
				<port id="2" precision="I64" names="StatefulPartitionedCall/first_keras/Reshape_29,StatefulPartitionedCall/first_keras/Reshape_29:0">
					<dim>1</dim>
					<dim>256</dim>
				</port>
			</output>
		</layer>
		<layer id="333" name="StatefulPartitionedCall/first_keras/GatherV2_44/axis" type="Const" version="opset1">
			<data element_type="i32" shape="" offset="268437512" size="4" />
			<output>
				<port id="0" precision="I32" names="StatefulPartitionedCall/first_keras/GatherV2_44/axis,StatefulPartitionedCall/first_keras/GatherV2_44/axis:0" />
			</output>
		</layer>
		<layer id="334" name="StatefulPartitionedCall/first_keras/GatherV2_44" type="Gather" version="opset8">
			<data batch_dims="0" />
			<input>
				<port id="0" precision="FP32">
					<dim>1</dim>
					<dim>8</dim>
				</port>
				<port id="1" precision="I64">
					<dim>1</dim>
					<dim>256</dim>
				</port>
				<port id="2" precision="I32" />
			</input>
			<output>
				<port id="3" precision="FP32" names="StatefulPartitionedCall/first_keras/GatherV2_44,StatefulPartitionedCall/first_keras/GatherV2_44:0">
					<dim>1</dim>
					<dim>1</dim>
					<dim>256</dim>
				</port>
			</output>
		</layer>
		<layer id="335" name="Constant_3270" type="Const" version="opset1">
			<data element_type="i64" shape="1" offset="268440588" size="8" />
			<output>
				<port id="0" precision="I64">
					<dim>1</dim>
				</port>
			</output>
		</layer>
		<layer id="336" name="StatefulPartitionedCall/first_keras/Reshape_30" type="Reshape" version="opset1">
			<data special_zero="false" />
			<input>
				<port id="0" precision="FP32">
					<dim>1</dim>
					<dim>1</dim>
					<dim>256</dim>
				</port>
				<port id="1" precision="I64">
					<dim>1</dim>
				</port>
			</input>
			<output>
				<port id="2" precision="FP32" names="StatefulPartitionedCall/first_keras/Reshape_30,StatefulPartitionedCall/first_keras/Reshape_30:0">
					<dim>256</dim>
				</port>
			</output>
		</layer>
		<layer id="337" name="StatefulPartitionedCall/first_keras/GatherV2_45/params" type="Const" version="opset1">
			<data element_type="f32" shape="8388608" offset="436206624" size="33554432" />
			<output>
				<port id="0" precision="FP32" names="StatefulPartitionedCall/first_keras/GatherV2_45/params,StatefulPartitionedCall/first_keras/GatherV2_45/params:0">
					<dim>8388608</dim>
				</port>
			</output>
		</layer>
		<layer id="338" name="StatefulPartitionedCall/first_keras/GatherV2_45/axis" type="Const" version="opset1">
			<data element_type="i32" shape="" offset="268444692" size="4" />
			<output>
				<port id="0" precision="I32" names="StatefulPartitionedCall/first_keras/GatherV2_45/axis,StatefulPartitionedCall/first_keras/GatherV2_45/axis:0" />
			</output>
		</layer>
		<layer id="339" name="StatefulPartitionedCall/first_keras/GatherV2_45" type="Gather" version="opset8">
			<data batch_dims="0" />
			<input>
				<port id="0" precision="FP32">
					<dim>8388608</dim>
				</port>
				<port id="1" precision="I64">
					<dim>256</dim>
				</port>
				<port id="2" precision="I32" />
			</input>
			<output>
				<port id="3" precision="FP32" names="StatefulPartitionedCall/first_keras/GatherV2_45,StatefulPartitionedCall/first_keras/GatherV2_45:0">
					<dim>256</dim>
				</port>
			</output>
		</layer>
		<layer id="340" name="StatefulPartitionedCall/first_keras/Less_15" type="Less" version="opset1">
			<data auto_broadcast="numpy" />
			<input>
				<port id="0" precision="FP32">
					<dim>256</dim>
				</port>
				<port id="1" precision="FP32">
					<dim>256</dim>
				</port>
			</input>
			<output>
				<port id="2" precision="BOOL" names="StatefulPartitionedCall/first_keras/Less_15,StatefulPartitionedCall/first_keras/Less_15:0">
					<dim>256</dim>
				</port>
			</output>
		</layer>
		<layer id="341" name="StatefulPartitionedCall/first_keras/Cast_60" type="Convert" version="opset1">
			<data destination_type="f32" />
			<input>
				<port id="0" precision="BOOL">
					<dim>256</dim>
				</port>
			</input>
			<output>
				<port id="1" precision="FP32" names="StatefulPartitionedCall/first_keras/Cast_60,StatefulPartitionedCall/first_keras/Cast_60:0">
					<dim>256</dim>
				</port>
			</output>
		</layer>
		<layer id="342" name="StatefulPartitionedCall/first_keras/Equal_15" type="Equal" version="opset1">
			<data auto_broadcast="numpy" />
			<input>
				<port id="0" precision="FP32">
					<dim>256</dim>
				</port>
				<port id="1" precision="FP32">
					<dim>256</dim>
				</port>
			</input>
			<output>
				<port id="2" precision="BOOL" names="StatefulPartitionedCall/first_keras/Equal_15,StatefulPartitionedCall/first_keras/Equal_15:0">
					<dim>256</dim>
				</port>
			</output>
		</layer>
		<layer id="343" name="StatefulPartitionedCall/first_keras/Cast_61" type="Convert" version="opset1">
			<data destination_type="f32" />
			<input>
				<port id="0" precision="BOOL">
					<dim>256</dim>
				</port>
			</input>
			<output>
				<port id="1" precision="FP32" names="StatefulPartitionedCall/first_keras/Cast_61,StatefulPartitionedCall/first_keras/Cast_61:0">
					<dim>256</dim>
				</port>
			</output>
		</layer>
		<layer id="344" name="StatefulPartitionedCall/first_keras/Add_30" type="Add" version="opset1">
			<data auto_broadcast="numpy" />
			<input>
				<port id="0" precision="FP32">
					<dim>256</dim>
				</port>
				<port id="1" precision="FP32">
					<dim>256</dim>
				</port>
			</input>
			<output>
				<port id="2" precision="FP32" names="StatefulPartitionedCall/first_keras/Add_30,StatefulPartitionedCall/first_keras/Add_30:0">
					<dim>256</dim>
				</port>
			</output>
		</layer>
		<layer id="345" name="StatefulPartitionedCall/first_keras/Cast_62" type="Convert" version="opset1">
			<data destination_type="boolean" />
			<input>
				<port id="0" precision="FP32">
					<dim>256</dim>
				</port>
			</input>
			<output>
				<port id="1" precision="BOOL" names="StatefulPartitionedCall/first_keras/Cast_62,StatefulPartitionedCall/first_keras/Cast_62:0">
					<dim>256</dim>
				</port>
			</output>
		</layer>
		<layer id="346" name="StatefulPartitionedCall/first_keras/Cast_63" type="Convert" version="opset1">
			<data destination_type="i64" />
			<input>
				<port id="0" precision="BOOL">
					<dim>256</dim>
				</port>
			</input>
			<output>
				<port id="1" precision="I64" names="StatefulPartitionedCall/first_keras/Cast_63,StatefulPartitionedCall/first_keras/Cast_63:0">
					<dim>256</dim>
				</port>
			</output>
		</layer>
		<layer id="347" name="StatefulPartitionedCall/first_keras/add_31" type="Add" version="opset1">
			<data auto_broadcast="numpy" />
			<input>
				<port id="0" precision="I64">
					<dim>256</dim>
				</port>
				<port id="1" precision="I64">
					<dim>256</dim>
				</port>
			</input>
			<output>
				<port id="2" precision="I64" names="StatefulPartitionedCall/first_keras/add_31,StatefulPartitionedCall/first_keras/add_31:0">
					<dim>256</dim>
				</port>
			</output>
		</layer>
		<layer id="348" name="StatefulPartitionedCall/first_keras/Gather/axis" type="Const" version="opset1">
			<data element_type="i64" shape="" offset="469761056" size="8" />
			<output>
				<port id="0" precision="I64" names="StatefulPartitionedCall/first_keras/Gather/axis,StatefulPartitionedCall/first_keras/Gather/axis:0" />
			</output>
		</layer>
		<layer id="349" name="StatefulPartitionedCall/first_keras/Gather" type="Gather" version="opset8">
			<data batch_dims="0" />
			<input>
				<port id="0" precision="FP32">
					<dim>16777216</dim>
					<dim>4</dim>
				</port>
				<port id="1" precision="I64">
					<dim>256</dim>
				</port>
				<port id="2" precision="I64" />
			</input>
			<output>
				<port id="3" precision="FP32" names="StatefulPartitionedCall/first_keras/Gather,StatefulPartitionedCall/first_keras/Gather:0,StatefulPartitionedCall/first_keras/Identity,StatefulPartitionedCall/first_keras/Identity:0">
					<dim>256</dim>
					<dim>4</dim>
				</port>
			</output>
		</layer>
		<layer id="350" name="Concat_1796" type="Const" version="opset1">
			<data element_type="i32" shape="3" offset="469761064" size="12" />
			<output>
				<port id="0" precision="I32" names="StatefulPartitionedCall/first_keras/Reshape_31/shape,StatefulPartitionedCall/first_keras/Reshape_31/shape:0">
					<dim>3</dim>
				</port>
			</output>
		</layer>
		<layer id="351" name="StatefulPartitionedCall/first_keras/Reshape_31" type="Reshape" version="opset1">
			<data special_zero="false" />
			<input>
				<port id="0" precision="FP32">
					<dim>256</dim>
					<dim>4</dim>
				</port>
				<port id="1" precision="I32">
					<dim>3</dim>
				</port>
			</input>
			<output>
				<port id="2" precision="FP32" names="StatefulPartitionedCall/first_keras/Reshape_31,StatefulPartitionedCall/first_keras/Reshape_31:0">
					<dim>1</dim>
					<dim>256</dim>
					<dim>4</dim>
				</port>
			</output>
		</layer>
		<layer id="352" name="StatefulPartitionedCall/first_keras/Sum/reduction_indices" type="Const" version="opset1">
			<data element_type="i32" shape="" offset="268437512" size="4" />
			<output>
				<port id="0" precision="I32" names="StatefulPartitionedCall/first_keras/Sum/reduction_indices,StatefulPartitionedCall/first_keras/Sum/reduction_indices:0" />
			</output>
		</layer>
		<layer id="353" name="StatefulPartitionedCall/first_keras/Sum" type="ReduceSum" version="opset1">
			<data keep_dims="false" />
			<input>
				<port id="0" precision="FP32">
					<dim>1</dim>
					<dim>256</dim>
					<dim>4</dim>
				</port>
				<port id="1" precision="I32" />
			</input>
			<output>
				<port id="2" precision="FP32" names="Func/StatefulPartitionedCall/output/_7,Func/StatefulPartitionedCall/output/_7:0,Identity,Identity:0,StatefulPartitionedCall/Identity,StatefulPartitionedCall/Identity:0,StatefulPartitionedCall/first_keras/Sum,StatefulPartitionedCall/first_keras/Sum:0">
					<dim>1</dim>
					<dim>4</dim>
				</port>
			</output>
		</layer>
		<layer id="354" name="Identity" type="Result" version="opset1">
			<input>
				<port id="0" precision="FP32">
					<dim>1</dim>
					<dim>4</dim>
				</port>
			</input>
		</layer>
	</layers>
	<edges>
		<edge from-layer="0" from-port="0" to-layer="313" to-port="0" />
		<edge from-layer="0" from-port="0" to-layer="40" to-port="0" />
		<edge from-layer="0" from-port="0" to-layer="145" to-port="0" />
		<edge from-layer="0" from-port="0" to-layer="124" to-port="0" />
		<edge from-layer="0" from-port="0" to-layer="166" to-port="0" />
		<edge from-layer="0" from-port="0" to-layer="103" to-port="0" />
		<edge from-layer="0" from-port="0" to-layer="187" to-port="0" />
		<edge from-layer="0" from-port="0" to-layer="82" to-port="0" />
		<edge from-layer="0" from-port="0" to-layer="19" to-port="0" />
		<edge from-layer="0" from-port="0" to-layer="334" to-port="0" />
		<edge from-layer="0" from-port="0" to-layer="292" to-port="0" />
		<edge from-layer="0" from-port="0" to-layer="271" to-port="0" />
		<edge from-layer="0" from-port="0" to-layer="250" to-port="0" />
		<edge from-layer="0" from-port="0" to-layer="229" to-port="0" />
		<edge from-layer="0" from-port="0" to-layer="208" to-port="0" />
		<edge from-layer="0" from-port="0" to-layer="61" to-port="0" />
		<edge from-layer="1" from-port="0" to-layer="349" to-port="0" />
		<edge from-layer="2" from-port="0" to-layer="327" to-port="0" />
		<edge from-layer="3" from-port="0" to-layer="306" to-port="0" />
		<edge from-layer="4" from-port="0" to-layer="285" to-port="0" />
		<edge from-layer="5" from-port="0" to-layer="264" to-port="0" />
		<edge from-layer="6" from-port="0" to-layer="243" to-port="0" />
		<edge from-layer="7" from-port="0" to-layer="222" to-port="0" />
		<edge from-layer="8" from-port="0" to-layer="201" to-port="0" />
		<edge from-layer="9" from-port="0" to-layer="180" to-port="0" />
		<edge from-layer="10" from-port="0" to-layer="159" to-port="0" />
		<edge from-layer="11" from-port="0" to-layer="138" to-port="0" />
		<edge from-layer="12" from-port="0" to-layer="117" to-port="0" />
		<edge from-layer="13" from-port="0" to-layer="96" to-port="0" />
		<edge from-layer="14" from-port="0" to-layer="75" to-port="0" />
		<edge from-layer="15" from-port="0" to-layer="54" to-port="0" />
		<edge from-layer="16" from-port="0" to-layer="33" to-port="0" />
		<edge from-layer="17" from-port="0" to-layer="19" to-port="1" />
		<edge from-layer="18" from-port="0" to-layer="19" to-port="2" />
		<edge from-layer="19" from-port="3" to-layer="21" to-port="0" />
		<edge from-layer="19" from-port="3" to-layer="24" to-port="0" />
		<edge from-layer="20" from-port="0" to-layer="21" to-port="1" />
		<edge from-layer="21" from-port="2" to-layer="22" to-port="0" />
		<edge from-layer="22" from-port="1" to-layer="26" to-port="0" />
		<edge from-layer="23" from-port="0" to-layer="24" to-port="1" />
		<edge from-layer="24" from-port="2" to-layer="25" to-port="0" />
		<edge from-layer="25" from-port="1" to-layer="26" to-port="1" />
		<edge from-layer="26" from-port="2" to-layer="27" to-port="0" />
		<edge from-layer="27" from-port="1" to-layer="28" to-port="0" />
		<edge from-layer="28" from-port="1" to-layer="30" to-port="0" />
		<edge from-layer="29" from-port="0" to-layer="30" to-port="1" />
		<edge from-layer="30" from-port="2" to-layer="32" to-port="0" />
		<edge from-layer="31" from-port="0" to-layer="32" to-port="1" />
		<edge from-layer="32" from-port="2" to-layer="45" to-port="1" />
		<edge from-layer="32" from-port="2" to-layer="33" to-port="1" />
		<edge from-layer="32" from-port="2" to-layer="36" to-port="1" />
		<edge from-layer="33" from-port="2" to-layer="53" to-port="0" />
		<edge from-layer="34" from-port="0" to-layer="36" to-port="0" />
		<edge from-layer="35" from-port="0" to-layer="36" to-port="2" />
		<edge from-layer="36" from-port="3" to-layer="38" to-port="0" />
		<edge from-layer="37" from-port="0" to-layer="38" to-port="1" />
		<edge from-layer="38" from-port="2" to-layer="40" to-port="1" />
		<edge from-layer="39" from-port="0" to-layer="40" to-port="2" />
		<edge from-layer="40" from-port="3" to-layer="42" to-port="0" />
		<edge from-layer="41" from-port="0" to-layer="42" to-port="1" />
		<edge from-layer="42" from-port="2" to-layer="48" to-port="0" />
		<edge from-layer="42" from-port="2" to-layer="46" to-port="0" />
		<edge from-layer="43" from-port="0" to-layer="45" to-port="0" />
		<edge from-layer="44" from-port="0" to-layer="45" to-port="2" />
		<edge from-layer="45" from-port="3" to-layer="46" to-port="1" />
		<edge from-layer="45" from-port="3" to-layer="48" to-port="1" />
		<edge from-layer="46" from-port="2" to-layer="47" to-port="0" />
		<edge from-layer="47" from-port="1" to-layer="50" to-port="0" />
		<edge from-layer="48" from-port="2" to-layer="49" to-port="0" />
		<edge from-layer="49" from-port="1" to-layer="50" to-port="1" />
		<edge from-layer="50" from-port="2" to-layer="51" to-port="0" />
		<edge from-layer="51" from-port="1" to-layer="52" to-port="0" />
		<edge from-layer="52" from-port="1" to-layer="53" to-port="1" />
		<edge from-layer="53" from-port="2" to-layer="57" to-port="1" />
		<edge from-layer="53" from-port="2" to-layer="54" to-port="1" />
		<edge from-layer="53" from-port="2" to-layer="66" to-port="1" />
		<edge from-layer="54" from-port="2" to-layer="74" to-port="0" />
		<edge from-layer="55" from-port="0" to-layer="57" to-port="0" />
		<edge from-layer="56" from-port="0" to-layer="57" to-port="2" />
		<edge from-layer="57" from-port="3" to-layer="59" to-port="0" />
		<edge from-layer="58" from-port="0" to-layer="59" to-port="1" />
		<edge from-layer="59" from-port="2" to-layer="61" to-port="1" />
		<edge from-layer="60" from-port="0" to-layer="61" to-port="2" />
		<edge from-layer="61" from-port="3" to-layer="63" to-port="0" />
		<edge from-layer="62" from-port="0" to-layer="63" to-port="1" />
		<edge from-layer="63" from-port="2" to-layer="69" to-port="0" />
		<edge from-layer="63" from-port="2" to-layer="67" to-port="0" />
		<edge from-layer="64" from-port="0" to-layer="66" to-port="0" />
		<edge from-layer="65" from-port="0" to-layer="66" to-port="2" />
		<edge from-layer="66" from-port="3" to-layer="67" to-port="1" />
		<edge from-layer="66" from-port="3" to-layer="69" to-port="1" />
		<edge from-layer="67" from-port="2" to-layer="68" to-port="0" />
		<edge from-layer="68" from-port="1" to-layer="71" to-port="0" />
		<edge from-layer="69" from-port="2" to-layer="70" to-port="0" />
		<edge from-layer="70" from-port="1" to-layer="71" to-port="1" />
		<edge from-layer="71" from-port="2" to-layer="72" to-port="0" />
		<edge from-layer="72" from-port="1" to-layer="73" to-port="0" />
		<edge from-layer="73" from-port="1" to-layer="74" to-port="1" />
		<edge from-layer="74" from-port="2" to-layer="75" to-port="1" />
		<edge from-layer="74" from-port="2" to-layer="78" to-port="1" />
		<edge from-layer="74" from-port="2" to-layer="87" to-port="1" />
		<edge from-layer="75" from-port="2" to-layer="95" to-port="0" />
		<edge from-layer="76" from-port="0" to-layer="78" to-port="0" />
		<edge from-layer="77" from-port="0" to-layer="78" to-port="2" />
		<edge from-layer="78" from-port="3" to-layer="80" to-port="0" />
		<edge from-layer="79" from-port="0" to-layer="80" to-port="1" />
		<edge from-layer="80" from-port="2" to-layer="82" to-port="1" />
		<edge from-layer="81" from-port="0" to-layer="82" to-port="2" />
		<edge from-layer="82" from-port="3" to-layer="84" to-port="0" />
		<edge from-layer="83" from-port="0" to-layer="84" to-port="1" />
		<edge from-layer="84" from-port="2" to-layer="88" to-port="0" />
		<edge from-layer="84" from-port="2" to-layer="90" to-port="0" />
		<edge from-layer="85" from-port="0" to-layer="87" to-port="0" />
		<edge from-layer="86" from-port="0" to-layer="87" to-port="2" />
		<edge from-layer="87" from-port="3" to-layer="90" to-port="1" />
		<edge from-layer="87" from-port="3" to-layer="88" to-port="1" />
		<edge from-layer="88" from-port="2" to-layer="89" to-port="0" />
		<edge from-layer="89" from-port="1" to-layer="92" to-port="0" />
		<edge from-layer="90" from-port="2" to-layer="91" to-port="0" />
		<edge from-layer="91" from-port="1" to-layer="92" to-port="1" />
		<edge from-layer="92" from-port="2" to-layer="93" to-port="0" />
		<edge from-layer="93" from-port="1" to-layer="94" to-port="0" />
		<edge from-layer="94" from-port="1" to-layer="95" to-port="1" />
		<edge from-layer="95" from-port="2" to-layer="108" to-port="1" />
		<edge from-layer="95" from-port="2" to-layer="99" to-port="1" />
		<edge from-layer="95" from-port="2" to-layer="96" to-port="1" />
		<edge from-layer="96" from-port="2" to-layer="116" to-port="0" />
		<edge from-layer="97" from-port="0" to-layer="99" to-port="0" />
		<edge from-layer="98" from-port="0" to-layer="99" to-port="2" />
		<edge from-layer="99" from-port="3" to-layer="101" to-port="0" />
		<edge from-layer="100" from-port="0" to-layer="101" to-port="1" />
		<edge from-layer="101" from-port="2" to-layer="103" to-port="1" />
		<edge from-layer="102" from-port="0" to-layer="103" to-port="2" />
		<edge from-layer="103" from-port="3" to-layer="105" to-port="0" />
		<edge from-layer="104" from-port="0" to-layer="105" to-port="1" />
		<edge from-layer="105" from-port="2" to-layer="111" to-port="0" />
		<edge from-layer="105" from-port="2" to-layer="109" to-port="0" />
		<edge from-layer="106" from-port="0" to-layer="108" to-port="0" />
		<edge from-layer="107" from-port="0" to-layer="108" to-port="2" />
		<edge from-layer="108" from-port="3" to-layer="109" to-port="1" />
		<edge from-layer="108" from-port="3" to-layer="111" to-port="1" />
		<edge from-layer="109" from-port="2" to-layer="110" to-port="0" />
		<edge from-layer="110" from-port="1" to-layer="113" to-port="0" />
		<edge from-layer="111" from-port="2" to-layer="112" to-port="0" />
		<edge from-layer="112" from-port="1" to-layer="113" to-port="1" />
		<edge from-layer="113" from-port="2" to-layer="114" to-port="0" />
		<edge from-layer="114" from-port="1" to-layer="115" to-port="0" />
		<edge from-layer="115" from-port="1" to-layer="116" to-port="1" />
		<edge from-layer="116" from-port="2" to-layer="117" to-port="1" />
		<edge from-layer="116" from-port="2" to-layer="120" to-port="1" />
		<edge from-layer="116" from-port="2" to-layer="129" to-port="1" />
		<edge from-layer="117" from-port="2" to-layer="137" to-port="0" />
		<edge from-layer="118" from-port="0" to-layer="120" to-port="0" />
		<edge from-layer="119" from-port="0" to-layer="120" to-port="2" />
		<edge from-layer="120" from-port="3" to-layer="122" to-port="0" />
		<edge from-layer="121" from-port="0" to-layer="122" to-port="1" />
		<edge from-layer="122" from-port="2" to-layer="124" to-port="1" />
		<edge from-layer="123" from-port="0" to-layer="124" to-port="2" />
		<edge from-layer="124" from-port="3" to-layer="126" to-port="0" />
		<edge from-layer="125" from-port="0" to-layer="126" to-port="1" />
		<edge from-layer="126" from-port="2" to-layer="132" to-port="0" />
		<edge from-layer="126" from-port="2" to-layer="130" to-port="0" />
		<edge from-layer="127" from-port="0" to-layer="129" to-port="0" />
		<edge from-layer="128" from-port="0" to-layer="129" to-port="2" />
		<edge from-layer="129" from-port="3" to-layer="132" to-port="1" />
		<edge from-layer="129" from-port="3" to-layer="130" to-port="1" />
		<edge from-layer="130" from-port="2" to-layer="131" to-port="0" />
		<edge from-layer="131" from-port="1" to-layer="134" to-port="0" />
		<edge from-layer="132" from-port="2" to-layer="133" to-port="0" />
		<edge from-layer="133" from-port="1" to-layer="134" to-port="1" />
		<edge from-layer="134" from-port="2" to-layer="135" to-port="0" />
		<edge from-layer="135" from-port="1" to-layer="136" to-port="0" />
		<edge from-layer="136" from-port="1" to-layer="137" to-port="1" />
		<edge from-layer="137" from-port="2" to-layer="141" to-port="1" />
		<edge from-layer="137" from-port="2" to-layer="138" to-port="1" />
		<edge from-layer="137" from-port="2" to-layer="150" to-port="1" />
		<edge from-layer="138" from-port="2" to-layer="158" to-port="0" />
		<edge from-layer="139" from-port="0" to-layer="141" to-port="0" />
		<edge from-layer="140" from-port="0" to-layer="141" to-port="2" />
		<edge from-layer="141" from-port="3" to-layer="143" to-port="0" />
		<edge from-layer="142" from-port="0" to-layer="143" to-port="1" />
		<edge from-layer="143" from-port="2" to-layer="145" to-port="1" />
		<edge from-layer="144" from-port="0" to-layer="145" to-port="2" />
		<edge from-layer="145" from-port="3" to-layer="147" to-port="0" />
		<edge from-layer="146" from-port="0" to-layer="147" to-port="1" />
		<edge from-layer="147" from-port="2" to-layer="151" to-port="0" />
		<edge from-layer="147" from-port="2" to-layer="153" to-port="0" />
		<edge from-layer="148" from-port="0" to-layer="150" to-port="0" />
		<edge from-layer="149" from-port="0" to-layer="150" to-port="2" />
		<edge from-layer="150" from-port="3" to-layer="151" to-port="1" />
		<edge from-layer="150" from-port="3" to-layer="153" to-port="1" />
		<edge from-layer="151" from-port="2" to-layer="152" to-port="0" />
		<edge from-layer="152" from-port="1" to-layer="155" to-port="0" />
		<edge from-layer="153" from-port="2" to-layer="154" to-port="0" />
		<edge from-layer="154" from-port="1" to-layer="155" to-port="1" />
		<edge from-layer="155" from-port="2" to-layer="156" to-port="0" />
		<edge from-layer="156" from-port="1" to-layer="157" to-port="0" />
		<edge from-layer="157" from-port="1" to-layer="158" to-port="1" />
		<edge from-layer="158" from-port="2" to-layer="159" to-port="1" />
		<edge from-layer="158" from-port="2" to-layer="171" to-port="1" />
		<edge from-layer="158" from-port="2" to-layer="162" to-port="1" />
		<edge from-layer="159" from-port="2" to-layer="179" to-port="0" />
		<edge from-layer="160" from-port="0" to-layer="162" to-port="0" />
		<edge from-layer="161" from-port="0" to-layer="162" to-port="2" />
		<edge from-layer="162" from-port="3" to-layer="164" to-port="0" />
		<edge from-layer="163" from-port="0" to-layer="164" to-port="1" />
		<edge from-layer="164" from-port="2" to-layer="166" to-port="1" />
		<edge from-layer="165" from-port="0" to-layer="166" to-port="2" />
		<edge from-layer="166" from-port="3" to-layer="168" to-port="0" />
		<edge from-layer="167" from-port="0" to-layer="168" to-port="1" />
		<edge from-layer="168" from-port="2" to-layer="172" to-port="0" />
		<edge from-layer="168" from-port="2" to-layer="174" to-port="0" />
		<edge from-layer="169" from-port="0" to-layer="171" to-port="0" />
		<edge from-layer="170" from-port="0" to-layer="171" to-port="2" />
		<edge from-layer="171" from-port="3" to-layer="172" to-port="1" />
		<edge from-layer="171" from-port="3" to-layer="174" to-port="1" />
		<edge from-layer="172" from-port="2" to-layer="173" to-port="0" />
		<edge from-layer="173" from-port="1" to-layer="176" to-port="0" />
		<edge from-layer="174" from-port="2" to-layer="175" to-port="0" />
		<edge from-layer="175" from-port="1" to-layer="176" to-port="1" />
		<edge from-layer="176" from-port="2" to-layer="177" to-port="0" />
		<edge from-layer="177" from-port="1" to-layer="178" to-port="0" />
		<edge from-layer="178" from-port="1" to-layer="179" to-port="1" />
		<edge from-layer="179" from-port="2" to-layer="192" to-port="1" />
		<edge from-layer="179" from-port="2" to-layer="183" to-port="1" />
		<edge from-layer="179" from-port="2" to-layer="180" to-port="1" />
		<edge from-layer="180" from-port="2" to-layer="200" to-port="0" />
		<edge from-layer="181" from-port="0" to-layer="183" to-port="0" />
		<edge from-layer="182" from-port="0" to-layer="183" to-port="2" />
		<edge from-layer="183" from-port="3" to-layer="185" to-port="0" />
		<edge from-layer="184" from-port="0" to-layer="185" to-port="1" />
		<edge from-layer="185" from-port="2" to-layer="187" to-port="1" />
		<edge from-layer="186" from-port="0" to-layer="187" to-port="2" />
		<edge from-layer="187" from-port="3" to-layer="189" to-port="0" />
		<edge from-layer="188" from-port="0" to-layer="189" to-port="1" />
		<edge from-layer="189" from-port="2" to-layer="193" to-port="0" />
		<edge from-layer="189" from-port="2" to-layer="195" to-port="0" />
		<edge from-layer="190" from-port="0" to-layer="192" to-port="0" />
		<edge from-layer="191" from-port="0" to-layer="192" to-port="2" />
		<edge from-layer="192" from-port="3" to-layer="193" to-port="1" />
		<edge from-layer="192" from-port="3" to-layer="195" to-port="1" />
		<edge from-layer="193" from-port="2" to-layer="194" to-port="0" />
		<edge from-layer="194" from-port="1" to-layer="197" to-port="0" />
		<edge from-layer="195" from-port="2" to-layer="196" to-port="0" />
		<edge from-layer="196" from-port="1" to-layer="197" to-port="1" />
		<edge from-layer="197" from-port="2" to-layer="198" to-port="0" />
		<edge from-layer="198" from-port="1" to-layer="199" to-port="0" />
		<edge from-layer="199" from-port="1" to-layer="200" to-port="1" />
		<edge from-layer="200" from-port="2" to-layer="201" to-port="1" />
		<edge from-layer="200" from-port="2" to-layer="213" to-port="1" />
		<edge from-layer="200" from-port="2" to-layer="204" to-port="1" />
		<edge from-layer="201" from-port="2" to-layer="221" to-port="0" />
		<edge from-layer="202" from-port="0" to-layer="204" to-port="0" />
		<edge from-layer="203" from-port="0" to-layer="204" to-port="2" />
		<edge from-layer="204" from-port="3" to-layer="206" to-port="0" />
		<edge from-layer="205" from-port="0" to-layer="206" to-port="1" />
		<edge from-layer="206" from-port="2" to-layer="208" to-port="1" />
		<edge from-layer="207" from-port="0" to-layer="208" to-port="2" />
		<edge from-layer="208" from-port="3" to-layer="210" to-port="0" />
		<edge from-layer="209" from-port="0" to-layer="210" to-port="1" />
		<edge from-layer="210" from-port="2" to-layer="214" to-port="0" />
		<edge from-layer="210" from-port="2" to-layer="216" to-port="0" />
		<edge from-layer="211" from-port="0" to-layer="213" to-port="0" />
		<edge from-layer="212" from-port="0" to-layer="213" to-port="2" />
		<edge from-layer="213" from-port="3" to-layer="214" to-port="1" />
		<edge from-layer="213" from-port="3" to-layer="216" to-port="1" />
		<edge from-layer="214" from-port="2" to-layer="215" to-port="0" />
		<edge from-layer="215" from-port="1" to-layer="218" to-port="0" />
		<edge from-layer="216" from-port="2" to-layer="217" to-port="0" />
		<edge from-layer="217" from-port="1" to-layer="218" to-port="1" />
		<edge from-layer="218" from-port="2" to-layer="219" to-port="0" />
		<edge from-layer="219" from-port="1" to-layer="220" to-port="0" />
		<edge from-layer="220" from-port="1" to-layer="221" to-port="1" />
		<edge from-layer="221" from-port="2" to-layer="222" to-port="1" />
		<edge from-layer="221" from-port="2" to-layer="225" to-port="1" />
		<edge from-layer="221" from-port="2" to-layer="234" to-port="1" />
		<edge from-layer="222" from-port="2" to-layer="242" to-port="0" />
		<edge from-layer="223" from-port="0" to-layer="225" to-port="0" />
		<edge from-layer="224" from-port="0" to-layer="225" to-port="2" />
		<edge from-layer="225" from-port="3" to-layer="227" to-port="0" />
		<edge from-layer="226" from-port="0" to-layer="227" to-port="1" />
		<edge from-layer="227" from-port="2" to-layer="229" to-port="1" />
		<edge from-layer="228" from-port="0" to-layer="229" to-port="2" />
		<edge from-layer="229" from-port="3" to-layer="231" to-port="0" />
		<edge from-layer="230" from-port="0" to-layer="231" to-port="1" />
		<edge from-layer="231" from-port="2" to-layer="235" to-port="0" />
		<edge from-layer="231" from-port="2" to-layer="237" to-port="0" />
		<edge from-layer="232" from-port="0" to-layer="234" to-port="0" />
		<edge from-layer="233" from-port="0" to-layer="234" to-port="2" />
		<edge from-layer="234" from-port="3" to-layer="235" to-port="1" />
		<edge from-layer="234" from-port="3" to-layer="237" to-port="1" />
		<edge from-layer="235" from-port="2" to-layer="236" to-port="0" />
		<edge from-layer="236" from-port="1" to-layer="239" to-port="0" />
		<edge from-layer="237" from-port="2" to-layer="238" to-port="0" />
		<edge from-layer="238" from-port="1" to-layer="239" to-port="1" />
		<edge from-layer="239" from-port="2" to-layer="240" to-port="0" />
		<edge from-layer="240" from-port="1" to-layer="241" to-port="0" />
		<edge from-layer="241" from-port="1" to-layer="242" to-port="1" />
		<edge from-layer="242" from-port="2" to-layer="246" to-port="1" />
		<edge from-layer="242" from-port="2" to-layer="243" to-port="1" />
		<edge from-layer="242" from-port="2" to-layer="255" to-port="1" />
		<edge from-layer="243" from-port="2" to-layer="263" to-port="0" />
		<edge from-layer="244" from-port="0" to-layer="246" to-port="0" />
		<edge from-layer="245" from-port="0" to-layer="246" to-port="2" />
		<edge from-layer="246" from-port="3" to-layer="248" to-port="0" />
		<edge from-layer="247" from-port="0" to-layer="248" to-port="1" />
		<edge from-layer="248" from-port="2" to-layer="250" to-port="1" />
		<edge from-layer="249" from-port="0" to-layer="250" to-port="2" />
		<edge from-layer="250" from-port="3" to-layer="252" to-port="0" />
		<edge from-layer="251" from-port="0" to-layer="252" to-port="1" />
		<edge from-layer="252" from-port="2" to-layer="256" to-port="0" />
		<edge from-layer="252" from-port="2" to-layer="258" to-port="0" />
		<edge from-layer="253" from-port="0" to-layer="255" to-port="0" />
		<edge from-layer="254" from-port="0" to-layer="255" to-port="2" />
		<edge from-layer="255" from-port="3" to-layer="256" to-port="1" />
		<edge from-layer="255" from-port="3" to-layer="258" to-port="1" />
		<edge from-layer="256" from-port="2" to-layer="257" to-port="0" />
		<edge from-layer="257" from-port="1" to-layer="260" to-port="0" />
		<edge from-layer="258" from-port="2" to-layer="259" to-port="0" />
		<edge from-layer="259" from-port="1" to-layer="260" to-port="1" />
		<edge from-layer="260" from-port="2" to-layer="261" to-port="0" />
		<edge from-layer="261" from-port="1" to-layer="262" to-port="0" />
		<edge from-layer="262" from-port="1" to-layer="263" to-port="1" />
		<edge from-layer="263" from-port="2" to-layer="264" to-port="1" />
		<edge from-layer="263" from-port="2" to-layer="276" to-port="1" />
		<edge from-layer="263" from-port="2" to-layer="267" to-port="1" />
		<edge from-layer="264" from-port="2" to-layer="284" to-port="0" />
		<edge from-layer="265" from-port="0" to-layer="267" to-port="0" />
		<edge from-layer="266" from-port="0" to-layer="267" to-port="2" />
		<edge from-layer="267" from-port="3" to-layer="269" to-port="0" />
		<edge from-layer="268" from-port="0" to-layer="269" to-port="1" />
		<edge from-layer="269" from-port="2" to-layer="271" to-port="1" />
		<edge from-layer="270" from-port="0" to-layer="271" to-port="2" />
		<edge from-layer="271" from-port="3" to-layer="273" to-port="0" />
		<edge from-layer="272" from-port="0" to-layer="273" to-port="1" />
		<edge from-layer="273" from-port="2" to-layer="279" to-port="0" />
		<edge from-layer="273" from-port="2" to-layer="277" to-port="0" />
		<edge from-layer="274" from-port="0" to-layer="276" to-port="0" />
		<edge from-layer="275" from-port="0" to-layer="276" to-port="2" />
		<edge from-layer="276" from-port="3" to-layer="279" to-port="1" />
		<edge from-layer="276" from-port="3" to-layer="277" to-port="1" />
		<edge from-layer="277" from-port="2" to-layer="278" to-port="0" />
		<edge from-layer="278" from-port="1" to-layer="281" to-port="0" />
		<edge from-layer="279" from-port="2" to-layer="280" to-port="0" />
		<edge from-layer="280" from-port="1" to-layer="281" to-port="1" />
		<edge from-layer="281" from-port="2" to-layer="282" to-port="0" />
		<edge from-layer="282" from-port="1" to-layer="283" to-port="0" />
		<edge from-layer="283" from-port="1" to-layer="284" to-port="1" />
		<edge from-layer="284" from-port="2" to-layer="285" to-port="1" />
		<edge from-layer="284" from-port="2" to-layer="288" to-port="1" />
		<edge from-layer="284" from-port="2" to-layer="297" to-port="1" />
		<edge from-layer="285" from-port="2" to-layer="305" to-port="0" />
		<edge from-layer="286" from-port="0" to-layer="288" to-port="0" />
		<edge from-layer="287" from-port="0" to-layer="288" to-port="2" />
		<edge from-layer="288" from-port="3" to-layer="290" to-port="0" />
		<edge from-layer="289" from-port="0" to-layer="290" to-port="1" />
		<edge from-layer="290" from-port="2" to-layer="292" to-port="1" />
		<edge from-layer="291" from-port="0" to-layer="292" to-port="2" />
		<edge from-layer="292" from-port="3" to-layer="294" to-port="0" />
		<edge from-layer="293" from-port="0" to-layer="294" to-port="1" />
		<edge from-layer="294" from-port="2" to-layer="300" to-port="0" />
		<edge from-layer="294" from-port="2" to-layer="298" to-port="0" />
		<edge from-layer="295" from-port="0" to-layer="297" to-port="0" />
		<edge from-layer="296" from-port="0" to-layer="297" to-port="2" />
		<edge from-layer="297" from-port="3" to-layer="300" to-port="1" />
		<edge from-layer="297" from-port="3" to-layer="298" to-port="1" />
		<edge from-layer="298" from-port="2" to-layer="299" to-port="0" />
		<edge from-layer="299" from-port="1" to-layer="302" to-port="0" />
		<edge from-layer="300" from-port="2" to-layer="301" to-port="0" />
		<edge from-layer="301" from-port="1" to-layer="302" to-port="1" />
		<edge from-layer="302" from-port="2" to-layer="303" to-port="0" />
		<edge from-layer="303" from-port="1" to-layer="304" to-port="0" />
		<edge from-layer="304" from-port="1" to-layer="305" to-port="1" />
		<edge from-layer="305" from-port="2" to-layer="318" to-port="1" />
		<edge from-layer="305" from-port="2" to-layer="306" to-port="1" />
		<edge from-layer="305" from-port="2" to-layer="309" to-port="1" />
		<edge from-layer="306" from-port="2" to-layer="326" to-port="0" />
		<edge from-layer="307" from-port="0" to-layer="309" to-port="0" />
		<edge from-layer="308" from-port="0" to-layer="309" to-port="2" />
		<edge from-layer="309" from-port="3" to-layer="311" to-port="0" />
		<edge from-layer="310" from-port="0" to-layer="311" to-port="1" />
		<edge from-layer="311" from-port="2" to-layer="313" to-port="1" />
		<edge from-layer="312" from-port="0" to-layer="313" to-port="2" />
		<edge from-layer="313" from-port="3" to-layer="315" to-port="0" />
		<edge from-layer="314" from-port="0" to-layer="315" to-port="1" />
		<edge from-layer="315" from-port="2" to-layer="321" to-port="0" />
		<edge from-layer="315" from-port="2" to-layer="319" to-port="0" />
		<edge from-layer="316" from-port="0" to-layer="318" to-port="0" />
		<edge from-layer="317" from-port="0" to-layer="318" to-port="2" />
		<edge from-layer="318" from-port="3" to-layer="321" to-port="1" />
		<edge from-layer="318" from-port="3" to-layer="319" to-port="1" />
		<edge from-layer="319" from-port="2" to-layer="320" to-port="0" />
		<edge from-layer="320" from-port="1" to-layer="323" to-port="0" />
		<edge from-layer="321" from-port="2" to-layer="322" to-port="0" />
		<edge from-layer="322" from-port="1" to-layer="323" to-port="1" />
		<edge from-layer="323" from-port="2" to-layer="324" to-port="0" />
		<edge from-layer="324" from-port="1" to-layer="325" to-port="0" />
		<edge from-layer="325" from-port="1" to-layer="326" to-port="1" />
		<edge from-layer="326" from-port="2" to-layer="339" to-port="1" />
		<edge from-layer="326" from-port="2" to-layer="330" to-port="1" />
		<edge from-layer="326" from-port="2" to-layer="327" to-port="1" />
		<edge from-layer="327" from-port="2" to-layer="347" to-port="0" />
		<edge from-layer="328" from-port="0" to-layer="330" to-port="0" />
		<edge from-layer="329" from-port="0" to-layer="330" to-port="2" />
		<edge from-layer="330" from-port="3" to-layer="332" to-port="0" />
		<edge from-layer="331" from-port="0" to-layer="332" to-port="1" />
		<edge from-layer="332" from-port="2" to-layer="334" to-port="1" />
		<edge from-layer="333" from-port="0" to-layer="334" to-port="2" />
		<edge from-layer="334" from-port="3" to-layer="336" to-port="0" />
		<edge from-layer="335" from-port="0" to-layer="336" to-port="1" />
		<edge from-layer="336" from-port="2" to-layer="340" to-port="0" />
		<edge from-layer="336" from-port="2" to-layer="342" to-port="0" />
		<edge from-layer="337" from-port="0" to-layer="339" to-port="0" />
		<edge from-layer="338" from-port="0" to-layer="339" to-port="2" />
		<edge from-layer="339" from-port="3" to-layer="342" to-port="1" />
		<edge from-layer="339" from-port="3" to-layer="340" to-port="1" />
		<edge from-layer="340" from-port="2" to-layer="341" to-port="0" />
		<edge from-layer="341" from-port="1" to-layer="344" to-port="0" />
		<edge from-layer="342" from-port="2" to-layer="343" to-port="0" />
		<edge from-layer="343" from-port="1" to-layer="344" to-port="1" />
		<edge from-layer="344" from-port="2" to-layer="345" to-port="0" />
		<edge from-layer="345" from-port="1" to-layer="346" to-port="0" />
		<edge from-layer="346" from-port="1" to-layer="347" to-port="1" />
		<edge from-layer="347" from-port="2" to-layer="349" to-port="1" />
		<edge from-layer="348" from-port="0" to-layer="349" to-port="2" />
		<edge from-layer="349" from-port="3" to-layer="351" to-port="0" />
		<edge from-layer="350" from-port="0" to-layer="351" to-port="1" />
		<edge from-layer="351" from-port="2" to-layer="353" to-port="0" />
		<edge from-layer="352" from-port="0" to-layer="353" to-port="1" />
		<edge from-layer="353" from-port="2" to-layer="354" to-port="0" />
	</edges>
	<rt_info>
		<MO_version value="2022.3.0-9052-9752fafe8eb-releases/2022/3" />
		<Runtime_version value="2022.3.0-9052-9752fafe8eb-releases/2022/3" />
		<conversion_parameters>
			<framework value="tf" />
			<input_shape value="[1,8]" />
			<model_name value="PTT_scaling_both_256_16" />
			<output_dir value="DIR" />
			<saved_model_dir value="DIR" />
			<use_new_frontend value="True" />
		</conversion_parameters>
		<legacy_frontend value="False" />
	</rt_info>
</net>
