<?xml version="1.0"?>
<net name="TensorFlow_Frontend_IR" version="11">
	<layers>
		<layer id="0" name="input_1" type="Parameter" version="opset1">
			<data shape="1,8" element_type="f32" />
			<output>
				<port id="0" precision="FP32" names="Func/StatefulPartitionedCall/input/_0,Func/StatefulPartitionedCall/input/_0:0,input_1,input_1:0">
					<dim>1</dim>
					<dim>8</dim>
				</port>
			</output>
		</layer>
		<layer id="1" name="unknown_5" type="Const" version="opset1">
			<data element_type="f32" shape="159232, 4" offset="0" size="2547712" />
			<output>
				<port id="0" precision="FP32" names="Func/StatefulPartitionedCall/input/_7,Func/StatefulPartitionedCall/input/_7:0,unknown_5,unknown_5:0">
					<dim>159232</dim>
					<dim>4</dim>
				</port>
			</output>
		</layer>
		<layer id="2" name="unknown" type="Const" version="opset1">
			<data element_type="i64" shape="159232" offset="2547712" size="1273856" />
			<output>
				<port id="0" precision="I64" names="Func/StatefulPartitionedCall/input/_1,Func/StatefulPartitionedCall/input/_1:0,unknown,unknown:0">
					<dim>159232</dim>
				</port>
			</output>
		</layer>
		<layer id="3" name="StatefulPartitionedCall/first_keras/Reshape" type="Const" version="opset1">
			<data element_type="i64" shape="1, 512" offset="3821568" size="4096" />
			<output>
				<port id="0" precision="I64" names="StatefulPartitionedCall/first_keras/Reshape,StatefulPartitionedCall/first_keras/Reshape:0">
					<dim>1</dim>
					<dim>512</dim>
				</port>
			</output>
		</layer>
		<layer id="4" name="StatefulPartitionedCall/first_keras/GatherV2/axis" type="Const" version="opset1">
			<data element_type="i32" shape="" offset="3825664" size="4" />
			<output>
				<port id="0" precision="I32" names="StatefulPartitionedCall/first_keras/GatherV2/axis,StatefulPartitionedCall/first_keras/GatherV2/axis:0" />
			</output>
		</layer>
		<layer id="5" name="StatefulPartitionedCall/first_keras/GatherV2" type="Gather" version="opset8">
			<data batch_dims="0" />
			<input>
				<port id="0" precision="FP32">
					<dim>1</dim>
					<dim>8</dim>
				</port>
				<port id="1" precision="I64">
					<dim>1</dim>
					<dim>512</dim>
				</port>
				<port id="2" precision="I32" />
			</input>
			<output>
				<port id="3" precision="FP32" names="StatefulPartitionedCall/first_keras/GatherV2,StatefulPartitionedCall/first_keras/GatherV2:0">
					<dim>1</dim>
					<dim>1</dim>
					<dim>512</dim>
				</port>
			</output>
		</layer>
		<layer id="6" name="Constant_3668" type="Const" version="opset1">
			<data element_type="f32" shape="1, 1, 512" offset="3825668" size="2048" />
			<output>
				<port id="0" precision="FP32">
					<dim>1</dim>
					<dim>1</dim>
					<dim>512</dim>
				</port>
			</output>
		</layer>
		<layer id="7" name="StatefulPartitionedCall/first_keras/Less" type="Less" version="opset1">
			<data auto_broadcast="numpy" />
			<input>
				<port id="0" precision="FP32">
					<dim>1</dim>
					<dim>1</dim>
					<dim>512</dim>
				</port>
				<port id="1" precision="FP32">
					<dim>1</dim>
					<dim>1</dim>
					<dim>512</dim>
				</port>
			</input>
			<output>
				<port id="2" precision="BOOL" names="StatefulPartitionedCall/first_keras/Less,StatefulPartitionedCall/first_keras/Less:0">
					<dim>1</dim>
					<dim>1</dim>
					<dim>512</dim>
				</port>
			</output>
		</layer>
		<layer id="8" name="StatefulPartitionedCall/first_keras/Cast" type="Convert" version="opset1">
			<data destination_type="f32" />
			<input>
				<port id="0" precision="BOOL">
					<dim>1</dim>
					<dim>1</dim>
					<dim>512</dim>
				</port>
			</input>
			<output>
				<port id="1" precision="FP32" names="StatefulPartitionedCall/first_keras/Cast,StatefulPartitionedCall/first_keras/Cast:0">
					<dim>1</dim>
					<dim>1</dim>
					<dim>512</dim>
				</port>
			</output>
		</layer>
		<layer id="9" name="Constant_3669" type="Const" version="opset1">
			<data element_type="f32" shape="1, 1, 512" offset="3825668" size="2048" />
			<output>
				<port id="0" precision="FP32">
					<dim>1</dim>
					<dim>1</dim>
					<dim>512</dim>
				</port>
			</output>
		</layer>
		<layer id="10" name="StatefulPartitionedCall/first_keras/Equal" type="Equal" version="opset1">
			<data auto_broadcast="numpy" />
			<input>
				<port id="0" precision="FP32">
					<dim>1</dim>
					<dim>1</dim>
					<dim>512</dim>
				</port>
				<port id="1" precision="FP32">
					<dim>1</dim>
					<dim>1</dim>
					<dim>512</dim>
				</port>
			</input>
			<output>
				<port id="2" precision="BOOL" names="StatefulPartitionedCall/first_keras/Equal,StatefulPartitionedCall/first_keras/Equal:0">
					<dim>1</dim>
					<dim>1</dim>
					<dim>512</dim>
				</port>
			</output>
		</layer>
		<layer id="11" name="StatefulPartitionedCall/first_keras/Cast_1" type="Convert" version="opset1">
			<data destination_type="f32" />
			<input>
				<port id="0" precision="BOOL">
					<dim>1</dim>
					<dim>1</dim>
					<dim>512</dim>
				</port>
			</input>
			<output>
				<port id="1" precision="FP32" names="StatefulPartitionedCall/first_keras/Cast_1,StatefulPartitionedCall/first_keras/Cast_1:0">
					<dim>1</dim>
					<dim>1</dim>
					<dim>512</dim>
				</port>
			</output>
		</layer>
		<layer id="12" name="StatefulPartitionedCall/first_keras/Add" type="Add" version="opset1">
			<data auto_broadcast="numpy" />
			<input>
				<port id="0" precision="FP32">
					<dim>1</dim>
					<dim>1</dim>
					<dim>512</dim>
				</port>
				<port id="1" precision="FP32">
					<dim>1</dim>
					<dim>1</dim>
					<dim>512</dim>
				</port>
			</input>
			<output>
				<port id="2" precision="FP32" names="StatefulPartitionedCall/first_keras/Add,StatefulPartitionedCall/first_keras/Add:0">
					<dim>1</dim>
					<dim>1</dim>
					<dim>512</dim>
				</port>
			</output>
		</layer>
		<layer id="13" name="StatefulPartitionedCall/first_keras/Cast_2" type="Convert" version="opset1">
			<data destination_type="boolean" />
			<input>
				<port id="0" precision="FP32">
					<dim>1</dim>
					<dim>1</dim>
					<dim>512</dim>
				</port>
			</input>
			<output>
				<port id="1" precision="BOOL" names="StatefulPartitionedCall/first_keras/Cast_2,StatefulPartitionedCall/first_keras/Cast_2:0">
					<dim>1</dim>
					<dim>1</dim>
					<dim>512</dim>
				</port>
			</output>
		</layer>
		<layer id="14" name="StatefulPartitionedCall/first_keras/Reshape_2" type="Const" version="opset1">
			<data element_type="i64" shape="1, 512" offset="3827716" size="4096" />
			<output>
				<port id="0" precision="I64" names="StatefulPartitionedCall/first_keras/Reshape_2,StatefulPartitionedCall/first_keras/Reshape_2:0">
					<dim>1</dim>
					<dim>512</dim>
				</port>
			</output>
		</layer>
		<layer id="15" name="StatefulPartitionedCall/first_keras/Reshape_3" type="Const" version="opset1">
			<data element_type="i64" shape="1, 512" offset="3831812" size="4096" />
			<output>
				<port id="0" precision="I64" names="StatefulPartitionedCall/first_keras/Reshape_3,StatefulPartitionedCall/first_keras/Reshape_3:0">
					<dim>1</dim>
					<dim>512</dim>
				</port>
			</output>
		</layer>
		<layer id="16" name="StatefulPartitionedCall/first_keras/SelectV2" type="Select" version="opset1">
			<data auto_broadcast="numpy" />
			<input>
				<port id="0" precision="BOOL">
					<dim>1</dim>
					<dim>1</dim>
					<dim>512</dim>
				</port>
				<port id="1" precision="I64">
					<dim>1</dim>
					<dim>512</dim>
				</port>
				<port id="2" precision="I64">
					<dim>1</dim>
					<dim>512</dim>
				</port>
			</input>
			<output>
				<port id="3" precision="I64" names="StatefulPartitionedCall/first_keras/SelectV2,StatefulPartitionedCall/first_keras/SelectV2:0">
					<dim>1</dim>
					<dim>1</dim>
					<dim>512</dim>
				</port>
			</output>
		</layer>
		<layer id="17" name="Constant_3670" type="Const" version="opset1">
			<data element_type="i64" shape="1, 1, 512" offset="3835908" size="4096" />
			<output>
				<port id="0" precision="I64">
					<dim>1</dim>
					<dim>1</dim>
					<dim>512</dim>
				</port>
			</output>
		</layer>
		<layer id="18" name="StatefulPartitionedCall/first_keras/add_1" type="Add" version="opset1">
			<data auto_broadcast="numpy" />
			<input>
				<port id="0" precision="I64">
					<dim>1</dim>
					<dim>1</dim>
					<dim>512</dim>
				</port>
				<port id="1" precision="I64">
					<dim>1</dim>
					<dim>1</dim>
					<dim>512</dim>
				</port>
			</input>
			<output>
				<port id="2" precision="I64" names="StatefulPartitionedCall/first_keras/add_1,StatefulPartitionedCall/first_keras/add_1:0">
					<dim>1</dim>
					<dim>1</dim>
					<dim>512</dim>
				</port>
			</output>
		</layer>
		<layer id="19" name="Constant_1673" type="Const" version="opset1">
			<data element_type="i64" shape="1" offset="3840004" size="8" />
			<output>
				<port id="0" precision="I64">
					<dim>1</dim>
				</port>
			</output>
		</layer>
		<layer id="20" name="StatefulPartitionedCall/first_keras/Reshape_4" type="Reshape" version="opset1">
			<data special_zero="false" />
			<input>
				<port id="0" precision="I64">
					<dim>1</dim>
					<dim>1</dim>
					<dim>512</dim>
				</port>
				<port id="1" precision="I64">
					<dim>1</dim>
				</port>
			</input>
			<output>
				<port id="2" precision="I64" names="StatefulPartitionedCall/first_keras/Reshape_4,StatefulPartitionedCall/first_keras/Reshape_4:0">
					<dim>512</dim>
				</port>
			</output>
		</layer>
		<layer id="21" name="StatefulPartitionedCall/first_keras/Gather_4/axis" type="Const" version="opset1">
			<data element_type="i64" shape="" offset="3840012" size="8" />
			<output>
				<port id="0" precision="I64" names="StatefulPartitionedCall/first_keras/Gather_4/axis,StatefulPartitionedCall/first_keras/Gather_4/axis:0" />
			</output>
		</layer>
		<layer id="22" name="StatefulPartitionedCall/first_keras/Gather_4" type="Gather" version="opset8">
			<data batch_dims="0" />
			<input>
				<port id="0" precision="I64">
					<dim>159232</dim>
				</port>
				<port id="1" precision="I64">
					<dim>512</dim>
				</port>
				<port id="2" precision="I64" />
			</input>
			<output>
				<port id="3" precision="I64" names="StatefulPartitionedCall/first_keras/Gather_4,StatefulPartitionedCall/first_keras/Gather_4:0,StatefulPartitionedCall/first_keras/Identity_4,StatefulPartitionedCall/first_keras/Identity_4:0">
					<dim>512</dim>
				</port>
			</output>
		</layer>
		<layer id="23" name="StatefulPartitionedCall/first_keras/Reshape_5/shape" type="Const" version="opset1">
			<data element_type="i32" shape="2" offset="3840020" size="8" />
			<output>
				<port id="0" precision="I32" names="StatefulPartitionedCall/first_keras/Reshape_5/shape,StatefulPartitionedCall/first_keras/Reshape_5/shape:0">
					<dim>2</dim>
				</port>
			</output>
		</layer>
		<layer id="24" name="StatefulPartitionedCall/first_keras/Reshape_5" type="Reshape" version="opset1">
			<data special_zero="false" />
			<input>
				<port id="0" precision="I64">
					<dim>512</dim>
				</port>
				<port id="1" precision="I32">
					<dim>2</dim>
				</port>
			</input>
			<output>
				<port id="2" precision="I64" names="StatefulPartitionedCall/first_keras/Reshape_5,StatefulPartitionedCall/first_keras/Reshape_5:0">
					<dim>1</dim>
					<dim>512</dim>
				</port>
			</output>
		</layer>
		<layer id="25" name="StatefulPartitionedCall/first_keras/GatherV2_1/axis" type="Const" version="opset1">
			<data element_type="i32" shape="" offset="3825664" size="4" />
			<output>
				<port id="0" precision="I32" names="StatefulPartitionedCall/first_keras/GatherV2_1/axis,StatefulPartitionedCall/first_keras/GatherV2_1/axis:0" />
			</output>
		</layer>
		<layer id="26" name="StatefulPartitionedCall/first_keras/GatherV2_1" type="Gather" version="opset8">
			<data batch_dims="0" />
			<input>
				<port id="0" precision="FP32">
					<dim>1</dim>
					<dim>8</dim>
				</port>
				<port id="1" precision="I64">
					<dim>1</dim>
					<dim>512</dim>
				</port>
				<port id="2" precision="I32" />
			</input>
			<output>
				<port id="3" precision="FP32" names="StatefulPartitionedCall/first_keras/GatherV2_1,StatefulPartitionedCall/first_keras/GatherV2_1:0">
					<dim>1</dim>
					<dim>1</dim>
					<dim>512</dim>
				</port>
			</output>
		</layer>
		<layer id="27" name="unknown_1" type="Const" version="opset1">
			<data element_type="f32" shape="159232" offset="3840028" size="636928" />
			<output>
				<port id="0" precision="FP32" names="Func/StatefulPartitionedCall/input/_3,Func/StatefulPartitionedCall/input/_3:0,unknown_1,unknown_1:0">
					<dim>159232</dim>
				</port>
			</output>
		</layer>
		<layer id="28" name="StatefulPartitionedCall/first_keras/Gather_5/axis" type="Const" version="opset1">
			<data element_type="i64" shape="" offset="3840012" size="8" />
			<output>
				<port id="0" precision="I64" names="StatefulPartitionedCall/first_keras/Gather_5/axis,StatefulPartitionedCall/first_keras/Gather_5/axis:0" />
			</output>
		</layer>
		<layer id="29" name="StatefulPartitionedCall/first_keras/Gather_5" type="Gather" version="opset8">
			<data batch_dims="0" />
			<input>
				<port id="0" precision="FP32">
					<dim>159232</dim>
				</port>
				<port id="1" precision="I64">
					<dim>512</dim>
				</port>
				<port id="2" precision="I64" />
			</input>
			<output>
				<port id="3" precision="FP32" names="StatefulPartitionedCall/first_keras/Gather_5,StatefulPartitionedCall/first_keras/Gather_5:0,StatefulPartitionedCall/first_keras/Identity_5,StatefulPartitionedCall/first_keras/Identity_5:0">
					<dim>512</dim>
				</port>
			</output>
		</layer>
		<layer id="30" name="StatefulPartitionedCall/first_keras/Reshape_6/shape" type="Const" version="opset1">
			<data element_type="i32" shape="2" offset="3840020" size="8" />
			<output>
				<port id="0" precision="I32" names="StatefulPartitionedCall/first_keras/Reshape_6/shape,StatefulPartitionedCall/first_keras/Reshape_6/shape:0">
					<dim>2</dim>
				</port>
			</output>
		</layer>
		<layer id="31" name="StatefulPartitionedCall/first_keras/Reshape_6" type="Reshape" version="opset1">
			<data special_zero="false" />
			<input>
				<port id="0" precision="FP32">
					<dim>512</dim>
				</port>
				<port id="1" precision="I32">
					<dim>2</dim>
				</port>
			</input>
			<output>
				<port id="2" precision="FP32" names="StatefulPartitionedCall/first_keras/Reshape_6,StatefulPartitionedCall/first_keras/Reshape_6:0">
					<dim>1</dim>
					<dim>512</dim>
				</port>
			</output>
		</layer>
		<layer id="32" name="StatefulPartitionedCall/first_keras/Less_1" type="Less" version="opset1">
			<data auto_broadcast="numpy" />
			<input>
				<port id="0" precision="FP32">
					<dim>1</dim>
					<dim>1</dim>
					<dim>512</dim>
				</port>
				<port id="1" precision="FP32">
					<dim>1</dim>
					<dim>512</dim>
				</port>
			</input>
			<output>
				<port id="2" precision="BOOL" names="StatefulPartitionedCall/first_keras/Less_1,StatefulPartitionedCall/first_keras/Less_1:0">
					<dim>1</dim>
					<dim>1</dim>
					<dim>512</dim>
				</port>
			</output>
		</layer>
		<layer id="33" name="StatefulPartitionedCall/first_keras/Cast_3" type="Convert" version="opset1">
			<data destination_type="f32" />
			<input>
				<port id="0" precision="BOOL">
					<dim>1</dim>
					<dim>1</dim>
					<dim>512</dim>
				</port>
			</input>
			<output>
				<port id="1" precision="FP32" names="StatefulPartitionedCall/first_keras/Cast_3,StatefulPartitionedCall/first_keras/Cast_3:0">
					<dim>1</dim>
					<dim>1</dim>
					<dim>512</dim>
				</port>
			</output>
		</layer>
		<layer id="34" name="StatefulPartitionedCall/first_keras/Equal_1" type="Equal" version="opset1">
			<data auto_broadcast="numpy" />
			<input>
				<port id="0" precision="FP32">
					<dim>1</dim>
					<dim>1</dim>
					<dim>512</dim>
				</port>
				<port id="1" precision="FP32">
					<dim>1</dim>
					<dim>512</dim>
				</port>
			</input>
			<output>
				<port id="2" precision="BOOL" names="StatefulPartitionedCall/first_keras/Equal_1,StatefulPartitionedCall/first_keras/Equal_1:0">
					<dim>1</dim>
					<dim>1</dim>
					<dim>512</dim>
				</port>
			</output>
		</layer>
		<layer id="35" name="StatefulPartitionedCall/first_keras/Cast_4" type="Convert" version="opset1">
			<data destination_type="f32" />
			<input>
				<port id="0" precision="BOOL">
					<dim>1</dim>
					<dim>1</dim>
					<dim>512</dim>
				</port>
			</input>
			<output>
				<port id="1" precision="FP32" names="StatefulPartitionedCall/first_keras/Cast_4,StatefulPartitionedCall/first_keras/Cast_4:0">
					<dim>1</dim>
					<dim>1</dim>
					<dim>512</dim>
				</port>
			</output>
		</layer>
		<layer id="36" name="StatefulPartitionedCall/first_keras/Add_2" type="Add" version="opset1">
			<data auto_broadcast="numpy" />
			<input>
				<port id="0" precision="FP32">
					<dim>1</dim>
					<dim>1</dim>
					<dim>512</dim>
				</port>
				<port id="1" precision="FP32">
					<dim>1</dim>
					<dim>1</dim>
					<dim>512</dim>
				</port>
			</input>
			<output>
				<port id="2" precision="FP32" names="StatefulPartitionedCall/first_keras/Add_2,StatefulPartitionedCall/first_keras/Add_2:0">
					<dim>1</dim>
					<dim>1</dim>
					<dim>512</dim>
				</port>
			</output>
		</layer>
		<layer id="37" name="StatefulPartitionedCall/first_keras/Cast_5" type="Convert" version="opset1">
			<data destination_type="boolean" />
			<input>
				<port id="0" precision="FP32">
					<dim>1</dim>
					<dim>1</dim>
					<dim>512</dim>
				</port>
			</input>
			<output>
				<port id="1" precision="BOOL" names="StatefulPartitionedCall/first_keras/Cast_5,StatefulPartitionedCall/first_keras/Cast_5:0">
					<dim>1</dim>
					<dim>1</dim>
					<dim>512</dim>
				</port>
			</output>
		</layer>
		<layer id="38" name="unknown_2" type="Const" version="opset1">
			<data element_type="i64" shape="159232" offset="4476956" size="1273856" />
			<output>
				<port id="0" precision="I64" names="Func/StatefulPartitionedCall/input/_4,Func/StatefulPartitionedCall/input/_4:0,unknown_2,unknown_2:0">
					<dim>159232</dim>
				</port>
			</output>
		</layer>
		<layer id="39" name="StatefulPartitionedCall/first_keras/Gather_6/axis" type="Const" version="opset1">
			<data element_type="i64" shape="" offset="3840012" size="8" />
			<output>
				<port id="0" precision="I64" names="StatefulPartitionedCall/first_keras/Gather_6/axis,StatefulPartitionedCall/first_keras/Gather_6/axis:0" />
			</output>
		</layer>
		<layer id="40" name="StatefulPartitionedCall/first_keras/Gather_6" type="Gather" version="opset8">
			<data batch_dims="0" />
			<input>
				<port id="0" precision="I64">
					<dim>159232</dim>
				</port>
				<port id="1" precision="I64">
					<dim>512</dim>
				</port>
				<port id="2" precision="I64" />
			</input>
			<output>
				<port id="3" precision="I64" names="StatefulPartitionedCall/first_keras/Gather_6,StatefulPartitionedCall/first_keras/Gather_6:0,StatefulPartitionedCall/first_keras/Identity_6,StatefulPartitionedCall/first_keras/Identity_6:0">
					<dim>512</dim>
				</port>
			</output>
		</layer>
		<layer id="41" name="StatefulPartitionedCall/first_keras/Reshape_7/shape" type="Const" version="opset1">
			<data element_type="i32" shape="2" offset="3840020" size="8" />
			<output>
				<port id="0" precision="I32" names="StatefulPartitionedCall/first_keras/Reshape_7/shape,StatefulPartitionedCall/first_keras/Reshape_7/shape:0">
					<dim>2</dim>
				</port>
			</output>
		</layer>
		<layer id="42" name="StatefulPartitionedCall/first_keras/Reshape_7" type="Reshape" version="opset1">
			<data special_zero="false" />
			<input>
				<port id="0" precision="I64">
					<dim>512</dim>
				</port>
				<port id="1" precision="I32">
					<dim>2</dim>
				</port>
			</input>
			<output>
				<port id="2" precision="I64" names="StatefulPartitionedCall/first_keras/Reshape_7,StatefulPartitionedCall/first_keras/Reshape_7:0">
					<dim>1</dim>
					<dim>512</dim>
				</port>
			</output>
		</layer>
		<layer id="43" name="unknown_3" type="Const" version="opset1">
			<data element_type="i64" shape="159232" offset="5750812" size="1273856" />
			<output>
				<port id="0" precision="I64" names="Func/StatefulPartitionedCall/input/_5,Func/StatefulPartitionedCall/input/_5:0,unknown_3,unknown_3:0">
					<dim>159232</dim>
				</port>
			</output>
		</layer>
		<layer id="44" name="StatefulPartitionedCall/first_keras/Gather_7/axis" type="Const" version="opset1">
			<data element_type="i64" shape="" offset="3840012" size="8" />
			<output>
				<port id="0" precision="I64" names="StatefulPartitionedCall/first_keras/Gather_7/axis,StatefulPartitionedCall/first_keras/Gather_7/axis:0" />
			</output>
		</layer>
		<layer id="45" name="StatefulPartitionedCall/first_keras/Gather_7" type="Gather" version="opset8">
			<data batch_dims="0" />
			<input>
				<port id="0" precision="I64">
					<dim>159232</dim>
				</port>
				<port id="1" precision="I64">
					<dim>512</dim>
				</port>
				<port id="2" precision="I64" />
			</input>
			<output>
				<port id="3" precision="I64" names="StatefulPartitionedCall/first_keras/Gather_7,StatefulPartitionedCall/first_keras/Gather_7:0,StatefulPartitionedCall/first_keras/Identity_7,StatefulPartitionedCall/first_keras/Identity_7:0">
					<dim>512</dim>
				</port>
			</output>
		</layer>
		<layer id="46" name="StatefulPartitionedCall/first_keras/Reshape_8/shape" type="Const" version="opset1">
			<data element_type="i32" shape="2" offset="3840020" size="8" />
			<output>
				<port id="0" precision="I32" names="StatefulPartitionedCall/first_keras/Reshape_8/shape,StatefulPartitionedCall/first_keras/Reshape_8/shape:0">
					<dim>2</dim>
				</port>
			</output>
		</layer>
		<layer id="47" name="StatefulPartitionedCall/first_keras/Reshape_8" type="Reshape" version="opset1">
			<data special_zero="false" />
			<input>
				<port id="0" precision="I64">
					<dim>512</dim>
				</port>
				<port id="1" precision="I32">
					<dim>2</dim>
				</port>
			</input>
			<output>
				<port id="2" precision="I64" names="StatefulPartitionedCall/first_keras/Reshape_8,StatefulPartitionedCall/first_keras/Reshape_8:0">
					<dim>1</dim>
					<dim>512</dim>
				</port>
			</output>
		</layer>
		<layer id="48" name="StatefulPartitionedCall/first_keras/SelectV2_1" type="Select" version="opset1">
			<data auto_broadcast="numpy" />
			<input>
				<port id="0" precision="BOOL">
					<dim>1</dim>
					<dim>1</dim>
					<dim>512</dim>
				</port>
				<port id="1" precision="I64">
					<dim>1</dim>
					<dim>512</dim>
				</port>
				<port id="2" precision="I64">
					<dim>1</dim>
					<dim>512</dim>
				</port>
			</input>
			<output>
				<port id="3" precision="I64" names="StatefulPartitionedCall/first_keras/SelectV2_1,StatefulPartitionedCall/first_keras/SelectV2_1:0">
					<dim>1</dim>
					<dim>1</dim>
					<dim>512</dim>
				</port>
			</output>
		</layer>
		<layer id="49" name="Constant_3671" type="Const" version="opset1">
			<data element_type="i64" shape="1, 1, 512" offset="3835908" size="4096" />
			<output>
				<port id="0" precision="I64">
					<dim>1</dim>
					<dim>1</dim>
					<dim>512</dim>
				</port>
			</output>
		</layer>
		<layer id="50" name="StatefulPartitionedCall/first_keras/add_3" type="Add" version="opset1">
			<data auto_broadcast="numpy" />
			<input>
				<port id="0" precision="I64">
					<dim>1</dim>
					<dim>1</dim>
					<dim>512</dim>
				</port>
				<port id="1" precision="I64">
					<dim>1</dim>
					<dim>1</dim>
					<dim>512</dim>
				</port>
			</input>
			<output>
				<port id="2" precision="I64" names="StatefulPartitionedCall/first_keras/add_3,StatefulPartitionedCall/first_keras/add_3:0">
					<dim>1</dim>
					<dim>1</dim>
					<dim>512</dim>
				</port>
			</output>
		</layer>
		<layer id="51" name="Constant_1674" type="Const" version="opset1">
			<data element_type="i64" shape="1" offset="3840004" size="8" />
			<output>
				<port id="0" precision="I64">
					<dim>1</dim>
				</port>
			</output>
		</layer>
		<layer id="52" name="StatefulPartitionedCall/first_keras/Reshape_9" type="Reshape" version="opset1">
			<data special_zero="false" />
			<input>
				<port id="0" precision="I64">
					<dim>1</dim>
					<dim>1</dim>
					<dim>512</dim>
				</port>
				<port id="1" precision="I64">
					<dim>1</dim>
				</port>
			</input>
			<output>
				<port id="2" precision="I64" names="StatefulPartitionedCall/first_keras/Reshape_9,StatefulPartitionedCall/first_keras/Reshape_9:0">
					<dim>512</dim>
				</port>
			</output>
		</layer>
		<layer id="53" name="StatefulPartitionedCall/first_keras/Gather_8/axis" type="Const" version="opset1">
			<data element_type="i64" shape="" offset="3840012" size="8" />
			<output>
				<port id="0" precision="I64" names="StatefulPartitionedCall/first_keras/Gather_8/axis,StatefulPartitionedCall/first_keras/Gather_8/axis:0" />
			</output>
		</layer>
		<layer id="54" name="StatefulPartitionedCall/first_keras/Gather_8" type="Gather" version="opset8">
			<data batch_dims="0" />
			<input>
				<port id="0" precision="I64">
					<dim>159232</dim>
				</port>
				<port id="1" precision="I64">
					<dim>512</dim>
				</port>
				<port id="2" precision="I64" />
			</input>
			<output>
				<port id="3" precision="I64" names="StatefulPartitionedCall/first_keras/Gather_8,StatefulPartitionedCall/first_keras/Gather_8:0,StatefulPartitionedCall/first_keras/Identity_8,StatefulPartitionedCall/first_keras/Identity_8:0">
					<dim>512</dim>
				</port>
			</output>
		</layer>
		<layer id="55" name="StatefulPartitionedCall/first_keras/Reshape_10/shape" type="Const" version="opset1">
			<data element_type="i32" shape="2" offset="3840020" size="8" />
			<output>
				<port id="0" precision="I32" names="StatefulPartitionedCall/first_keras/Reshape_10/shape,StatefulPartitionedCall/first_keras/Reshape_10/shape:0">
					<dim>2</dim>
				</port>
			</output>
		</layer>
		<layer id="56" name="StatefulPartitionedCall/first_keras/Reshape_10" type="Reshape" version="opset1">
			<data special_zero="false" />
			<input>
				<port id="0" precision="I64">
					<dim>512</dim>
				</port>
				<port id="1" precision="I32">
					<dim>2</dim>
				</port>
			</input>
			<output>
				<port id="2" precision="I64" names="StatefulPartitionedCall/first_keras/Reshape_10,StatefulPartitionedCall/first_keras/Reshape_10:0">
					<dim>1</dim>
					<dim>512</dim>
				</port>
			</output>
		</layer>
		<layer id="57" name="StatefulPartitionedCall/first_keras/GatherV2_2/axis" type="Const" version="opset1">
			<data element_type="i32" shape="" offset="3825664" size="4" />
			<output>
				<port id="0" precision="I32" names="StatefulPartitionedCall/first_keras/GatherV2_2/axis,StatefulPartitionedCall/first_keras/GatherV2_2/axis:0" />
			</output>
		</layer>
		<layer id="58" name="StatefulPartitionedCall/first_keras/GatherV2_2" type="Gather" version="opset8">
			<data batch_dims="0" />
			<input>
				<port id="0" precision="FP32">
					<dim>1</dim>
					<dim>8</dim>
				</port>
				<port id="1" precision="I64">
					<dim>1</dim>
					<dim>512</dim>
				</port>
				<port id="2" precision="I32" />
			</input>
			<output>
				<port id="3" precision="FP32" names="StatefulPartitionedCall/first_keras/GatherV2_2,StatefulPartitionedCall/first_keras/GatherV2_2:0">
					<dim>1</dim>
					<dim>1</dim>
					<dim>512</dim>
				</port>
			</output>
		</layer>
		<layer id="59" name="StatefulPartitionedCall/first_keras/Gather_9/axis" type="Const" version="opset1">
			<data element_type="i64" shape="" offset="3840012" size="8" />
			<output>
				<port id="0" precision="I64" names="StatefulPartitionedCall/first_keras/Gather_9/axis,StatefulPartitionedCall/first_keras/Gather_9/axis:0" />
			</output>
		</layer>
		<layer id="60" name="StatefulPartitionedCall/first_keras/Gather_9" type="Gather" version="opset8">
			<data batch_dims="0" />
			<input>
				<port id="0" precision="FP32">
					<dim>159232</dim>
				</port>
				<port id="1" precision="I64">
					<dim>512</dim>
				</port>
				<port id="2" precision="I64" />
			</input>
			<output>
				<port id="3" precision="FP32" names="StatefulPartitionedCall/first_keras/Gather_9,StatefulPartitionedCall/first_keras/Gather_9:0,StatefulPartitionedCall/first_keras/Identity_9,StatefulPartitionedCall/first_keras/Identity_9:0">
					<dim>512</dim>
				</port>
			</output>
		</layer>
		<layer id="61" name="StatefulPartitionedCall/first_keras/Reshape_11/shape" type="Const" version="opset1">
			<data element_type="i32" shape="2" offset="3840020" size="8" />
			<output>
				<port id="0" precision="I32" names="StatefulPartitionedCall/first_keras/Reshape_11/shape,StatefulPartitionedCall/first_keras/Reshape_11/shape:0">
					<dim>2</dim>
				</port>
			</output>
		</layer>
		<layer id="62" name="StatefulPartitionedCall/first_keras/Reshape_11" type="Reshape" version="opset1">
			<data special_zero="false" />
			<input>
				<port id="0" precision="FP32">
					<dim>512</dim>
				</port>
				<port id="1" precision="I32">
					<dim>2</dim>
				</port>
			</input>
			<output>
				<port id="2" precision="FP32" names="StatefulPartitionedCall/first_keras/Reshape_11,StatefulPartitionedCall/first_keras/Reshape_11:0">
					<dim>1</dim>
					<dim>512</dim>
				</port>
			</output>
		</layer>
		<layer id="63" name="StatefulPartitionedCall/first_keras/Less_2" type="Less" version="opset1">
			<data auto_broadcast="numpy" />
			<input>
				<port id="0" precision="FP32">
					<dim>1</dim>
					<dim>1</dim>
					<dim>512</dim>
				</port>
				<port id="1" precision="FP32">
					<dim>1</dim>
					<dim>512</dim>
				</port>
			</input>
			<output>
				<port id="2" precision="BOOL" names="StatefulPartitionedCall/first_keras/Less_2,StatefulPartitionedCall/first_keras/Less_2:0">
					<dim>1</dim>
					<dim>1</dim>
					<dim>512</dim>
				</port>
			</output>
		</layer>
		<layer id="64" name="StatefulPartitionedCall/first_keras/Cast_6" type="Convert" version="opset1">
			<data destination_type="f32" />
			<input>
				<port id="0" precision="BOOL">
					<dim>1</dim>
					<dim>1</dim>
					<dim>512</dim>
				</port>
			</input>
			<output>
				<port id="1" precision="FP32" names="StatefulPartitionedCall/first_keras/Cast_6,StatefulPartitionedCall/first_keras/Cast_6:0">
					<dim>1</dim>
					<dim>1</dim>
					<dim>512</dim>
				</port>
			</output>
		</layer>
		<layer id="65" name="StatefulPartitionedCall/first_keras/Equal_2" type="Equal" version="opset1">
			<data auto_broadcast="numpy" />
			<input>
				<port id="0" precision="FP32">
					<dim>1</dim>
					<dim>1</dim>
					<dim>512</dim>
				</port>
				<port id="1" precision="FP32">
					<dim>1</dim>
					<dim>512</dim>
				</port>
			</input>
			<output>
				<port id="2" precision="BOOL" names="StatefulPartitionedCall/first_keras/Equal_2,StatefulPartitionedCall/first_keras/Equal_2:0">
					<dim>1</dim>
					<dim>1</dim>
					<dim>512</dim>
				</port>
			</output>
		</layer>
		<layer id="66" name="StatefulPartitionedCall/first_keras/Cast_7" type="Convert" version="opset1">
			<data destination_type="f32" />
			<input>
				<port id="0" precision="BOOL">
					<dim>1</dim>
					<dim>1</dim>
					<dim>512</dim>
				</port>
			</input>
			<output>
				<port id="1" precision="FP32" names="StatefulPartitionedCall/first_keras/Cast_7,StatefulPartitionedCall/first_keras/Cast_7:0">
					<dim>1</dim>
					<dim>1</dim>
					<dim>512</dim>
				</port>
			</output>
		</layer>
		<layer id="67" name="StatefulPartitionedCall/first_keras/Add_4" type="Add" version="opset1">
			<data auto_broadcast="numpy" />
			<input>
				<port id="0" precision="FP32">
					<dim>1</dim>
					<dim>1</dim>
					<dim>512</dim>
				</port>
				<port id="1" precision="FP32">
					<dim>1</dim>
					<dim>1</dim>
					<dim>512</dim>
				</port>
			</input>
			<output>
				<port id="2" precision="FP32" names="StatefulPartitionedCall/first_keras/Add_4,StatefulPartitionedCall/first_keras/Add_4:0">
					<dim>1</dim>
					<dim>1</dim>
					<dim>512</dim>
				</port>
			</output>
		</layer>
		<layer id="68" name="StatefulPartitionedCall/first_keras/Cast_8" type="Convert" version="opset1">
			<data destination_type="boolean" />
			<input>
				<port id="0" precision="FP32">
					<dim>1</dim>
					<dim>1</dim>
					<dim>512</dim>
				</port>
			</input>
			<output>
				<port id="1" precision="BOOL" names="StatefulPartitionedCall/first_keras/Cast_8,StatefulPartitionedCall/first_keras/Cast_8:0">
					<dim>1</dim>
					<dim>1</dim>
					<dim>512</dim>
				</port>
			</output>
		</layer>
		<layer id="69" name="StatefulPartitionedCall/first_keras/Gather_10/axis" type="Const" version="opset1">
			<data element_type="i64" shape="" offset="3840012" size="8" />
			<output>
				<port id="0" precision="I64" names="StatefulPartitionedCall/first_keras/Gather_10/axis,StatefulPartitionedCall/first_keras/Gather_10/axis:0" />
			</output>
		</layer>
		<layer id="70" name="StatefulPartitionedCall/first_keras/Gather_10" type="Gather" version="opset8">
			<data batch_dims="0" />
			<input>
				<port id="0" precision="I64">
					<dim>159232</dim>
				</port>
				<port id="1" precision="I64">
					<dim>512</dim>
				</port>
				<port id="2" precision="I64" />
			</input>
			<output>
				<port id="3" precision="I64" names="StatefulPartitionedCall/first_keras/Gather_10,StatefulPartitionedCall/first_keras/Gather_10:0,StatefulPartitionedCall/first_keras/Identity_10,StatefulPartitionedCall/first_keras/Identity_10:0">
					<dim>512</dim>
				</port>
			</output>
		</layer>
		<layer id="71" name="StatefulPartitionedCall/first_keras/Reshape_12/shape" type="Const" version="opset1">
			<data element_type="i32" shape="2" offset="3840020" size="8" />
			<output>
				<port id="0" precision="I32" names="StatefulPartitionedCall/first_keras/Reshape_12/shape,StatefulPartitionedCall/first_keras/Reshape_12/shape:0">
					<dim>2</dim>
				</port>
			</output>
		</layer>
		<layer id="72" name="StatefulPartitionedCall/first_keras/Reshape_12" type="Reshape" version="opset1">
			<data special_zero="false" />
			<input>
				<port id="0" precision="I64">
					<dim>512</dim>
				</port>
				<port id="1" precision="I32">
					<dim>2</dim>
				</port>
			</input>
			<output>
				<port id="2" precision="I64" names="StatefulPartitionedCall/first_keras/Reshape_12,StatefulPartitionedCall/first_keras/Reshape_12:0">
					<dim>1</dim>
					<dim>512</dim>
				</port>
			</output>
		</layer>
		<layer id="73" name="StatefulPartitionedCall/first_keras/Gather_11/axis" type="Const" version="opset1">
			<data element_type="i64" shape="" offset="3840012" size="8" />
			<output>
				<port id="0" precision="I64" names="StatefulPartitionedCall/first_keras/Gather_11/axis,StatefulPartitionedCall/first_keras/Gather_11/axis:0" />
			</output>
		</layer>
		<layer id="74" name="StatefulPartitionedCall/first_keras/Gather_11" type="Gather" version="opset8">
			<data batch_dims="0" />
			<input>
				<port id="0" precision="I64">
					<dim>159232</dim>
				</port>
				<port id="1" precision="I64">
					<dim>512</dim>
				</port>
				<port id="2" precision="I64" />
			</input>
			<output>
				<port id="3" precision="I64" names="StatefulPartitionedCall/first_keras/Gather_11,StatefulPartitionedCall/first_keras/Gather_11:0,StatefulPartitionedCall/first_keras/Identity_11,StatefulPartitionedCall/first_keras/Identity_11:0">
					<dim>512</dim>
				</port>
			</output>
		</layer>
		<layer id="75" name="StatefulPartitionedCall/first_keras/Reshape_13/shape" type="Const" version="opset1">
			<data element_type="i32" shape="2" offset="3840020" size="8" />
			<output>
				<port id="0" precision="I32" names="StatefulPartitionedCall/first_keras/Reshape_13/shape,StatefulPartitionedCall/first_keras/Reshape_13/shape:0">
					<dim>2</dim>
				</port>
			</output>
		</layer>
		<layer id="76" name="StatefulPartitionedCall/first_keras/Reshape_13" type="Reshape" version="opset1">
			<data special_zero="false" />
			<input>
				<port id="0" precision="I64">
					<dim>512</dim>
				</port>
				<port id="1" precision="I32">
					<dim>2</dim>
				</port>
			</input>
			<output>
				<port id="2" precision="I64" names="StatefulPartitionedCall/first_keras/Reshape_13,StatefulPartitionedCall/first_keras/Reshape_13:0">
					<dim>1</dim>
					<dim>512</dim>
				</port>
			</output>
		</layer>
		<layer id="77" name="StatefulPartitionedCall/first_keras/SelectV2_2" type="Select" version="opset1">
			<data auto_broadcast="numpy" />
			<input>
				<port id="0" precision="BOOL">
					<dim>1</dim>
					<dim>1</dim>
					<dim>512</dim>
				</port>
				<port id="1" precision="I64">
					<dim>1</dim>
					<dim>512</dim>
				</port>
				<port id="2" precision="I64">
					<dim>1</dim>
					<dim>512</dim>
				</port>
			</input>
			<output>
				<port id="3" precision="I64" names="StatefulPartitionedCall/first_keras/SelectV2_2,StatefulPartitionedCall/first_keras/SelectV2_2:0">
					<dim>1</dim>
					<dim>1</dim>
					<dim>512</dim>
				</port>
			</output>
		</layer>
		<layer id="78" name="Constant_3672" type="Const" version="opset1">
			<data element_type="i64" shape="1, 1, 512" offset="3835908" size="4096" />
			<output>
				<port id="0" precision="I64">
					<dim>1</dim>
					<dim>1</dim>
					<dim>512</dim>
				</port>
			</output>
		</layer>
		<layer id="79" name="StatefulPartitionedCall/first_keras/add_5" type="Add" version="opset1">
			<data auto_broadcast="numpy" />
			<input>
				<port id="0" precision="I64">
					<dim>1</dim>
					<dim>1</dim>
					<dim>512</dim>
				</port>
				<port id="1" precision="I64">
					<dim>1</dim>
					<dim>1</dim>
					<dim>512</dim>
				</port>
			</input>
			<output>
				<port id="2" precision="I64" names="StatefulPartitionedCall/first_keras/add_5,StatefulPartitionedCall/first_keras/add_5:0">
					<dim>1</dim>
					<dim>1</dim>
					<dim>512</dim>
				</port>
			</output>
		</layer>
		<layer id="80" name="Constant_1675" type="Const" version="opset1">
			<data element_type="i64" shape="1" offset="3840004" size="8" />
			<output>
				<port id="0" precision="I64">
					<dim>1</dim>
				</port>
			</output>
		</layer>
		<layer id="81" name="StatefulPartitionedCall/first_keras/Reshape_14" type="Reshape" version="opset1">
			<data special_zero="false" />
			<input>
				<port id="0" precision="I64">
					<dim>1</dim>
					<dim>1</dim>
					<dim>512</dim>
				</port>
				<port id="1" precision="I64">
					<dim>1</dim>
				</port>
			</input>
			<output>
				<port id="2" precision="I64" names="StatefulPartitionedCall/first_keras/Reshape_14,StatefulPartitionedCall/first_keras/Reshape_14:0">
					<dim>512</dim>
				</port>
			</output>
		</layer>
		<layer id="82" name="StatefulPartitionedCall/first_keras/Gather_12/axis" type="Const" version="opset1">
			<data element_type="i64" shape="" offset="3840012" size="8" />
			<output>
				<port id="0" precision="I64" names="StatefulPartitionedCall/first_keras/Gather_12/axis,StatefulPartitionedCall/first_keras/Gather_12/axis:0" />
			</output>
		</layer>
		<layer id="83" name="StatefulPartitionedCall/first_keras/Gather_12" type="Gather" version="opset8">
			<data batch_dims="0" />
			<input>
				<port id="0" precision="I64">
					<dim>159232</dim>
				</port>
				<port id="1" precision="I64">
					<dim>512</dim>
				</port>
				<port id="2" precision="I64" />
			</input>
			<output>
				<port id="3" precision="I64" names="StatefulPartitionedCall/first_keras/Gather_12,StatefulPartitionedCall/first_keras/Gather_12:0,StatefulPartitionedCall/first_keras/Identity_12,StatefulPartitionedCall/first_keras/Identity_12:0">
					<dim>512</dim>
				</port>
			</output>
		</layer>
		<layer id="84" name="StatefulPartitionedCall/first_keras/Reshape_15/shape" type="Const" version="opset1">
			<data element_type="i32" shape="2" offset="3840020" size="8" />
			<output>
				<port id="0" precision="I32" names="StatefulPartitionedCall/first_keras/Reshape_15/shape,StatefulPartitionedCall/first_keras/Reshape_15/shape:0">
					<dim>2</dim>
				</port>
			</output>
		</layer>
		<layer id="85" name="StatefulPartitionedCall/first_keras/Reshape_15" type="Reshape" version="opset1">
			<data special_zero="false" />
			<input>
				<port id="0" precision="I64">
					<dim>512</dim>
				</port>
				<port id="1" precision="I32">
					<dim>2</dim>
				</port>
			</input>
			<output>
				<port id="2" precision="I64" names="StatefulPartitionedCall/first_keras/Reshape_15,StatefulPartitionedCall/first_keras/Reshape_15:0">
					<dim>1</dim>
					<dim>512</dim>
				</port>
			</output>
		</layer>
		<layer id="86" name="StatefulPartitionedCall/first_keras/GatherV2_3/axis" type="Const" version="opset1">
			<data element_type="i32" shape="" offset="3825664" size="4" />
			<output>
				<port id="0" precision="I32" names="StatefulPartitionedCall/first_keras/GatherV2_3/axis,StatefulPartitionedCall/first_keras/GatherV2_3/axis:0" />
			</output>
		</layer>
		<layer id="87" name="StatefulPartitionedCall/first_keras/GatherV2_3" type="Gather" version="opset8">
			<data batch_dims="0" />
			<input>
				<port id="0" precision="FP32">
					<dim>1</dim>
					<dim>8</dim>
				</port>
				<port id="1" precision="I64">
					<dim>1</dim>
					<dim>512</dim>
				</port>
				<port id="2" precision="I32" />
			</input>
			<output>
				<port id="3" precision="FP32" names="StatefulPartitionedCall/first_keras/GatherV2_3,StatefulPartitionedCall/first_keras/GatherV2_3:0">
					<dim>1</dim>
					<dim>1</dim>
					<dim>512</dim>
				</port>
			</output>
		</layer>
		<layer id="88" name="StatefulPartitionedCall/first_keras/Gather_13/axis" type="Const" version="opset1">
			<data element_type="i64" shape="" offset="3840012" size="8" />
			<output>
				<port id="0" precision="I64" names="StatefulPartitionedCall/first_keras/Gather_13/axis,StatefulPartitionedCall/first_keras/Gather_13/axis:0" />
			</output>
		</layer>
		<layer id="89" name="StatefulPartitionedCall/first_keras/Gather_13" type="Gather" version="opset8">
			<data batch_dims="0" />
			<input>
				<port id="0" precision="FP32">
					<dim>159232</dim>
				</port>
				<port id="1" precision="I64">
					<dim>512</dim>
				</port>
				<port id="2" precision="I64" />
			</input>
			<output>
				<port id="3" precision="FP32" names="StatefulPartitionedCall/first_keras/Gather_13,StatefulPartitionedCall/first_keras/Gather_13:0,StatefulPartitionedCall/first_keras/Identity_13,StatefulPartitionedCall/first_keras/Identity_13:0">
					<dim>512</dim>
				</port>
			</output>
		</layer>
		<layer id="90" name="StatefulPartitionedCall/first_keras/Reshape_16/shape" type="Const" version="opset1">
			<data element_type="i32" shape="2" offset="3840020" size="8" />
			<output>
				<port id="0" precision="I32" names="StatefulPartitionedCall/first_keras/Reshape_16/shape,StatefulPartitionedCall/first_keras/Reshape_16/shape:0">
					<dim>2</dim>
				</port>
			</output>
		</layer>
		<layer id="91" name="StatefulPartitionedCall/first_keras/Reshape_16" type="Reshape" version="opset1">
			<data special_zero="false" />
			<input>
				<port id="0" precision="FP32">
					<dim>512</dim>
				</port>
				<port id="1" precision="I32">
					<dim>2</dim>
				</port>
			</input>
			<output>
				<port id="2" precision="FP32" names="StatefulPartitionedCall/first_keras/Reshape_16,StatefulPartitionedCall/first_keras/Reshape_16:0">
					<dim>1</dim>
					<dim>512</dim>
				</port>
			</output>
		</layer>
		<layer id="92" name="StatefulPartitionedCall/first_keras/Less_3" type="Less" version="opset1">
			<data auto_broadcast="numpy" />
			<input>
				<port id="0" precision="FP32">
					<dim>1</dim>
					<dim>1</dim>
					<dim>512</dim>
				</port>
				<port id="1" precision="FP32">
					<dim>1</dim>
					<dim>512</dim>
				</port>
			</input>
			<output>
				<port id="2" precision="BOOL" names="StatefulPartitionedCall/first_keras/Less_3,StatefulPartitionedCall/first_keras/Less_3:0">
					<dim>1</dim>
					<dim>1</dim>
					<dim>512</dim>
				</port>
			</output>
		</layer>
		<layer id="93" name="StatefulPartitionedCall/first_keras/Cast_9" type="Convert" version="opset1">
			<data destination_type="f32" />
			<input>
				<port id="0" precision="BOOL">
					<dim>1</dim>
					<dim>1</dim>
					<dim>512</dim>
				</port>
			</input>
			<output>
				<port id="1" precision="FP32" names="StatefulPartitionedCall/first_keras/Cast_9,StatefulPartitionedCall/first_keras/Cast_9:0">
					<dim>1</dim>
					<dim>1</dim>
					<dim>512</dim>
				</port>
			</output>
		</layer>
		<layer id="94" name="StatefulPartitionedCall/first_keras/Equal_3" type="Equal" version="opset1">
			<data auto_broadcast="numpy" />
			<input>
				<port id="0" precision="FP32">
					<dim>1</dim>
					<dim>1</dim>
					<dim>512</dim>
				</port>
				<port id="1" precision="FP32">
					<dim>1</dim>
					<dim>512</dim>
				</port>
			</input>
			<output>
				<port id="2" precision="BOOL" names="StatefulPartitionedCall/first_keras/Equal_3,StatefulPartitionedCall/first_keras/Equal_3:0">
					<dim>1</dim>
					<dim>1</dim>
					<dim>512</dim>
				</port>
			</output>
		</layer>
		<layer id="95" name="StatefulPartitionedCall/first_keras/Cast_10" type="Convert" version="opset1">
			<data destination_type="f32" />
			<input>
				<port id="0" precision="BOOL">
					<dim>1</dim>
					<dim>1</dim>
					<dim>512</dim>
				</port>
			</input>
			<output>
				<port id="1" precision="FP32" names="StatefulPartitionedCall/first_keras/Cast_10,StatefulPartitionedCall/first_keras/Cast_10:0">
					<dim>1</dim>
					<dim>1</dim>
					<dim>512</dim>
				</port>
			</output>
		</layer>
		<layer id="96" name="StatefulPartitionedCall/first_keras/Add_6" type="Add" version="opset1">
			<data auto_broadcast="numpy" />
			<input>
				<port id="0" precision="FP32">
					<dim>1</dim>
					<dim>1</dim>
					<dim>512</dim>
				</port>
				<port id="1" precision="FP32">
					<dim>1</dim>
					<dim>1</dim>
					<dim>512</dim>
				</port>
			</input>
			<output>
				<port id="2" precision="FP32" names="StatefulPartitionedCall/first_keras/Add_6,StatefulPartitionedCall/first_keras/Add_6:0">
					<dim>1</dim>
					<dim>1</dim>
					<dim>512</dim>
				</port>
			</output>
		</layer>
		<layer id="97" name="StatefulPartitionedCall/first_keras/Cast_11" type="Convert" version="opset1">
			<data destination_type="boolean" />
			<input>
				<port id="0" precision="FP32">
					<dim>1</dim>
					<dim>1</dim>
					<dim>512</dim>
				</port>
			</input>
			<output>
				<port id="1" precision="BOOL" names="StatefulPartitionedCall/first_keras/Cast_11,StatefulPartitionedCall/first_keras/Cast_11:0">
					<dim>1</dim>
					<dim>1</dim>
					<dim>512</dim>
				</port>
			</output>
		</layer>
		<layer id="98" name="StatefulPartitionedCall/first_keras/Gather_14/axis" type="Const" version="opset1">
			<data element_type="i64" shape="" offset="3840012" size="8" />
			<output>
				<port id="0" precision="I64" names="StatefulPartitionedCall/first_keras/Gather_14/axis,StatefulPartitionedCall/first_keras/Gather_14/axis:0" />
			</output>
		</layer>
		<layer id="99" name="StatefulPartitionedCall/first_keras/Gather_14" type="Gather" version="opset8">
			<data batch_dims="0" />
			<input>
				<port id="0" precision="I64">
					<dim>159232</dim>
				</port>
				<port id="1" precision="I64">
					<dim>512</dim>
				</port>
				<port id="2" precision="I64" />
			</input>
			<output>
				<port id="3" precision="I64" names="StatefulPartitionedCall/first_keras/Gather_14,StatefulPartitionedCall/first_keras/Gather_14:0,StatefulPartitionedCall/first_keras/Identity_14,StatefulPartitionedCall/first_keras/Identity_14:0">
					<dim>512</dim>
				</port>
			</output>
		</layer>
		<layer id="100" name="StatefulPartitionedCall/first_keras/Reshape_17/shape" type="Const" version="opset1">
			<data element_type="i32" shape="2" offset="3840020" size="8" />
			<output>
				<port id="0" precision="I32" names="StatefulPartitionedCall/first_keras/Reshape_17/shape,StatefulPartitionedCall/first_keras/Reshape_17/shape:0">
					<dim>2</dim>
				</port>
			</output>
		</layer>
		<layer id="101" name="StatefulPartitionedCall/first_keras/Reshape_17" type="Reshape" version="opset1">
			<data special_zero="false" />
			<input>
				<port id="0" precision="I64">
					<dim>512</dim>
				</port>
				<port id="1" precision="I32">
					<dim>2</dim>
				</port>
			</input>
			<output>
				<port id="2" precision="I64" names="StatefulPartitionedCall/first_keras/Reshape_17,StatefulPartitionedCall/first_keras/Reshape_17:0">
					<dim>1</dim>
					<dim>512</dim>
				</port>
			</output>
		</layer>
		<layer id="102" name="StatefulPartitionedCall/first_keras/Gather_15/axis" type="Const" version="opset1">
			<data element_type="i64" shape="" offset="3840012" size="8" />
			<output>
				<port id="0" precision="I64" names="StatefulPartitionedCall/first_keras/Gather_15/axis,StatefulPartitionedCall/first_keras/Gather_15/axis:0" />
			</output>
		</layer>
		<layer id="103" name="StatefulPartitionedCall/first_keras/Gather_15" type="Gather" version="opset8">
			<data batch_dims="0" />
			<input>
				<port id="0" precision="I64">
					<dim>159232</dim>
				</port>
				<port id="1" precision="I64">
					<dim>512</dim>
				</port>
				<port id="2" precision="I64" />
			</input>
			<output>
				<port id="3" precision="I64" names="StatefulPartitionedCall/first_keras/Gather_15,StatefulPartitionedCall/first_keras/Gather_15:0,StatefulPartitionedCall/first_keras/Identity_15,StatefulPartitionedCall/first_keras/Identity_15:0">
					<dim>512</dim>
				</port>
			</output>
		</layer>
		<layer id="104" name="StatefulPartitionedCall/first_keras/Reshape_18/shape" type="Const" version="opset1">
			<data element_type="i32" shape="2" offset="3840020" size="8" />
			<output>
				<port id="0" precision="I32" names="StatefulPartitionedCall/first_keras/Reshape_18/shape,StatefulPartitionedCall/first_keras/Reshape_18/shape:0">
					<dim>2</dim>
				</port>
			</output>
		</layer>
		<layer id="105" name="StatefulPartitionedCall/first_keras/Reshape_18" type="Reshape" version="opset1">
			<data special_zero="false" />
			<input>
				<port id="0" precision="I64">
					<dim>512</dim>
				</port>
				<port id="1" precision="I32">
					<dim>2</dim>
				</port>
			</input>
			<output>
				<port id="2" precision="I64" names="StatefulPartitionedCall/first_keras/Reshape_18,StatefulPartitionedCall/first_keras/Reshape_18:0">
					<dim>1</dim>
					<dim>512</dim>
				</port>
			</output>
		</layer>
		<layer id="106" name="StatefulPartitionedCall/first_keras/SelectV2_3" type="Select" version="opset1">
			<data auto_broadcast="numpy" />
			<input>
				<port id="0" precision="BOOL">
					<dim>1</dim>
					<dim>1</dim>
					<dim>512</dim>
				</port>
				<port id="1" precision="I64">
					<dim>1</dim>
					<dim>512</dim>
				</port>
				<port id="2" precision="I64">
					<dim>1</dim>
					<dim>512</dim>
				</port>
			</input>
			<output>
				<port id="3" precision="I64" names="StatefulPartitionedCall/first_keras/SelectV2_3,StatefulPartitionedCall/first_keras/SelectV2_3:0">
					<dim>1</dim>
					<dim>1</dim>
					<dim>512</dim>
				</port>
			</output>
		</layer>
		<layer id="107" name="Constant_3673" type="Const" version="opset1">
			<data element_type="i64" shape="1, 1, 512" offset="3835908" size="4096" />
			<output>
				<port id="0" precision="I64">
					<dim>1</dim>
					<dim>1</dim>
					<dim>512</dim>
				</port>
			</output>
		</layer>
		<layer id="108" name="StatefulPartitionedCall/first_keras/add_7" type="Add" version="opset1">
			<data auto_broadcast="numpy" />
			<input>
				<port id="0" precision="I64">
					<dim>1</dim>
					<dim>1</dim>
					<dim>512</dim>
				</port>
				<port id="1" precision="I64">
					<dim>1</dim>
					<dim>1</dim>
					<dim>512</dim>
				</port>
			</input>
			<output>
				<port id="2" precision="I64" names="StatefulPartitionedCall/first_keras/add_7,StatefulPartitionedCall/first_keras/add_7:0">
					<dim>1</dim>
					<dim>1</dim>
					<dim>512</dim>
				</port>
			</output>
		</layer>
		<layer id="109" name="Constant_1676" type="Const" version="opset1">
			<data element_type="i64" shape="1" offset="3840004" size="8" />
			<output>
				<port id="0" precision="I64">
					<dim>1</dim>
				</port>
			</output>
		</layer>
		<layer id="110" name="StatefulPartitionedCall/first_keras/Reshape_19" type="Reshape" version="opset1">
			<data special_zero="false" />
			<input>
				<port id="0" precision="I64">
					<dim>1</dim>
					<dim>1</dim>
					<dim>512</dim>
				</port>
				<port id="1" precision="I64">
					<dim>1</dim>
				</port>
			</input>
			<output>
				<port id="2" precision="I64" names="StatefulPartitionedCall/first_keras/Reshape_19,StatefulPartitionedCall/first_keras/Reshape_19:0">
					<dim>512</dim>
				</port>
			</output>
		</layer>
		<layer id="111" name="StatefulPartitionedCall/first_keras/Gather_16/axis" type="Const" version="opset1">
			<data element_type="i64" shape="" offset="3840012" size="8" />
			<output>
				<port id="0" precision="I64" names="StatefulPartitionedCall/first_keras/Gather_16/axis,StatefulPartitionedCall/first_keras/Gather_16/axis:0" />
			</output>
		</layer>
		<layer id="112" name="StatefulPartitionedCall/first_keras/Gather_16" type="Gather" version="opset8">
			<data batch_dims="0" />
			<input>
				<port id="0" precision="I64">
					<dim>159232</dim>
				</port>
				<port id="1" precision="I64">
					<dim>512</dim>
				</port>
				<port id="2" precision="I64" />
			</input>
			<output>
				<port id="3" precision="I64" names="StatefulPartitionedCall/first_keras/Gather_16,StatefulPartitionedCall/first_keras/Gather_16:0,StatefulPartitionedCall/first_keras/Identity_16,StatefulPartitionedCall/first_keras/Identity_16:0">
					<dim>512</dim>
				</port>
			</output>
		</layer>
		<layer id="113" name="StatefulPartitionedCall/first_keras/Reshape_20/shape" type="Const" version="opset1">
			<data element_type="i32" shape="2" offset="3840020" size="8" />
			<output>
				<port id="0" precision="I32" names="StatefulPartitionedCall/first_keras/Reshape_20/shape,StatefulPartitionedCall/first_keras/Reshape_20/shape:0">
					<dim>2</dim>
				</port>
			</output>
		</layer>
		<layer id="114" name="StatefulPartitionedCall/first_keras/Reshape_20" type="Reshape" version="opset1">
			<data special_zero="false" />
			<input>
				<port id="0" precision="I64">
					<dim>512</dim>
				</port>
				<port id="1" precision="I32">
					<dim>2</dim>
				</port>
			</input>
			<output>
				<port id="2" precision="I64" names="StatefulPartitionedCall/first_keras/Reshape_20,StatefulPartitionedCall/first_keras/Reshape_20:0">
					<dim>1</dim>
					<dim>512</dim>
				</port>
			</output>
		</layer>
		<layer id="115" name="StatefulPartitionedCall/first_keras/GatherV2_4/axis" type="Const" version="opset1">
			<data element_type="i32" shape="" offset="3825664" size="4" />
			<output>
				<port id="0" precision="I32" names="StatefulPartitionedCall/first_keras/GatherV2_4/axis,StatefulPartitionedCall/first_keras/GatherV2_4/axis:0" />
			</output>
		</layer>
		<layer id="116" name="StatefulPartitionedCall/first_keras/GatherV2_4" type="Gather" version="opset8">
			<data batch_dims="0" />
			<input>
				<port id="0" precision="FP32">
					<dim>1</dim>
					<dim>8</dim>
				</port>
				<port id="1" precision="I64">
					<dim>1</dim>
					<dim>512</dim>
				</port>
				<port id="2" precision="I32" />
			</input>
			<output>
				<port id="3" precision="FP32" names="StatefulPartitionedCall/first_keras/GatherV2_4,StatefulPartitionedCall/first_keras/GatherV2_4:0">
					<dim>1</dim>
					<dim>1</dim>
					<dim>512</dim>
				</port>
			</output>
		</layer>
		<layer id="117" name="StatefulPartitionedCall/first_keras/Gather_17/axis" type="Const" version="opset1">
			<data element_type="i64" shape="" offset="3840012" size="8" />
			<output>
				<port id="0" precision="I64" names="StatefulPartitionedCall/first_keras/Gather_17/axis,StatefulPartitionedCall/first_keras/Gather_17/axis:0" />
			</output>
		</layer>
		<layer id="118" name="StatefulPartitionedCall/first_keras/Gather_17" type="Gather" version="opset8">
			<data batch_dims="0" />
			<input>
				<port id="0" precision="FP32">
					<dim>159232</dim>
				</port>
				<port id="1" precision="I64">
					<dim>512</dim>
				</port>
				<port id="2" precision="I64" />
			</input>
			<output>
				<port id="3" precision="FP32" names="StatefulPartitionedCall/first_keras/Gather_17,StatefulPartitionedCall/first_keras/Gather_17:0,StatefulPartitionedCall/first_keras/Identity_17,StatefulPartitionedCall/first_keras/Identity_17:0">
					<dim>512</dim>
				</port>
			</output>
		</layer>
		<layer id="119" name="StatefulPartitionedCall/first_keras/Reshape_21/shape" type="Const" version="opset1">
			<data element_type="i32" shape="2" offset="3840020" size="8" />
			<output>
				<port id="0" precision="I32" names="StatefulPartitionedCall/first_keras/Reshape_21/shape,StatefulPartitionedCall/first_keras/Reshape_21/shape:0">
					<dim>2</dim>
				</port>
			</output>
		</layer>
		<layer id="120" name="StatefulPartitionedCall/first_keras/Reshape_21" type="Reshape" version="opset1">
			<data special_zero="false" />
			<input>
				<port id="0" precision="FP32">
					<dim>512</dim>
				</port>
				<port id="1" precision="I32">
					<dim>2</dim>
				</port>
			</input>
			<output>
				<port id="2" precision="FP32" names="StatefulPartitionedCall/first_keras/Reshape_21,StatefulPartitionedCall/first_keras/Reshape_21:0">
					<dim>1</dim>
					<dim>512</dim>
				</port>
			</output>
		</layer>
		<layer id="121" name="StatefulPartitionedCall/first_keras/Less_4" type="Less" version="opset1">
			<data auto_broadcast="numpy" />
			<input>
				<port id="0" precision="FP32">
					<dim>1</dim>
					<dim>1</dim>
					<dim>512</dim>
				</port>
				<port id="1" precision="FP32">
					<dim>1</dim>
					<dim>512</dim>
				</port>
			</input>
			<output>
				<port id="2" precision="BOOL" names="StatefulPartitionedCall/first_keras/Less_4,StatefulPartitionedCall/first_keras/Less_4:0">
					<dim>1</dim>
					<dim>1</dim>
					<dim>512</dim>
				</port>
			</output>
		</layer>
		<layer id="122" name="StatefulPartitionedCall/first_keras/Cast_12" type="Convert" version="opset1">
			<data destination_type="f32" />
			<input>
				<port id="0" precision="BOOL">
					<dim>1</dim>
					<dim>1</dim>
					<dim>512</dim>
				</port>
			</input>
			<output>
				<port id="1" precision="FP32" names="StatefulPartitionedCall/first_keras/Cast_12,StatefulPartitionedCall/first_keras/Cast_12:0">
					<dim>1</dim>
					<dim>1</dim>
					<dim>512</dim>
				</port>
			</output>
		</layer>
		<layer id="123" name="StatefulPartitionedCall/first_keras/Equal_4" type="Equal" version="opset1">
			<data auto_broadcast="numpy" />
			<input>
				<port id="0" precision="FP32">
					<dim>1</dim>
					<dim>1</dim>
					<dim>512</dim>
				</port>
				<port id="1" precision="FP32">
					<dim>1</dim>
					<dim>512</dim>
				</port>
			</input>
			<output>
				<port id="2" precision="BOOL" names="StatefulPartitionedCall/first_keras/Equal_4,StatefulPartitionedCall/first_keras/Equal_4:0">
					<dim>1</dim>
					<dim>1</dim>
					<dim>512</dim>
				</port>
			</output>
		</layer>
		<layer id="124" name="StatefulPartitionedCall/first_keras/Cast_13" type="Convert" version="opset1">
			<data destination_type="f32" />
			<input>
				<port id="0" precision="BOOL">
					<dim>1</dim>
					<dim>1</dim>
					<dim>512</dim>
				</port>
			</input>
			<output>
				<port id="1" precision="FP32" names="StatefulPartitionedCall/first_keras/Cast_13,StatefulPartitionedCall/first_keras/Cast_13:0">
					<dim>1</dim>
					<dim>1</dim>
					<dim>512</dim>
				</port>
			</output>
		</layer>
		<layer id="125" name="StatefulPartitionedCall/first_keras/Add_8" type="Add" version="opset1">
			<data auto_broadcast="numpy" />
			<input>
				<port id="0" precision="FP32">
					<dim>1</dim>
					<dim>1</dim>
					<dim>512</dim>
				</port>
				<port id="1" precision="FP32">
					<dim>1</dim>
					<dim>1</dim>
					<dim>512</dim>
				</port>
			</input>
			<output>
				<port id="2" precision="FP32" names="StatefulPartitionedCall/first_keras/Add_8,StatefulPartitionedCall/first_keras/Add_8:0">
					<dim>1</dim>
					<dim>1</dim>
					<dim>512</dim>
				</port>
			</output>
		</layer>
		<layer id="126" name="StatefulPartitionedCall/first_keras/Cast_14" type="Convert" version="opset1">
			<data destination_type="boolean" />
			<input>
				<port id="0" precision="FP32">
					<dim>1</dim>
					<dim>1</dim>
					<dim>512</dim>
				</port>
			</input>
			<output>
				<port id="1" precision="BOOL" names="StatefulPartitionedCall/first_keras/Cast_14,StatefulPartitionedCall/first_keras/Cast_14:0">
					<dim>1</dim>
					<dim>1</dim>
					<dim>512</dim>
				</port>
			</output>
		</layer>
		<layer id="127" name="StatefulPartitionedCall/first_keras/Gather_18/axis" type="Const" version="opset1">
			<data element_type="i64" shape="" offset="3840012" size="8" />
			<output>
				<port id="0" precision="I64" names="StatefulPartitionedCall/first_keras/Gather_18/axis,StatefulPartitionedCall/first_keras/Gather_18/axis:0" />
			</output>
		</layer>
		<layer id="128" name="StatefulPartitionedCall/first_keras/Gather_18" type="Gather" version="opset8">
			<data batch_dims="0" />
			<input>
				<port id="0" precision="I64">
					<dim>159232</dim>
				</port>
				<port id="1" precision="I64">
					<dim>512</dim>
				</port>
				<port id="2" precision="I64" />
			</input>
			<output>
				<port id="3" precision="I64" names="StatefulPartitionedCall/first_keras/Gather_18,StatefulPartitionedCall/first_keras/Gather_18:0,StatefulPartitionedCall/first_keras/Identity_18,StatefulPartitionedCall/first_keras/Identity_18:0">
					<dim>512</dim>
				</port>
			</output>
		</layer>
		<layer id="129" name="StatefulPartitionedCall/first_keras/Reshape_22/shape" type="Const" version="opset1">
			<data element_type="i32" shape="2" offset="3840020" size="8" />
			<output>
				<port id="0" precision="I32" names="StatefulPartitionedCall/first_keras/Reshape_22/shape,StatefulPartitionedCall/first_keras/Reshape_22/shape:0">
					<dim>2</dim>
				</port>
			</output>
		</layer>
		<layer id="130" name="StatefulPartitionedCall/first_keras/Reshape_22" type="Reshape" version="opset1">
			<data special_zero="false" />
			<input>
				<port id="0" precision="I64">
					<dim>512</dim>
				</port>
				<port id="1" precision="I32">
					<dim>2</dim>
				</port>
			</input>
			<output>
				<port id="2" precision="I64" names="StatefulPartitionedCall/first_keras/Reshape_22,StatefulPartitionedCall/first_keras/Reshape_22:0">
					<dim>1</dim>
					<dim>512</dim>
				</port>
			</output>
		</layer>
		<layer id="131" name="StatefulPartitionedCall/first_keras/Gather_19/axis" type="Const" version="opset1">
			<data element_type="i64" shape="" offset="3840012" size="8" />
			<output>
				<port id="0" precision="I64" names="StatefulPartitionedCall/first_keras/Gather_19/axis,StatefulPartitionedCall/first_keras/Gather_19/axis:0" />
			</output>
		</layer>
		<layer id="132" name="StatefulPartitionedCall/first_keras/Gather_19" type="Gather" version="opset8">
			<data batch_dims="0" />
			<input>
				<port id="0" precision="I64">
					<dim>159232</dim>
				</port>
				<port id="1" precision="I64">
					<dim>512</dim>
				</port>
				<port id="2" precision="I64" />
			</input>
			<output>
				<port id="3" precision="I64" names="StatefulPartitionedCall/first_keras/Gather_19,StatefulPartitionedCall/first_keras/Gather_19:0,StatefulPartitionedCall/first_keras/Identity_19,StatefulPartitionedCall/first_keras/Identity_19:0">
					<dim>512</dim>
				</port>
			</output>
		</layer>
		<layer id="133" name="StatefulPartitionedCall/first_keras/Reshape_23/shape" type="Const" version="opset1">
			<data element_type="i32" shape="2" offset="3840020" size="8" />
			<output>
				<port id="0" precision="I32" names="StatefulPartitionedCall/first_keras/Reshape_23/shape,StatefulPartitionedCall/first_keras/Reshape_23/shape:0">
					<dim>2</dim>
				</port>
			</output>
		</layer>
		<layer id="134" name="StatefulPartitionedCall/first_keras/Reshape_23" type="Reshape" version="opset1">
			<data special_zero="false" />
			<input>
				<port id="0" precision="I64">
					<dim>512</dim>
				</port>
				<port id="1" precision="I32">
					<dim>2</dim>
				</port>
			</input>
			<output>
				<port id="2" precision="I64" names="StatefulPartitionedCall/first_keras/Reshape_23,StatefulPartitionedCall/first_keras/Reshape_23:0">
					<dim>1</dim>
					<dim>512</dim>
				</port>
			</output>
		</layer>
		<layer id="135" name="StatefulPartitionedCall/first_keras/SelectV2_4" type="Select" version="opset1">
			<data auto_broadcast="numpy" />
			<input>
				<port id="0" precision="BOOL">
					<dim>1</dim>
					<dim>1</dim>
					<dim>512</dim>
				</port>
				<port id="1" precision="I64">
					<dim>1</dim>
					<dim>512</dim>
				</port>
				<port id="2" precision="I64">
					<dim>1</dim>
					<dim>512</dim>
				</port>
			</input>
			<output>
				<port id="3" precision="I64" names="StatefulPartitionedCall/first_keras/SelectV2_4,StatefulPartitionedCall/first_keras/SelectV2_4:0">
					<dim>1</dim>
					<dim>1</dim>
					<dim>512</dim>
				</port>
			</output>
		</layer>
		<layer id="136" name="Constant_3674" type="Const" version="opset1">
			<data element_type="i64" shape="1, 1, 512" offset="3835908" size="4096" />
			<output>
				<port id="0" precision="I64">
					<dim>1</dim>
					<dim>1</dim>
					<dim>512</dim>
				</port>
			</output>
		</layer>
		<layer id="137" name="StatefulPartitionedCall/first_keras/add_9" type="Add" version="opset1">
			<data auto_broadcast="numpy" />
			<input>
				<port id="0" precision="I64">
					<dim>1</dim>
					<dim>1</dim>
					<dim>512</dim>
				</port>
				<port id="1" precision="I64">
					<dim>1</dim>
					<dim>1</dim>
					<dim>512</dim>
				</port>
			</input>
			<output>
				<port id="2" precision="I64" names="StatefulPartitionedCall/first_keras/add_9,StatefulPartitionedCall/first_keras/add_9:0">
					<dim>1</dim>
					<dim>1</dim>
					<dim>512</dim>
				</port>
			</output>
		</layer>
		<layer id="138" name="Constant_1677" type="Const" version="opset1">
			<data element_type="i64" shape="1" offset="3840004" size="8" />
			<output>
				<port id="0" precision="I64">
					<dim>1</dim>
				</port>
			</output>
		</layer>
		<layer id="139" name="StatefulPartitionedCall/first_keras/Reshape_24" type="Reshape" version="opset1">
			<data special_zero="false" />
			<input>
				<port id="0" precision="I64">
					<dim>1</dim>
					<dim>1</dim>
					<dim>512</dim>
				</port>
				<port id="1" precision="I64">
					<dim>1</dim>
				</port>
			</input>
			<output>
				<port id="2" precision="I64" names="StatefulPartitionedCall/first_keras/Reshape_24,StatefulPartitionedCall/first_keras/Reshape_24:0">
					<dim>512</dim>
				</port>
			</output>
		</layer>
		<layer id="140" name="StatefulPartitionedCall/first_keras/Gather_20/axis" type="Const" version="opset1">
			<data element_type="i64" shape="" offset="3840012" size="8" />
			<output>
				<port id="0" precision="I64" names="StatefulPartitionedCall/first_keras/Gather_20/axis,StatefulPartitionedCall/first_keras/Gather_20/axis:0" />
			</output>
		</layer>
		<layer id="141" name="StatefulPartitionedCall/first_keras/Gather_20" type="Gather" version="opset8">
			<data batch_dims="0" />
			<input>
				<port id="0" precision="I64">
					<dim>159232</dim>
				</port>
				<port id="1" precision="I64">
					<dim>512</dim>
				</port>
				<port id="2" precision="I64" />
			</input>
			<output>
				<port id="3" precision="I64" names="StatefulPartitionedCall/first_keras/Gather_20,StatefulPartitionedCall/first_keras/Gather_20:0,StatefulPartitionedCall/first_keras/Identity_20,StatefulPartitionedCall/first_keras/Identity_20:0">
					<dim>512</dim>
				</port>
			</output>
		</layer>
		<layer id="142" name="StatefulPartitionedCall/first_keras/Reshape_25/shape" type="Const" version="opset1">
			<data element_type="i32" shape="2" offset="3840020" size="8" />
			<output>
				<port id="0" precision="I32" names="StatefulPartitionedCall/first_keras/Reshape_25/shape,StatefulPartitionedCall/first_keras/Reshape_25/shape:0">
					<dim>2</dim>
				</port>
			</output>
		</layer>
		<layer id="143" name="StatefulPartitionedCall/first_keras/Reshape_25" type="Reshape" version="opset1">
			<data special_zero="false" />
			<input>
				<port id="0" precision="I64">
					<dim>512</dim>
				</port>
				<port id="1" precision="I32">
					<dim>2</dim>
				</port>
			</input>
			<output>
				<port id="2" precision="I64" names="StatefulPartitionedCall/first_keras/Reshape_25,StatefulPartitionedCall/first_keras/Reshape_25:0">
					<dim>1</dim>
					<dim>512</dim>
				</port>
			</output>
		</layer>
		<layer id="144" name="StatefulPartitionedCall/first_keras/GatherV2_5/axis" type="Const" version="opset1">
			<data element_type="i32" shape="" offset="3825664" size="4" />
			<output>
				<port id="0" precision="I32" names="StatefulPartitionedCall/first_keras/GatherV2_5/axis,StatefulPartitionedCall/first_keras/GatherV2_5/axis:0" />
			</output>
		</layer>
		<layer id="145" name="StatefulPartitionedCall/first_keras/GatherV2_5" type="Gather" version="opset8">
			<data batch_dims="0" />
			<input>
				<port id="0" precision="FP32">
					<dim>1</dim>
					<dim>8</dim>
				</port>
				<port id="1" precision="I64">
					<dim>1</dim>
					<dim>512</dim>
				</port>
				<port id="2" precision="I32" />
			</input>
			<output>
				<port id="3" precision="FP32" names="StatefulPartitionedCall/first_keras/GatherV2_5,StatefulPartitionedCall/first_keras/GatherV2_5:0">
					<dim>1</dim>
					<dim>1</dim>
					<dim>512</dim>
				</port>
			</output>
		</layer>
		<layer id="146" name="StatefulPartitionedCall/first_keras/Gather_21/axis" type="Const" version="opset1">
			<data element_type="i64" shape="" offset="3840012" size="8" />
			<output>
				<port id="0" precision="I64" names="StatefulPartitionedCall/first_keras/Gather_21/axis,StatefulPartitionedCall/first_keras/Gather_21/axis:0" />
			</output>
		</layer>
		<layer id="147" name="StatefulPartitionedCall/first_keras/Gather_21" type="Gather" version="opset8">
			<data batch_dims="0" />
			<input>
				<port id="0" precision="FP32">
					<dim>159232</dim>
				</port>
				<port id="1" precision="I64">
					<dim>512</dim>
				</port>
				<port id="2" precision="I64" />
			</input>
			<output>
				<port id="3" precision="FP32" names="StatefulPartitionedCall/first_keras/Gather_21,StatefulPartitionedCall/first_keras/Gather_21:0,StatefulPartitionedCall/first_keras/Identity_21,StatefulPartitionedCall/first_keras/Identity_21:0">
					<dim>512</dim>
				</port>
			</output>
		</layer>
		<layer id="148" name="StatefulPartitionedCall/first_keras/Reshape_26/shape" type="Const" version="opset1">
			<data element_type="i32" shape="2" offset="3840020" size="8" />
			<output>
				<port id="0" precision="I32" names="StatefulPartitionedCall/first_keras/Reshape_26/shape,StatefulPartitionedCall/first_keras/Reshape_26/shape:0">
					<dim>2</dim>
				</port>
			</output>
		</layer>
		<layer id="149" name="StatefulPartitionedCall/first_keras/Reshape_26" type="Reshape" version="opset1">
			<data special_zero="false" />
			<input>
				<port id="0" precision="FP32">
					<dim>512</dim>
				</port>
				<port id="1" precision="I32">
					<dim>2</dim>
				</port>
			</input>
			<output>
				<port id="2" precision="FP32" names="StatefulPartitionedCall/first_keras/Reshape_26,StatefulPartitionedCall/first_keras/Reshape_26:0">
					<dim>1</dim>
					<dim>512</dim>
				</port>
			</output>
		</layer>
		<layer id="150" name="StatefulPartitionedCall/first_keras/Less_5" type="Less" version="opset1">
			<data auto_broadcast="numpy" />
			<input>
				<port id="0" precision="FP32">
					<dim>1</dim>
					<dim>1</dim>
					<dim>512</dim>
				</port>
				<port id="1" precision="FP32">
					<dim>1</dim>
					<dim>512</dim>
				</port>
			</input>
			<output>
				<port id="2" precision="BOOL" names="StatefulPartitionedCall/first_keras/Less_5,StatefulPartitionedCall/first_keras/Less_5:0">
					<dim>1</dim>
					<dim>1</dim>
					<dim>512</dim>
				</port>
			</output>
		</layer>
		<layer id="151" name="StatefulPartitionedCall/first_keras/Cast_15" type="Convert" version="opset1">
			<data destination_type="f32" />
			<input>
				<port id="0" precision="BOOL">
					<dim>1</dim>
					<dim>1</dim>
					<dim>512</dim>
				</port>
			</input>
			<output>
				<port id="1" precision="FP32" names="StatefulPartitionedCall/first_keras/Cast_15,StatefulPartitionedCall/first_keras/Cast_15:0">
					<dim>1</dim>
					<dim>1</dim>
					<dim>512</dim>
				</port>
			</output>
		</layer>
		<layer id="152" name="StatefulPartitionedCall/first_keras/Equal_5" type="Equal" version="opset1">
			<data auto_broadcast="numpy" />
			<input>
				<port id="0" precision="FP32">
					<dim>1</dim>
					<dim>1</dim>
					<dim>512</dim>
				</port>
				<port id="1" precision="FP32">
					<dim>1</dim>
					<dim>512</dim>
				</port>
			</input>
			<output>
				<port id="2" precision="BOOL" names="StatefulPartitionedCall/first_keras/Equal_5,StatefulPartitionedCall/first_keras/Equal_5:0">
					<dim>1</dim>
					<dim>1</dim>
					<dim>512</dim>
				</port>
			</output>
		</layer>
		<layer id="153" name="StatefulPartitionedCall/first_keras/Cast_16" type="Convert" version="opset1">
			<data destination_type="f32" />
			<input>
				<port id="0" precision="BOOL">
					<dim>1</dim>
					<dim>1</dim>
					<dim>512</dim>
				</port>
			</input>
			<output>
				<port id="1" precision="FP32" names="StatefulPartitionedCall/first_keras/Cast_16,StatefulPartitionedCall/first_keras/Cast_16:0">
					<dim>1</dim>
					<dim>1</dim>
					<dim>512</dim>
				</port>
			</output>
		</layer>
		<layer id="154" name="StatefulPartitionedCall/first_keras/Add_10" type="Add" version="opset1">
			<data auto_broadcast="numpy" />
			<input>
				<port id="0" precision="FP32">
					<dim>1</dim>
					<dim>1</dim>
					<dim>512</dim>
				</port>
				<port id="1" precision="FP32">
					<dim>1</dim>
					<dim>1</dim>
					<dim>512</dim>
				</port>
			</input>
			<output>
				<port id="2" precision="FP32" names="StatefulPartitionedCall/first_keras/Add_10,StatefulPartitionedCall/first_keras/Add_10:0">
					<dim>1</dim>
					<dim>1</dim>
					<dim>512</dim>
				</port>
			</output>
		</layer>
		<layer id="155" name="StatefulPartitionedCall/first_keras/Cast_17" type="Convert" version="opset1">
			<data destination_type="boolean" />
			<input>
				<port id="0" precision="FP32">
					<dim>1</dim>
					<dim>1</dim>
					<dim>512</dim>
				</port>
			</input>
			<output>
				<port id="1" precision="BOOL" names="StatefulPartitionedCall/first_keras/Cast_17,StatefulPartitionedCall/first_keras/Cast_17:0">
					<dim>1</dim>
					<dim>1</dim>
					<dim>512</dim>
				</port>
			</output>
		</layer>
		<layer id="156" name="StatefulPartitionedCall/first_keras/Gather_22/axis" type="Const" version="opset1">
			<data element_type="i64" shape="" offset="3840012" size="8" />
			<output>
				<port id="0" precision="I64" names="StatefulPartitionedCall/first_keras/Gather_22/axis,StatefulPartitionedCall/first_keras/Gather_22/axis:0" />
			</output>
		</layer>
		<layer id="157" name="StatefulPartitionedCall/first_keras/Gather_22" type="Gather" version="opset8">
			<data batch_dims="0" />
			<input>
				<port id="0" precision="I64">
					<dim>159232</dim>
				</port>
				<port id="1" precision="I64">
					<dim>512</dim>
				</port>
				<port id="2" precision="I64" />
			</input>
			<output>
				<port id="3" precision="I64" names="StatefulPartitionedCall/first_keras/Gather_22,StatefulPartitionedCall/first_keras/Gather_22:0,StatefulPartitionedCall/first_keras/Identity_22,StatefulPartitionedCall/first_keras/Identity_22:0">
					<dim>512</dim>
				</port>
			</output>
		</layer>
		<layer id="158" name="StatefulPartitionedCall/first_keras/Reshape_27/shape" type="Const" version="opset1">
			<data element_type="i32" shape="2" offset="3840020" size="8" />
			<output>
				<port id="0" precision="I32" names="StatefulPartitionedCall/first_keras/Reshape_27/shape,StatefulPartitionedCall/first_keras/Reshape_27/shape:0">
					<dim>2</dim>
				</port>
			</output>
		</layer>
		<layer id="159" name="StatefulPartitionedCall/first_keras/Reshape_27" type="Reshape" version="opset1">
			<data special_zero="false" />
			<input>
				<port id="0" precision="I64">
					<dim>512</dim>
				</port>
				<port id="1" precision="I32">
					<dim>2</dim>
				</port>
			</input>
			<output>
				<port id="2" precision="I64" names="StatefulPartitionedCall/first_keras/Reshape_27,StatefulPartitionedCall/first_keras/Reshape_27:0">
					<dim>1</dim>
					<dim>512</dim>
				</port>
			</output>
		</layer>
		<layer id="160" name="StatefulPartitionedCall/first_keras/Gather_23/axis" type="Const" version="opset1">
			<data element_type="i64" shape="" offset="3840012" size="8" />
			<output>
				<port id="0" precision="I64" names="StatefulPartitionedCall/first_keras/Gather_23/axis,StatefulPartitionedCall/first_keras/Gather_23/axis:0" />
			</output>
		</layer>
		<layer id="161" name="StatefulPartitionedCall/first_keras/Gather_23" type="Gather" version="opset8">
			<data batch_dims="0" />
			<input>
				<port id="0" precision="I64">
					<dim>159232</dim>
				</port>
				<port id="1" precision="I64">
					<dim>512</dim>
				</port>
				<port id="2" precision="I64" />
			</input>
			<output>
				<port id="3" precision="I64" names="StatefulPartitionedCall/first_keras/Gather_23,StatefulPartitionedCall/first_keras/Gather_23:0,StatefulPartitionedCall/first_keras/Identity_23,StatefulPartitionedCall/first_keras/Identity_23:0">
					<dim>512</dim>
				</port>
			</output>
		</layer>
		<layer id="162" name="StatefulPartitionedCall/first_keras/Reshape_28/shape" type="Const" version="opset1">
			<data element_type="i32" shape="2" offset="3840020" size="8" />
			<output>
				<port id="0" precision="I32" names="StatefulPartitionedCall/first_keras/Reshape_28/shape,StatefulPartitionedCall/first_keras/Reshape_28/shape:0">
					<dim>2</dim>
				</port>
			</output>
		</layer>
		<layer id="163" name="StatefulPartitionedCall/first_keras/Reshape_28" type="Reshape" version="opset1">
			<data special_zero="false" />
			<input>
				<port id="0" precision="I64">
					<dim>512</dim>
				</port>
				<port id="1" precision="I32">
					<dim>2</dim>
				</port>
			</input>
			<output>
				<port id="2" precision="I64" names="StatefulPartitionedCall/first_keras/Reshape_28,StatefulPartitionedCall/first_keras/Reshape_28:0">
					<dim>1</dim>
					<dim>512</dim>
				</port>
			</output>
		</layer>
		<layer id="164" name="StatefulPartitionedCall/first_keras/SelectV2_5" type="Select" version="opset1">
			<data auto_broadcast="numpy" />
			<input>
				<port id="0" precision="BOOL">
					<dim>1</dim>
					<dim>1</dim>
					<dim>512</dim>
				</port>
				<port id="1" precision="I64">
					<dim>1</dim>
					<dim>512</dim>
				</port>
				<port id="2" precision="I64">
					<dim>1</dim>
					<dim>512</dim>
				</port>
			</input>
			<output>
				<port id="3" precision="I64" names="StatefulPartitionedCall/first_keras/SelectV2_5,StatefulPartitionedCall/first_keras/SelectV2_5:0">
					<dim>1</dim>
					<dim>1</dim>
					<dim>512</dim>
				</port>
			</output>
		</layer>
		<layer id="165" name="Constant_3675" type="Const" version="opset1">
			<data element_type="i64" shape="1, 1, 512" offset="3835908" size="4096" />
			<output>
				<port id="0" precision="I64">
					<dim>1</dim>
					<dim>1</dim>
					<dim>512</dim>
				</port>
			</output>
		</layer>
		<layer id="166" name="StatefulPartitionedCall/first_keras/add_11" type="Add" version="opset1">
			<data auto_broadcast="numpy" />
			<input>
				<port id="0" precision="I64">
					<dim>1</dim>
					<dim>1</dim>
					<dim>512</dim>
				</port>
				<port id="1" precision="I64">
					<dim>1</dim>
					<dim>1</dim>
					<dim>512</dim>
				</port>
			</input>
			<output>
				<port id="2" precision="I64" names="StatefulPartitionedCall/first_keras/add_11,StatefulPartitionedCall/first_keras/add_11:0">
					<dim>1</dim>
					<dim>1</dim>
					<dim>512</dim>
				</port>
			</output>
		</layer>
		<layer id="167" name="Constant_1678" type="Const" version="opset1">
			<data element_type="i64" shape="1" offset="3840004" size="8" />
			<output>
				<port id="0" precision="I64">
					<dim>1</dim>
				</port>
			</output>
		</layer>
		<layer id="168" name="StatefulPartitionedCall/first_keras/Reshape_29" type="Reshape" version="opset1">
			<data special_zero="false" />
			<input>
				<port id="0" precision="I64">
					<dim>1</dim>
					<dim>1</dim>
					<dim>512</dim>
				</port>
				<port id="1" precision="I64">
					<dim>1</dim>
				</port>
			</input>
			<output>
				<port id="2" precision="I64" names="StatefulPartitionedCall/first_keras/Reshape_29,StatefulPartitionedCall/first_keras/Reshape_29:0">
					<dim>512</dim>
				</port>
			</output>
		</layer>
		<layer id="169" name="StatefulPartitionedCall/first_keras/Gather_24/axis" type="Const" version="opset1">
			<data element_type="i64" shape="" offset="3840012" size="8" />
			<output>
				<port id="0" precision="I64" names="StatefulPartitionedCall/first_keras/Gather_24/axis,StatefulPartitionedCall/first_keras/Gather_24/axis:0" />
			</output>
		</layer>
		<layer id="170" name="StatefulPartitionedCall/first_keras/Gather_24" type="Gather" version="opset8">
			<data batch_dims="0" />
			<input>
				<port id="0" precision="I64">
					<dim>159232</dim>
				</port>
				<port id="1" precision="I64">
					<dim>512</dim>
				</port>
				<port id="2" precision="I64" />
			</input>
			<output>
				<port id="3" precision="I64" names="StatefulPartitionedCall/first_keras/Gather_24,StatefulPartitionedCall/first_keras/Gather_24:0,StatefulPartitionedCall/first_keras/Identity_24,StatefulPartitionedCall/first_keras/Identity_24:0">
					<dim>512</dim>
				</port>
			</output>
		</layer>
		<layer id="171" name="StatefulPartitionedCall/first_keras/Reshape_30/shape" type="Const" version="opset1">
			<data element_type="i32" shape="2" offset="3840020" size="8" />
			<output>
				<port id="0" precision="I32" names="StatefulPartitionedCall/first_keras/Reshape_30/shape,StatefulPartitionedCall/first_keras/Reshape_30/shape:0">
					<dim>2</dim>
				</port>
			</output>
		</layer>
		<layer id="172" name="StatefulPartitionedCall/first_keras/Reshape_30" type="Reshape" version="opset1">
			<data special_zero="false" />
			<input>
				<port id="0" precision="I64">
					<dim>512</dim>
				</port>
				<port id="1" precision="I32">
					<dim>2</dim>
				</port>
			</input>
			<output>
				<port id="2" precision="I64" names="StatefulPartitionedCall/first_keras/Reshape_30,StatefulPartitionedCall/first_keras/Reshape_30:0">
					<dim>1</dim>
					<dim>512</dim>
				</port>
			</output>
		</layer>
		<layer id="173" name="StatefulPartitionedCall/first_keras/GatherV2_6/axis" type="Const" version="opset1">
			<data element_type="i32" shape="" offset="3825664" size="4" />
			<output>
				<port id="0" precision="I32" names="StatefulPartitionedCall/first_keras/GatherV2_6/axis,StatefulPartitionedCall/first_keras/GatherV2_6/axis:0" />
			</output>
		</layer>
		<layer id="174" name="StatefulPartitionedCall/first_keras/GatherV2_6" type="Gather" version="opset8">
			<data batch_dims="0" />
			<input>
				<port id="0" precision="FP32">
					<dim>1</dim>
					<dim>8</dim>
				</port>
				<port id="1" precision="I64">
					<dim>1</dim>
					<dim>512</dim>
				</port>
				<port id="2" precision="I32" />
			</input>
			<output>
				<port id="3" precision="FP32" names="StatefulPartitionedCall/first_keras/GatherV2_6,StatefulPartitionedCall/first_keras/GatherV2_6:0">
					<dim>1</dim>
					<dim>1</dim>
					<dim>512</dim>
				</port>
			</output>
		</layer>
		<layer id="175" name="StatefulPartitionedCall/first_keras/Gather_25/axis" type="Const" version="opset1">
			<data element_type="i64" shape="" offset="3840012" size="8" />
			<output>
				<port id="0" precision="I64" names="StatefulPartitionedCall/first_keras/Gather_25/axis,StatefulPartitionedCall/first_keras/Gather_25/axis:0" />
			</output>
		</layer>
		<layer id="176" name="StatefulPartitionedCall/first_keras/Gather_25" type="Gather" version="opset8">
			<data batch_dims="0" />
			<input>
				<port id="0" precision="FP32">
					<dim>159232</dim>
				</port>
				<port id="1" precision="I64">
					<dim>512</dim>
				</port>
				<port id="2" precision="I64" />
			</input>
			<output>
				<port id="3" precision="FP32" names="StatefulPartitionedCall/first_keras/Gather_25,StatefulPartitionedCall/first_keras/Gather_25:0,StatefulPartitionedCall/first_keras/Identity_25,StatefulPartitionedCall/first_keras/Identity_25:0">
					<dim>512</dim>
				</port>
			</output>
		</layer>
		<layer id="177" name="StatefulPartitionedCall/first_keras/Reshape_31/shape" type="Const" version="opset1">
			<data element_type="i32" shape="2" offset="3840020" size="8" />
			<output>
				<port id="0" precision="I32" names="StatefulPartitionedCall/first_keras/Reshape_31/shape,StatefulPartitionedCall/first_keras/Reshape_31/shape:0">
					<dim>2</dim>
				</port>
			</output>
		</layer>
		<layer id="178" name="StatefulPartitionedCall/first_keras/Reshape_31" type="Reshape" version="opset1">
			<data special_zero="false" />
			<input>
				<port id="0" precision="FP32">
					<dim>512</dim>
				</port>
				<port id="1" precision="I32">
					<dim>2</dim>
				</port>
			</input>
			<output>
				<port id="2" precision="FP32" names="StatefulPartitionedCall/first_keras/Reshape_31,StatefulPartitionedCall/first_keras/Reshape_31:0">
					<dim>1</dim>
					<dim>512</dim>
				</port>
			</output>
		</layer>
		<layer id="179" name="StatefulPartitionedCall/first_keras/Less_6" type="Less" version="opset1">
			<data auto_broadcast="numpy" />
			<input>
				<port id="0" precision="FP32">
					<dim>1</dim>
					<dim>1</dim>
					<dim>512</dim>
				</port>
				<port id="1" precision="FP32">
					<dim>1</dim>
					<dim>512</dim>
				</port>
			</input>
			<output>
				<port id="2" precision="BOOL" names="StatefulPartitionedCall/first_keras/Less_6,StatefulPartitionedCall/first_keras/Less_6:0">
					<dim>1</dim>
					<dim>1</dim>
					<dim>512</dim>
				</port>
			</output>
		</layer>
		<layer id="180" name="StatefulPartitionedCall/first_keras/Cast_18" type="Convert" version="opset1">
			<data destination_type="f32" />
			<input>
				<port id="0" precision="BOOL">
					<dim>1</dim>
					<dim>1</dim>
					<dim>512</dim>
				</port>
			</input>
			<output>
				<port id="1" precision="FP32" names="StatefulPartitionedCall/first_keras/Cast_18,StatefulPartitionedCall/first_keras/Cast_18:0">
					<dim>1</dim>
					<dim>1</dim>
					<dim>512</dim>
				</port>
			</output>
		</layer>
		<layer id="181" name="StatefulPartitionedCall/first_keras/Equal_6" type="Equal" version="opset1">
			<data auto_broadcast="numpy" />
			<input>
				<port id="0" precision="FP32">
					<dim>1</dim>
					<dim>1</dim>
					<dim>512</dim>
				</port>
				<port id="1" precision="FP32">
					<dim>1</dim>
					<dim>512</dim>
				</port>
			</input>
			<output>
				<port id="2" precision="BOOL" names="StatefulPartitionedCall/first_keras/Equal_6,StatefulPartitionedCall/first_keras/Equal_6:0">
					<dim>1</dim>
					<dim>1</dim>
					<dim>512</dim>
				</port>
			</output>
		</layer>
		<layer id="182" name="StatefulPartitionedCall/first_keras/Cast_19" type="Convert" version="opset1">
			<data destination_type="f32" />
			<input>
				<port id="0" precision="BOOL">
					<dim>1</dim>
					<dim>1</dim>
					<dim>512</dim>
				</port>
			</input>
			<output>
				<port id="1" precision="FP32" names="StatefulPartitionedCall/first_keras/Cast_19,StatefulPartitionedCall/first_keras/Cast_19:0">
					<dim>1</dim>
					<dim>1</dim>
					<dim>512</dim>
				</port>
			</output>
		</layer>
		<layer id="183" name="StatefulPartitionedCall/first_keras/Add_12" type="Add" version="opset1">
			<data auto_broadcast="numpy" />
			<input>
				<port id="0" precision="FP32">
					<dim>1</dim>
					<dim>1</dim>
					<dim>512</dim>
				</port>
				<port id="1" precision="FP32">
					<dim>1</dim>
					<dim>1</dim>
					<dim>512</dim>
				</port>
			</input>
			<output>
				<port id="2" precision="FP32" names="StatefulPartitionedCall/first_keras/Add_12,StatefulPartitionedCall/first_keras/Add_12:0">
					<dim>1</dim>
					<dim>1</dim>
					<dim>512</dim>
				</port>
			</output>
		</layer>
		<layer id="184" name="StatefulPartitionedCall/first_keras/Cast_20" type="Convert" version="opset1">
			<data destination_type="boolean" />
			<input>
				<port id="0" precision="FP32">
					<dim>1</dim>
					<dim>1</dim>
					<dim>512</dim>
				</port>
			</input>
			<output>
				<port id="1" precision="BOOL" names="StatefulPartitionedCall/first_keras/Cast_20,StatefulPartitionedCall/first_keras/Cast_20:0">
					<dim>1</dim>
					<dim>1</dim>
					<dim>512</dim>
				</port>
			</output>
		</layer>
		<layer id="185" name="StatefulPartitionedCall/first_keras/Gather_26/axis" type="Const" version="opset1">
			<data element_type="i64" shape="" offset="3840012" size="8" />
			<output>
				<port id="0" precision="I64" names="StatefulPartitionedCall/first_keras/Gather_26/axis,StatefulPartitionedCall/first_keras/Gather_26/axis:0" />
			</output>
		</layer>
		<layer id="186" name="StatefulPartitionedCall/first_keras/Gather_26" type="Gather" version="opset8">
			<data batch_dims="0" />
			<input>
				<port id="0" precision="I64">
					<dim>159232</dim>
				</port>
				<port id="1" precision="I64">
					<dim>512</dim>
				</port>
				<port id="2" precision="I64" />
			</input>
			<output>
				<port id="3" precision="I64" names="StatefulPartitionedCall/first_keras/Gather_26,StatefulPartitionedCall/first_keras/Gather_26:0,StatefulPartitionedCall/first_keras/Identity_26,StatefulPartitionedCall/first_keras/Identity_26:0">
					<dim>512</dim>
				</port>
			</output>
		</layer>
		<layer id="187" name="StatefulPartitionedCall/first_keras/Reshape_32/shape" type="Const" version="opset1">
			<data element_type="i32" shape="2" offset="3840020" size="8" />
			<output>
				<port id="0" precision="I32" names="StatefulPartitionedCall/first_keras/Reshape_32/shape,StatefulPartitionedCall/first_keras/Reshape_32/shape:0">
					<dim>2</dim>
				</port>
			</output>
		</layer>
		<layer id="188" name="StatefulPartitionedCall/first_keras/Reshape_32" type="Reshape" version="opset1">
			<data special_zero="false" />
			<input>
				<port id="0" precision="I64">
					<dim>512</dim>
				</port>
				<port id="1" precision="I32">
					<dim>2</dim>
				</port>
			</input>
			<output>
				<port id="2" precision="I64" names="StatefulPartitionedCall/first_keras/Reshape_32,StatefulPartitionedCall/first_keras/Reshape_32:0">
					<dim>1</dim>
					<dim>512</dim>
				</port>
			</output>
		</layer>
		<layer id="189" name="StatefulPartitionedCall/first_keras/Gather_27/axis" type="Const" version="opset1">
			<data element_type="i64" shape="" offset="3840012" size="8" />
			<output>
				<port id="0" precision="I64" names="StatefulPartitionedCall/first_keras/Gather_27/axis,StatefulPartitionedCall/first_keras/Gather_27/axis:0" />
			</output>
		</layer>
		<layer id="190" name="StatefulPartitionedCall/first_keras/Gather_27" type="Gather" version="opset8">
			<data batch_dims="0" />
			<input>
				<port id="0" precision="I64">
					<dim>159232</dim>
				</port>
				<port id="1" precision="I64">
					<dim>512</dim>
				</port>
				<port id="2" precision="I64" />
			</input>
			<output>
				<port id="3" precision="I64" names="StatefulPartitionedCall/first_keras/Gather_27,StatefulPartitionedCall/first_keras/Gather_27:0,StatefulPartitionedCall/first_keras/Identity_27,StatefulPartitionedCall/first_keras/Identity_27:0">
					<dim>512</dim>
				</port>
			</output>
		</layer>
		<layer id="191" name="StatefulPartitionedCall/first_keras/Reshape_33/shape" type="Const" version="opset1">
			<data element_type="i32" shape="2" offset="3840020" size="8" />
			<output>
				<port id="0" precision="I32" names="StatefulPartitionedCall/first_keras/Reshape_33/shape,StatefulPartitionedCall/first_keras/Reshape_33/shape:0">
					<dim>2</dim>
				</port>
			</output>
		</layer>
		<layer id="192" name="StatefulPartitionedCall/first_keras/Reshape_33" type="Reshape" version="opset1">
			<data special_zero="false" />
			<input>
				<port id="0" precision="I64">
					<dim>512</dim>
				</port>
				<port id="1" precision="I32">
					<dim>2</dim>
				</port>
			</input>
			<output>
				<port id="2" precision="I64" names="StatefulPartitionedCall/first_keras/Reshape_33,StatefulPartitionedCall/first_keras/Reshape_33:0">
					<dim>1</dim>
					<dim>512</dim>
				</port>
			</output>
		</layer>
		<layer id="193" name="StatefulPartitionedCall/first_keras/SelectV2_6" type="Select" version="opset1">
			<data auto_broadcast="numpy" />
			<input>
				<port id="0" precision="BOOL">
					<dim>1</dim>
					<dim>1</dim>
					<dim>512</dim>
				</port>
				<port id="1" precision="I64">
					<dim>1</dim>
					<dim>512</dim>
				</port>
				<port id="2" precision="I64">
					<dim>1</dim>
					<dim>512</dim>
				</port>
			</input>
			<output>
				<port id="3" precision="I64" names="StatefulPartitionedCall/first_keras/SelectV2_6,StatefulPartitionedCall/first_keras/SelectV2_6:0">
					<dim>1</dim>
					<dim>1</dim>
					<dim>512</dim>
				</port>
			</output>
		</layer>
		<layer id="194" name="Constant_3676" type="Const" version="opset1">
			<data element_type="i64" shape="1, 1, 512" offset="3835908" size="4096" />
			<output>
				<port id="0" precision="I64">
					<dim>1</dim>
					<dim>1</dim>
					<dim>512</dim>
				</port>
			</output>
		</layer>
		<layer id="195" name="StatefulPartitionedCall/first_keras/add_13" type="Add" version="opset1">
			<data auto_broadcast="numpy" />
			<input>
				<port id="0" precision="I64">
					<dim>1</dim>
					<dim>1</dim>
					<dim>512</dim>
				</port>
				<port id="1" precision="I64">
					<dim>1</dim>
					<dim>1</dim>
					<dim>512</dim>
				</port>
			</input>
			<output>
				<port id="2" precision="I64" names="StatefulPartitionedCall/first_keras/add_13,StatefulPartitionedCall/first_keras/add_13:0">
					<dim>1</dim>
					<dim>1</dim>
					<dim>512</dim>
				</port>
			</output>
		</layer>
		<layer id="196" name="Constant_1679" type="Const" version="opset1">
			<data element_type="i64" shape="1" offset="3840004" size="8" />
			<output>
				<port id="0" precision="I64">
					<dim>1</dim>
				</port>
			</output>
		</layer>
		<layer id="197" name="StatefulPartitionedCall/first_keras/Reshape_34" type="Reshape" version="opset1">
			<data special_zero="false" />
			<input>
				<port id="0" precision="I64">
					<dim>1</dim>
					<dim>1</dim>
					<dim>512</dim>
				</port>
				<port id="1" precision="I64">
					<dim>1</dim>
				</port>
			</input>
			<output>
				<port id="2" precision="I64" names="StatefulPartitionedCall/first_keras/Reshape_34,StatefulPartitionedCall/first_keras/Reshape_34:0">
					<dim>512</dim>
				</port>
			</output>
		</layer>
		<layer id="198" name="StatefulPartitionedCall/first_keras/Gather_28/axis" type="Const" version="opset1">
			<data element_type="i64" shape="" offset="3840012" size="8" />
			<output>
				<port id="0" precision="I64" names="StatefulPartitionedCall/first_keras/Gather_28/axis,StatefulPartitionedCall/first_keras/Gather_28/axis:0" />
			</output>
		</layer>
		<layer id="199" name="StatefulPartitionedCall/first_keras/Gather_28" type="Gather" version="opset8">
			<data batch_dims="0" />
			<input>
				<port id="0" precision="I64">
					<dim>159232</dim>
				</port>
				<port id="1" precision="I64">
					<dim>512</dim>
				</port>
				<port id="2" precision="I64" />
			</input>
			<output>
				<port id="3" precision="I64" names="StatefulPartitionedCall/first_keras/Gather_28,StatefulPartitionedCall/first_keras/Gather_28:0,StatefulPartitionedCall/first_keras/Identity_28,StatefulPartitionedCall/first_keras/Identity_28:0">
					<dim>512</dim>
				</port>
			</output>
		</layer>
		<layer id="200" name="StatefulPartitionedCall/first_keras/Reshape_35/shape" type="Const" version="opset1">
			<data element_type="i32" shape="2" offset="3840020" size="8" />
			<output>
				<port id="0" precision="I32" names="StatefulPartitionedCall/first_keras/Reshape_35/shape,StatefulPartitionedCall/first_keras/Reshape_35/shape:0">
					<dim>2</dim>
				</port>
			</output>
		</layer>
		<layer id="201" name="StatefulPartitionedCall/first_keras/Reshape_35" type="Reshape" version="opset1">
			<data special_zero="false" />
			<input>
				<port id="0" precision="I64">
					<dim>512</dim>
				</port>
				<port id="1" precision="I32">
					<dim>2</dim>
				</port>
			</input>
			<output>
				<port id="2" precision="I64" names="StatefulPartitionedCall/first_keras/Reshape_35,StatefulPartitionedCall/first_keras/Reshape_35:0">
					<dim>1</dim>
					<dim>512</dim>
				</port>
			</output>
		</layer>
		<layer id="202" name="StatefulPartitionedCall/first_keras/GatherV2_7/axis" type="Const" version="opset1">
			<data element_type="i32" shape="" offset="3825664" size="4" />
			<output>
				<port id="0" precision="I32" names="StatefulPartitionedCall/first_keras/GatherV2_7/axis,StatefulPartitionedCall/first_keras/GatherV2_7/axis:0" />
			</output>
		</layer>
		<layer id="203" name="StatefulPartitionedCall/first_keras/GatherV2_7" type="Gather" version="opset8">
			<data batch_dims="0" />
			<input>
				<port id="0" precision="FP32">
					<dim>1</dim>
					<dim>8</dim>
				</port>
				<port id="1" precision="I64">
					<dim>1</dim>
					<dim>512</dim>
				</port>
				<port id="2" precision="I32" />
			</input>
			<output>
				<port id="3" precision="FP32" names="StatefulPartitionedCall/first_keras/GatherV2_7,StatefulPartitionedCall/first_keras/GatherV2_7:0">
					<dim>1</dim>
					<dim>1</dim>
					<dim>512</dim>
				</port>
			</output>
		</layer>
		<layer id="204" name="StatefulPartitionedCall/first_keras/Gather_29/axis" type="Const" version="opset1">
			<data element_type="i64" shape="" offset="3840012" size="8" />
			<output>
				<port id="0" precision="I64" names="StatefulPartitionedCall/first_keras/Gather_29/axis,StatefulPartitionedCall/first_keras/Gather_29/axis:0" />
			</output>
		</layer>
		<layer id="205" name="StatefulPartitionedCall/first_keras/Gather_29" type="Gather" version="opset8">
			<data batch_dims="0" />
			<input>
				<port id="0" precision="FP32">
					<dim>159232</dim>
				</port>
				<port id="1" precision="I64">
					<dim>512</dim>
				</port>
				<port id="2" precision="I64" />
			</input>
			<output>
				<port id="3" precision="FP32" names="StatefulPartitionedCall/first_keras/Gather_29,StatefulPartitionedCall/first_keras/Gather_29:0,StatefulPartitionedCall/first_keras/Identity_29,StatefulPartitionedCall/first_keras/Identity_29:0">
					<dim>512</dim>
				</port>
			</output>
		</layer>
		<layer id="206" name="StatefulPartitionedCall/first_keras/Reshape_36/shape" type="Const" version="opset1">
			<data element_type="i32" shape="2" offset="3840020" size="8" />
			<output>
				<port id="0" precision="I32" names="StatefulPartitionedCall/first_keras/Reshape_36/shape,StatefulPartitionedCall/first_keras/Reshape_36/shape:0">
					<dim>2</dim>
				</port>
			</output>
		</layer>
		<layer id="207" name="StatefulPartitionedCall/first_keras/Reshape_36" type="Reshape" version="opset1">
			<data special_zero="false" />
			<input>
				<port id="0" precision="FP32">
					<dim>512</dim>
				</port>
				<port id="1" precision="I32">
					<dim>2</dim>
				</port>
			</input>
			<output>
				<port id="2" precision="FP32" names="StatefulPartitionedCall/first_keras/Reshape_36,StatefulPartitionedCall/first_keras/Reshape_36:0">
					<dim>1</dim>
					<dim>512</dim>
				</port>
			</output>
		</layer>
		<layer id="208" name="StatefulPartitionedCall/first_keras/Less_7" type="Less" version="opset1">
			<data auto_broadcast="numpy" />
			<input>
				<port id="0" precision="FP32">
					<dim>1</dim>
					<dim>1</dim>
					<dim>512</dim>
				</port>
				<port id="1" precision="FP32">
					<dim>1</dim>
					<dim>512</dim>
				</port>
			</input>
			<output>
				<port id="2" precision="BOOL" names="StatefulPartitionedCall/first_keras/Less_7,StatefulPartitionedCall/first_keras/Less_7:0">
					<dim>1</dim>
					<dim>1</dim>
					<dim>512</dim>
				</port>
			</output>
		</layer>
		<layer id="209" name="StatefulPartitionedCall/first_keras/Cast_21" type="Convert" version="opset1">
			<data destination_type="f32" />
			<input>
				<port id="0" precision="BOOL">
					<dim>1</dim>
					<dim>1</dim>
					<dim>512</dim>
				</port>
			</input>
			<output>
				<port id="1" precision="FP32" names="StatefulPartitionedCall/first_keras/Cast_21,StatefulPartitionedCall/first_keras/Cast_21:0">
					<dim>1</dim>
					<dim>1</dim>
					<dim>512</dim>
				</port>
			</output>
		</layer>
		<layer id="210" name="StatefulPartitionedCall/first_keras/Equal_7" type="Equal" version="opset1">
			<data auto_broadcast="numpy" />
			<input>
				<port id="0" precision="FP32">
					<dim>1</dim>
					<dim>1</dim>
					<dim>512</dim>
				</port>
				<port id="1" precision="FP32">
					<dim>1</dim>
					<dim>512</dim>
				</port>
			</input>
			<output>
				<port id="2" precision="BOOL" names="StatefulPartitionedCall/first_keras/Equal_7,StatefulPartitionedCall/first_keras/Equal_7:0">
					<dim>1</dim>
					<dim>1</dim>
					<dim>512</dim>
				</port>
			</output>
		</layer>
		<layer id="211" name="StatefulPartitionedCall/first_keras/Cast_22" type="Convert" version="opset1">
			<data destination_type="f32" />
			<input>
				<port id="0" precision="BOOL">
					<dim>1</dim>
					<dim>1</dim>
					<dim>512</dim>
				</port>
			</input>
			<output>
				<port id="1" precision="FP32" names="StatefulPartitionedCall/first_keras/Cast_22,StatefulPartitionedCall/first_keras/Cast_22:0">
					<dim>1</dim>
					<dim>1</dim>
					<dim>512</dim>
				</port>
			</output>
		</layer>
		<layer id="212" name="StatefulPartitionedCall/first_keras/Add_14" type="Add" version="opset1">
			<data auto_broadcast="numpy" />
			<input>
				<port id="0" precision="FP32">
					<dim>1</dim>
					<dim>1</dim>
					<dim>512</dim>
				</port>
				<port id="1" precision="FP32">
					<dim>1</dim>
					<dim>1</dim>
					<dim>512</dim>
				</port>
			</input>
			<output>
				<port id="2" precision="FP32" names="StatefulPartitionedCall/first_keras/Add_14,StatefulPartitionedCall/first_keras/Add_14:0">
					<dim>1</dim>
					<dim>1</dim>
					<dim>512</dim>
				</port>
			</output>
		</layer>
		<layer id="213" name="StatefulPartitionedCall/first_keras/Cast_23" type="Convert" version="opset1">
			<data destination_type="boolean" />
			<input>
				<port id="0" precision="FP32">
					<dim>1</dim>
					<dim>1</dim>
					<dim>512</dim>
				</port>
			</input>
			<output>
				<port id="1" precision="BOOL" names="StatefulPartitionedCall/first_keras/Cast_23,StatefulPartitionedCall/first_keras/Cast_23:0">
					<dim>1</dim>
					<dim>1</dim>
					<dim>512</dim>
				</port>
			</output>
		</layer>
		<layer id="214" name="StatefulPartitionedCall/first_keras/Gather_30/axis" type="Const" version="opset1">
			<data element_type="i64" shape="" offset="3840012" size="8" />
			<output>
				<port id="0" precision="I64" names="StatefulPartitionedCall/first_keras/Gather_30/axis,StatefulPartitionedCall/first_keras/Gather_30/axis:0" />
			</output>
		</layer>
		<layer id="215" name="StatefulPartitionedCall/first_keras/Gather_30" type="Gather" version="opset8">
			<data batch_dims="0" />
			<input>
				<port id="0" precision="I64">
					<dim>159232</dim>
				</port>
				<port id="1" precision="I64">
					<dim>512</dim>
				</port>
				<port id="2" precision="I64" />
			</input>
			<output>
				<port id="3" precision="I64" names="StatefulPartitionedCall/first_keras/Gather_30,StatefulPartitionedCall/first_keras/Gather_30:0,StatefulPartitionedCall/first_keras/Identity_30,StatefulPartitionedCall/first_keras/Identity_30:0">
					<dim>512</dim>
				</port>
			</output>
		</layer>
		<layer id="216" name="StatefulPartitionedCall/first_keras/Reshape_37/shape" type="Const" version="opset1">
			<data element_type="i32" shape="2" offset="3840020" size="8" />
			<output>
				<port id="0" precision="I32" names="StatefulPartitionedCall/first_keras/Reshape_37/shape,StatefulPartitionedCall/first_keras/Reshape_37/shape:0">
					<dim>2</dim>
				</port>
			</output>
		</layer>
		<layer id="217" name="StatefulPartitionedCall/first_keras/Reshape_37" type="Reshape" version="opset1">
			<data special_zero="false" />
			<input>
				<port id="0" precision="I64">
					<dim>512</dim>
				</port>
				<port id="1" precision="I32">
					<dim>2</dim>
				</port>
			</input>
			<output>
				<port id="2" precision="I64" names="StatefulPartitionedCall/first_keras/Reshape_37,StatefulPartitionedCall/first_keras/Reshape_37:0">
					<dim>1</dim>
					<dim>512</dim>
				</port>
			</output>
		</layer>
		<layer id="218" name="StatefulPartitionedCall/first_keras/Gather_31/axis" type="Const" version="opset1">
			<data element_type="i64" shape="" offset="3840012" size="8" />
			<output>
				<port id="0" precision="I64" names="StatefulPartitionedCall/first_keras/Gather_31/axis,StatefulPartitionedCall/first_keras/Gather_31/axis:0" />
			</output>
		</layer>
		<layer id="219" name="StatefulPartitionedCall/first_keras/Gather_31" type="Gather" version="opset8">
			<data batch_dims="0" />
			<input>
				<port id="0" precision="I64">
					<dim>159232</dim>
				</port>
				<port id="1" precision="I64">
					<dim>512</dim>
				</port>
				<port id="2" precision="I64" />
			</input>
			<output>
				<port id="3" precision="I64" names="StatefulPartitionedCall/first_keras/Gather_31,StatefulPartitionedCall/first_keras/Gather_31:0,StatefulPartitionedCall/first_keras/Identity_31,StatefulPartitionedCall/first_keras/Identity_31:0">
					<dim>512</dim>
				</port>
			</output>
		</layer>
		<layer id="220" name="StatefulPartitionedCall/first_keras/Reshape_38/shape" type="Const" version="opset1">
			<data element_type="i32" shape="2" offset="3840020" size="8" />
			<output>
				<port id="0" precision="I32" names="StatefulPartitionedCall/first_keras/Reshape_38/shape,StatefulPartitionedCall/first_keras/Reshape_38/shape:0">
					<dim>2</dim>
				</port>
			</output>
		</layer>
		<layer id="221" name="StatefulPartitionedCall/first_keras/Reshape_38" type="Reshape" version="opset1">
			<data special_zero="false" />
			<input>
				<port id="0" precision="I64">
					<dim>512</dim>
				</port>
				<port id="1" precision="I32">
					<dim>2</dim>
				</port>
			</input>
			<output>
				<port id="2" precision="I64" names="StatefulPartitionedCall/first_keras/Reshape_38,StatefulPartitionedCall/first_keras/Reshape_38:0">
					<dim>1</dim>
					<dim>512</dim>
				</port>
			</output>
		</layer>
		<layer id="222" name="StatefulPartitionedCall/first_keras/SelectV2_7" type="Select" version="opset1">
			<data auto_broadcast="numpy" />
			<input>
				<port id="0" precision="BOOL">
					<dim>1</dim>
					<dim>1</dim>
					<dim>512</dim>
				</port>
				<port id="1" precision="I64">
					<dim>1</dim>
					<dim>512</dim>
				</port>
				<port id="2" precision="I64">
					<dim>1</dim>
					<dim>512</dim>
				</port>
			</input>
			<output>
				<port id="3" precision="I64" names="StatefulPartitionedCall/first_keras/SelectV2_7,StatefulPartitionedCall/first_keras/SelectV2_7:0">
					<dim>1</dim>
					<dim>1</dim>
					<dim>512</dim>
				</port>
			</output>
		</layer>
		<layer id="223" name="Constant_3677" type="Const" version="opset1">
			<data element_type="i64" shape="1, 1, 512" offset="3835908" size="4096" />
			<output>
				<port id="0" precision="I64">
					<dim>1</dim>
					<dim>1</dim>
					<dim>512</dim>
				</port>
			</output>
		</layer>
		<layer id="224" name="StatefulPartitionedCall/first_keras/add_15" type="Add" version="opset1">
			<data auto_broadcast="numpy" />
			<input>
				<port id="0" precision="I64">
					<dim>1</dim>
					<dim>1</dim>
					<dim>512</dim>
				</port>
				<port id="1" precision="I64">
					<dim>1</dim>
					<dim>1</dim>
					<dim>512</dim>
				</port>
			</input>
			<output>
				<port id="2" precision="I64" names="StatefulPartitionedCall/first_keras/add_15,StatefulPartitionedCall/first_keras/add_15:0">
					<dim>1</dim>
					<dim>1</dim>
					<dim>512</dim>
				</port>
			</output>
		</layer>
		<layer id="225" name="Constant_1680" type="Const" version="opset1">
			<data element_type="i64" shape="1" offset="3840004" size="8" />
			<output>
				<port id="0" precision="I64">
					<dim>1</dim>
				</port>
			</output>
		</layer>
		<layer id="226" name="StatefulPartitionedCall/first_keras/Reshape_39" type="Reshape" version="opset1">
			<data special_zero="false" />
			<input>
				<port id="0" precision="I64">
					<dim>1</dim>
					<dim>1</dim>
					<dim>512</dim>
				</port>
				<port id="1" precision="I64">
					<dim>1</dim>
				</port>
			</input>
			<output>
				<port id="2" precision="I64" names="StatefulPartitionedCall/first_keras/Reshape_39,StatefulPartitionedCall/first_keras/Reshape_39:0">
					<dim>512</dim>
				</port>
			</output>
		</layer>
		<layer id="227" name="StatefulPartitionedCall/first_keras/Gather_32/axis" type="Const" version="opset1">
			<data element_type="i64" shape="" offset="3840012" size="8" />
			<output>
				<port id="0" precision="I64" names="StatefulPartitionedCall/first_keras/Gather_32/axis,StatefulPartitionedCall/first_keras/Gather_32/axis:0" />
			</output>
		</layer>
		<layer id="228" name="StatefulPartitionedCall/first_keras/Gather_32" type="Gather" version="opset8">
			<data batch_dims="0" />
			<input>
				<port id="0" precision="FP32">
					<dim>159232</dim>
					<dim>4</dim>
				</port>
				<port id="1" precision="I64">
					<dim>512</dim>
				</port>
				<port id="2" precision="I64" />
			</input>
			<output>
				<port id="3" precision="FP32" names="StatefulPartitionedCall/first_keras/Gather_32,StatefulPartitionedCall/first_keras/Gather_32:0,StatefulPartitionedCall/first_keras/Identity_32,StatefulPartitionedCall/first_keras/Identity_32:0">
					<dim>512</dim>
					<dim>4</dim>
				</port>
			</output>
		</layer>
		<layer id="229" name="StatefulPartitionedCall/first_keras/Reshape_40/shape" type="Const" version="opset1">
			<data element_type="i32" shape="3" offset="7024668" size="12" />
			<output>
				<port id="0" precision="I32" names="StatefulPartitionedCall/first_keras/Reshape_40/shape,StatefulPartitionedCall/first_keras/Reshape_40/shape:0">
					<dim>3</dim>
				</port>
			</output>
		</layer>
		<layer id="230" name="StatefulPartitionedCall/first_keras/Reshape_40" type="Reshape" version="opset1">
			<data special_zero="false" />
			<input>
				<port id="0" precision="FP32">
					<dim>512</dim>
					<dim>4</dim>
				</port>
				<port id="1" precision="I32">
					<dim>3</dim>
				</port>
			</input>
			<output>
				<port id="2" precision="FP32" names="StatefulPartitionedCall/first_keras/Reshape_40,StatefulPartitionedCall/first_keras/Reshape_40:0">
					<dim>1</dim>
					<dim>512</dim>
					<dim>4</dim>
				</port>
			</output>
		</layer>
		<layer id="231" name="StatefulPartitionedCall/first_keras/Sum/reduction_indices" type="Const" version="opset1">
			<data element_type="i32" shape="1" offset="3825664" size="4" />
			<output>
				<port id="0" precision="I32" names="StatefulPartitionedCall/first_keras/Sum/reduction_indices,StatefulPartitionedCall/first_keras/Sum/reduction_indices:0">
					<dim>1</dim>
				</port>
			</output>
		</layer>
		<layer id="232" name="StatefulPartitionedCall/first_keras/Sum" type="ReduceSum" version="opset1">
			<data keep_dims="false" />
			<input>
				<port id="0" precision="FP32">
					<dim>1</dim>
					<dim>512</dim>
					<dim>4</dim>
				</port>
				<port id="1" precision="I32">
					<dim>1</dim>
				</port>
			</input>
			<output>
				<port id="2" precision="FP32" names="Func/StatefulPartitionedCall/output/_8,Func/StatefulPartitionedCall/output/_8:0,Identity,Identity:0,StatefulPartitionedCall/Identity,StatefulPartitionedCall/Identity:0,StatefulPartitionedCall/first_keras/Sum,StatefulPartitionedCall/first_keras/Sum:0">
					<dim>1</dim>
					<dim>4</dim>
				</port>
			</output>
		</layer>
		<layer id="233" name="Identity" type="Result" version="opset1">
			<input>
				<port id="0" precision="FP32">
					<dim>1</dim>
					<dim>4</dim>
				</port>
			</input>
		</layer>
	</layers>
	<edges>
		<edge from-layer="0" from-port="0" to-layer="26" to-port="0" />
		<edge from-layer="0" from-port="0" to-layer="145" to-port="0" />
		<edge from-layer="0" from-port="0" to-layer="174" to-port="0" />
		<edge from-layer="0" from-port="0" to-layer="58" to-port="0" />
		<edge from-layer="0" from-port="0" to-layer="203" to-port="0" />
		<edge from-layer="0" from-port="0" to-layer="5" to-port="0" />
		<edge from-layer="0" from-port="0" to-layer="116" to-port="0" />
		<edge from-layer="0" from-port="0" to-layer="87" to-port="0" />
		<edge from-layer="1" from-port="0" to-layer="228" to-port="0" />
		<edge from-layer="2" from-port="0" to-layer="22" to-port="0" />
		<edge from-layer="2" from-port="0" to-layer="54" to-port="0" />
		<edge from-layer="2" from-port="0" to-layer="83" to-port="0" />
		<edge from-layer="2" from-port="0" to-layer="112" to-port="0" />
		<edge from-layer="2" from-port="0" to-layer="199" to-port="0" />
		<edge from-layer="2" from-port="0" to-layer="170" to-port="0" />
		<edge from-layer="2" from-port="0" to-layer="141" to-port="0" />
		<edge from-layer="3" from-port="0" to-layer="5" to-port="1" />
		<edge from-layer="4" from-port="0" to-layer="5" to-port="2" />
		<edge from-layer="5" from-port="3" to-layer="7" to-port="0" />
		<edge from-layer="5" from-port="3" to-layer="10" to-port="0" />
		<edge from-layer="6" from-port="0" to-layer="7" to-port="1" />
		<edge from-layer="7" from-port="2" to-layer="8" to-port="0" />
		<edge from-layer="8" from-port="1" to-layer="12" to-port="0" />
		<edge from-layer="9" from-port="0" to-layer="10" to-port="1" />
		<edge from-layer="10" from-port="2" to-layer="11" to-port="0" />
		<edge from-layer="11" from-port="1" to-layer="12" to-port="1" />
		<edge from-layer="12" from-port="2" to-layer="13" to-port="0" />
		<edge from-layer="13" from-port="1" to-layer="16" to-port="0" />
		<edge from-layer="14" from-port="0" to-layer="16" to-port="1" />
		<edge from-layer="15" from-port="0" to-layer="16" to-port="2" />
		<edge from-layer="16" from-port="3" to-layer="18" to-port="0" />
		<edge from-layer="17" from-port="0" to-layer="18" to-port="1" />
		<edge from-layer="18" from-port="2" to-layer="20" to-port="0" />
		<edge from-layer="19" from-port="0" to-layer="20" to-port="1" />
		<edge from-layer="20" from-port="2" to-layer="40" to-port="1" />
		<edge from-layer="20" from-port="2" to-layer="29" to-port="1" />
		<edge from-layer="20" from-port="2" to-layer="45" to-port="1" />
		<edge from-layer="20" from-port="2" to-layer="22" to-port="1" />
		<edge from-layer="21" from-port="0" to-layer="22" to-port="2" />
		<edge from-layer="22" from-port="3" to-layer="24" to-port="0" />
		<edge from-layer="23" from-port="0" to-layer="24" to-port="1" />
		<edge from-layer="24" from-port="2" to-layer="26" to-port="1" />
		<edge from-layer="25" from-port="0" to-layer="26" to-port="2" />
		<edge from-layer="26" from-port="3" to-layer="32" to-port="0" />
		<edge from-layer="26" from-port="3" to-layer="34" to-port="0" />
		<edge from-layer="27" from-port="0" to-layer="147" to-port="0" />
		<edge from-layer="27" from-port="0" to-layer="205" to-port="0" />
		<edge from-layer="27" from-port="0" to-layer="176" to-port="0" />
		<edge from-layer="27" from-port="0" to-layer="60" to-port="0" />
		<edge from-layer="27" from-port="0" to-layer="89" to-port="0" />
		<edge from-layer="27" from-port="0" to-layer="29" to-port="0" />
		<edge from-layer="27" from-port="0" to-layer="118" to-port="0" />
		<edge from-layer="28" from-port="0" to-layer="29" to-port="2" />
		<edge from-layer="29" from-port="3" to-layer="31" to-port="0" />
		<edge from-layer="30" from-port="0" to-layer="31" to-port="1" />
		<edge from-layer="31" from-port="2" to-layer="34" to-port="1" />
		<edge from-layer="31" from-port="2" to-layer="32" to-port="1" />
		<edge from-layer="32" from-port="2" to-layer="33" to-port="0" />
		<edge from-layer="33" from-port="1" to-layer="36" to-port="0" />
		<edge from-layer="34" from-port="2" to-layer="35" to-port="0" />
		<edge from-layer="35" from-port="1" to-layer="36" to-port="1" />
		<edge from-layer="36" from-port="2" to-layer="37" to-port="0" />
		<edge from-layer="37" from-port="1" to-layer="48" to-port="0" />
		<edge from-layer="38" from-port="0" to-layer="157" to-port="0" />
		<edge from-layer="38" from-port="0" to-layer="40" to-port="0" />
		<edge from-layer="38" from-port="0" to-layer="186" to-port="0" />
		<edge from-layer="38" from-port="0" to-layer="99" to-port="0" />
		<edge from-layer="38" from-port="0" to-layer="128" to-port="0" />
		<edge from-layer="38" from-port="0" to-layer="215" to-port="0" />
		<edge from-layer="38" from-port="0" to-layer="70" to-port="0" />
		<edge from-layer="39" from-port="0" to-layer="40" to-port="2" />
		<edge from-layer="40" from-port="3" to-layer="42" to-port="0" />
		<edge from-layer="41" from-port="0" to-layer="42" to-port="1" />
		<edge from-layer="42" from-port="2" to-layer="48" to-port="1" />
		<edge from-layer="43" from-port="0" to-layer="161" to-port="0" />
		<edge from-layer="43" from-port="0" to-layer="132" to-port="0" />
		<edge from-layer="43" from-port="0" to-layer="190" to-port="0" />
		<edge from-layer="43" from-port="0" to-layer="219" to-port="0" />
		<edge from-layer="43" from-port="0" to-layer="103" to-port="0" />
		<edge from-layer="43" from-port="0" to-layer="74" to-port="0" />
		<edge from-layer="43" from-port="0" to-layer="45" to-port="0" />
		<edge from-layer="44" from-port="0" to-layer="45" to-port="2" />
		<edge from-layer="45" from-port="3" to-layer="47" to-port="0" />
		<edge from-layer="46" from-port="0" to-layer="47" to-port="1" />
		<edge from-layer="47" from-port="2" to-layer="48" to-port="2" />
		<edge from-layer="48" from-port="3" to-layer="50" to-port="0" />
		<edge from-layer="49" from-port="0" to-layer="50" to-port="1" />
		<edge from-layer="50" from-port="2" to-layer="52" to-port="0" />
		<edge from-layer="51" from-port="0" to-layer="52" to-port="1" />
		<edge from-layer="52" from-port="2" to-layer="60" to-port="1" />
		<edge from-layer="52" from-port="2" to-layer="54" to-port="1" />
		<edge from-layer="52" from-port="2" to-layer="74" to-port="1" />
		<edge from-layer="52" from-port="2" to-layer="70" to-port="1" />
		<edge from-layer="53" from-port="0" to-layer="54" to-port="2" />
		<edge from-layer="54" from-port="3" to-layer="56" to-port="0" />
		<edge from-layer="55" from-port="0" to-layer="56" to-port="1" />
		<edge from-layer="56" from-port="2" to-layer="58" to-port="1" />
		<edge from-layer="57" from-port="0" to-layer="58" to-port="2" />
		<edge from-layer="58" from-port="3" to-layer="63" to-port="0" />
		<edge from-layer="58" from-port="3" to-layer="65" to-port="0" />
		<edge from-layer="59" from-port="0" to-layer="60" to-port="2" />
		<edge from-layer="60" from-port="3" to-layer="62" to-port="0" />
		<edge from-layer="61" from-port="0" to-layer="62" to-port="1" />
		<edge from-layer="62" from-port="2" to-layer="65" to-port="1" />
		<edge from-layer="62" from-port="2" to-layer="63" to-port="1" />
		<edge from-layer="63" from-port="2" to-layer="64" to-port="0" />
		<edge from-layer="64" from-port="1" to-layer="67" to-port="0" />
		<edge from-layer="65" from-port="2" to-layer="66" to-port="0" />
		<edge from-layer="66" from-port="1" to-layer="67" to-port="1" />
		<edge from-layer="67" from-port="2" to-layer="68" to-port="0" />
		<edge from-layer="68" from-port="1" to-layer="77" to-port="0" />
		<edge from-layer="69" from-port="0" to-layer="70" to-port="2" />
		<edge from-layer="70" from-port="3" to-layer="72" to-port="0" />
		<edge from-layer="71" from-port="0" to-layer="72" to-port="1" />
		<edge from-layer="72" from-port="2" to-layer="77" to-port="1" />
		<edge from-layer="73" from-port="0" to-layer="74" to-port="2" />
		<edge from-layer="74" from-port="3" to-layer="76" to-port="0" />
		<edge from-layer="75" from-port="0" to-layer="76" to-port="1" />
		<edge from-layer="76" from-port="2" to-layer="77" to-port="2" />
		<edge from-layer="77" from-port="3" to-layer="79" to-port="0" />
		<edge from-layer="78" from-port="0" to-layer="79" to-port="1" />
		<edge from-layer="79" from-port="2" to-layer="81" to-port="0" />
		<edge from-layer="80" from-port="0" to-layer="81" to-port="1" />
		<edge from-layer="81" from-port="2" to-layer="83" to-port="1" />
		<edge from-layer="81" from-port="2" to-layer="99" to-port="1" />
		<edge from-layer="81" from-port="2" to-layer="103" to-port="1" />
		<edge from-layer="81" from-port="2" to-layer="89" to-port="1" />
		<edge from-layer="82" from-port="0" to-layer="83" to-port="2" />
		<edge from-layer="83" from-port="3" to-layer="85" to-port="0" />
		<edge from-layer="84" from-port="0" to-layer="85" to-port="1" />
		<edge from-layer="85" from-port="2" to-layer="87" to-port="1" />
		<edge from-layer="86" from-port="0" to-layer="87" to-port="2" />
		<edge from-layer="87" from-port="3" to-layer="92" to-port="0" />
		<edge from-layer="87" from-port="3" to-layer="94" to-port="0" />
		<edge from-layer="88" from-port="0" to-layer="89" to-port="2" />
		<edge from-layer="89" from-port="3" to-layer="91" to-port="0" />
		<edge from-layer="90" from-port="0" to-layer="91" to-port="1" />
		<edge from-layer="91" from-port="2" to-layer="92" to-port="1" />
		<edge from-layer="91" from-port="2" to-layer="94" to-port="1" />
		<edge from-layer="92" from-port="2" to-layer="93" to-port="0" />
		<edge from-layer="93" from-port="1" to-layer="96" to-port="0" />
		<edge from-layer="94" from-port="2" to-layer="95" to-port="0" />
		<edge from-layer="95" from-port="1" to-layer="96" to-port="1" />
		<edge from-layer="96" from-port="2" to-layer="97" to-port="0" />
		<edge from-layer="97" from-port="1" to-layer="106" to-port="0" />
		<edge from-layer="98" from-port="0" to-layer="99" to-port="2" />
		<edge from-layer="99" from-port="3" to-layer="101" to-port="0" />
		<edge from-layer="100" from-port="0" to-layer="101" to-port="1" />
		<edge from-layer="101" from-port="2" to-layer="106" to-port="1" />
		<edge from-layer="102" from-port="0" to-layer="103" to-port="2" />
		<edge from-layer="103" from-port="3" to-layer="105" to-port="0" />
		<edge from-layer="104" from-port="0" to-layer="105" to-port="1" />
		<edge from-layer="105" from-port="2" to-layer="106" to-port="2" />
		<edge from-layer="106" from-port="3" to-layer="108" to-port="0" />
		<edge from-layer="107" from-port="0" to-layer="108" to-port="1" />
		<edge from-layer="108" from-port="2" to-layer="110" to-port="0" />
		<edge from-layer="109" from-port="0" to-layer="110" to-port="1" />
		<edge from-layer="110" from-port="2" to-layer="112" to-port="1" />
		<edge from-layer="110" from-port="2" to-layer="128" to-port="1" />
		<edge from-layer="110" from-port="2" to-layer="132" to-port="1" />
		<edge from-layer="110" from-port="2" to-layer="118" to-port="1" />
		<edge from-layer="111" from-port="0" to-layer="112" to-port="2" />
		<edge from-layer="112" from-port="3" to-layer="114" to-port="0" />
		<edge from-layer="113" from-port="0" to-layer="114" to-port="1" />
		<edge from-layer="114" from-port="2" to-layer="116" to-port="1" />
		<edge from-layer="115" from-port="0" to-layer="116" to-port="2" />
		<edge from-layer="116" from-port="3" to-layer="123" to-port="0" />
		<edge from-layer="116" from-port="3" to-layer="121" to-port="0" />
		<edge from-layer="117" from-port="0" to-layer="118" to-port="2" />
		<edge from-layer="118" from-port="3" to-layer="120" to-port="0" />
		<edge from-layer="119" from-port="0" to-layer="120" to-port="1" />
		<edge from-layer="120" from-port="2" to-layer="121" to-port="1" />
		<edge from-layer="120" from-port="2" to-layer="123" to-port="1" />
		<edge from-layer="121" from-port="2" to-layer="122" to-port="0" />
		<edge from-layer="122" from-port="1" to-layer="125" to-port="0" />
		<edge from-layer="123" from-port="2" to-layer="124" to-port="0" />
		<edge from-layer="124" from-port="1" to-layer="125" to-port="1" />
		<edge from-layer="125" from-port="2" to-layer="126" to-port="0" />
		<edge from-layer="126" from-port="1" to-layer="135" to-port="0" />
		<edge from-layer="127" from-port="0" to-layer="128" to-port="2" />
		<edge from-layer="128" from-port="3" to-layer="130" to-port="0" />
		<edge from-layer="129" from-port="0" to-layer="130" to-port="1" />
		<edge from-layer="130" from-port="2" to-layer="135" to-port="1" />
		<edge from-layer="131" from-port="0" to-layer="132" to-port="2" />
		<edge from-layer="132" from-port="3" to-layer="134" to-port="0" />
		<edge from-layer="133" from-port="0" to-layer="134" to-port="1" />
		<edge from-layer="134" from-port="2" to-layer="135" to-port="2" />
		<edge from-layer="135" from-port="3" to-layer="137" to-port="0" />
		<edge from-layer="136" from-port="0" to-layer="137" to-port="1" />
		<edge from-layer="137" from-port="2" to-layer="139" to-port="0" />
		<edge from-layer="138" from-port="0" to-layer="139" to-port="1" />
		<edge from-layer="139" from-port="2" to-layer="141" to-port="1" />
		<edge from-layer="139" from-port="2" to-layer="157" to-port="1" />
		<edge from-layer="139" from-port="2" to-layer="147" to-port="1" />
		<edge from-layer="139" from-port="2" to-layer="161" to-port="1" />
		<edge from-layer="140" from-port="0" to-layer="141" to-port="2" />
		<edge from-layer="141" from-port="3" to-layer="143" to-port="0" />
		<edge from-layer="142" from-port="0" to-layer="143" to-port="1" />
		<edge from-layer="143" from-port="2" to-layer="145" to-port="1" />
		<edge from-layer="144" from-port="0" to-layer="145" to-port="2" />
		<edge from-layer="145" from-port="3" to-layer="152" to-port="0" />
		<edge from-layer="145" from-port="3" to-layer="150" to-port="0" />
		<edge from-layer="146" from-port="0" to-layer="147" to-port="2" />
		<edge from-layer="147" from-port="3" to-layer="149" to-port="0" />
		<edge from-layer="148" from-port="0" to-layer="149" to-port="1" />
		<edge from-layer="149" from-port="2" to-layer="150" to-port="1" />
		<edge from-layer="149" from-port="2" to-layer="152" to-port="1" />
		<edge from-layer="150" from-port="2" to-layer="151" to-port="0" />
		<edge from-layer="151" from-port="1" to-layer="154" to-port="0" />
		<edge from-layer="152" from-port="2" to-layer="153" to-port="0" />
		<edge from-layer="153" from-port="1" to-layer="154" to-port="1" />
		<edge from-layer="154" from-port="2" to-layer="155" to-port="0" />
		<edge from-layer="155" from-port="1" to-layer="164" to-port="0" />
		<edge from-layer="156" from-port="0" to-layer="157" to-port="2" />
		<edge from-layer="157" from-port="3" to-layer="159" to-port="0" />
		<edge from-layer="158" from-port="0" to-layer="159" to-port="1" />
		<edge from-layer="159" from-port="2" to-layer="164" to-port="1" />
		<edge from-layer="160" from-port="0" to-layer="161" to-port="2" />
		<edge from-layer="161" from-port="3" to-layer="163" to-port="0" />
		<edge from-layer="162" from-port="0" to-layer="163" to-port="1" />
		<edge from-layer="163" from-port="2" to-layer="164" to-port="2" />
		<edge from-layer="164" from-port="3" to-layer="166" to-port="0" />
		<edge from-layer="165" from-port="0" to-layer="166" to-port="1" />
		<edge from-layer="166" from-port="2" to-layer="168" to-port="0" />
		<edge from-layer="167" from-port="0" to-layer="168" to-port="1" />
		<edge from-layer="168" from-port="2" to-layer="186" to-port="1" />
		<edge from-layer="168" from-port="2" to-layer="170" to-port="1" />
		<edge from-layer="168" from-port="2" to-layer="190" to-port="1" />
		<edge from-layer="168" from-port="2" to-layer="176" to-port="1" />
		<edge from-layer="169" from-port="0" to-layer="170" to-port="2" />
		<edge from-layer="170" from-port="3" to-layer="172" to-port="0" />
		<edge from-layer="171" from-port="0" to-layer="172" to-port="1" />
		<edge from-layer="172" from-port="2" to-layer="174" to-port="1" />
		<edge from-layer="173" from-port="0" to-layer="174" to-port="2" />
		<edge from-layer="174" from-port="3" to-layer="179" to-port="0" />
		<edge from-layer="174" from-port="3" to-layer="181" to-port="0" />
		<edge from-layer="175" from-port="0" to-layer="176" to-port="2" />
		<edge from-layer="176" from-port="3" to-layer="178" to-port="0" />
		<edge from-layer="177" from-port="0" to-layer="178" to-port="1" />
		<edge from-layer="178" from-port="2" to-layer="179" to-port="1" />
		<edge from-layer="178" from-port="2" to-layer="181" to-port="1" />
		<edge from-layer="179" from-port="2" to-layer="180" to-port="0" />
		<edge from-layer="180" from-port="1" to-layer="183" to-port="0" />
		<edge from-layer="181" from-port="2" to-layer="182" to-port="0" />
		<edge from-layer="182" from-port="1" to-layer="183" to-port="1" />
		<edge from-layer="183" from-port="2" to-layer="184" to-port="0" />
		<edge from-layer="184" from-port="1" to-layer="193" to-port="0" />
		<edge from-layer="185" from-port="0" to-layer="186" to-port="2" />
		<edge from-layer="186" from-port="3" to-layer="188" to-port="0" />
		<edge from-layer="187" from-port="0" to-layer="188" to-port="1" />
		<edge from-layer="188" from-port="2" to-layer="193" to-port="1" />
		<edge from-layer="189" from-port="0" to-layer="190" to-port="2" />
		<edge from-layer="190" from-port="3" to-layer="192" to-port="0" />
		<edge from-layer="191" from-port="0" to-layer="192" to-port="1" />
		<edge from-layer="192" from-port="2" to-layer="193" to-port="2" />
		<edge from-layer="193" from-port="3" to-layer="195" to-port="0" />
		<edge from-layer="194" from-port="0" to-layer="195" to-port="1" />
		<edge from-layer="195" from-port="2" to-layer="197" to-port="0" />
		<edge from-layer="196" from-port="0" to-layer="197" to-port="1" />
		<edge from-layer="197" from-port="2" to-layer="219" to-port="1" />
		<edge from-layer="197" from-port="2" to-layer="199" to-port="1" />
		<edge from-layer="197" from-port="2" to-layer="215" to-port="1" />
		<edge from-layer="197" from-port="2" to-layer="205" to-port="1" />
		<edge from-layer="198" from-port="0" to-layer="199" to-port="2" />
		<edge from-layer="199" from-port="3" to-layer="201" to-port="0" />
		<edge from-layer="200" from-port="0" to-layer="201" to-port="1" />
		<edge from-layer="201" from-port="2" to-layer="203" to-port="1" />
		<edge from-layer="202" from-port="0" to-layer="203" to-port="2" />
		<edge from-layer="203" from-port="3" to-layer="208" to-port="0" />
		<edge from-layer="203" from-port="3" to-layer="210" to-port="0" />
		<edge from-layer="204" from-port="0" to-layer="205" to-port="2" />
		<edge from-layer="205" from-port="3" to-layer="207" to-port="0" />
		<edge from-layer="206" from-port="0" to-layer="207" to-port="1" />
		<edge from-layer="207" from-port="2" to-layer="208" to-port="1" />
		<edge from-layer="207" from-port="2" to-layer="210" to-port="1" />
		<edge from-layer="208" from-port="2" to-layer="209" to-port="0" />
		<edge from-layer="209" from-port="1" to-layer="212" to-port="0" />
		<edge from-layer="210" from-port="2" to-layer="211" to-port="0" />
		<edge from-layer="211" from-port="1" to-layer="212" to-port="1" />
		<edge from-layer="212" from-port="2" to-layer="213" to-port="0" />
		<edge from-layer="213" from-port="1" to-layer="222" to-port="0" />
		<edge from-layer="214" from-port="0" to-layer="215" to-port="2" />
		<edge from-layer="215" from-port="3" to-layer="217" to-port="0" />
		<edge from-layer="216" from-port="0" to-layer="217" to-port="1" />
		<edge from-layer="217" from-port="2" to-layer="222" to-port="1" />
		<edge from-layer="218" from-port="0" to-layer="219" to-port="2" />
		<edge from-layer="219" from-port="3" to-layer="221" to-port="0" />
		<edge from-layer="220" from-port="0" to-layer="221" to-port="1" />
		<edge from-layer="221" from-port="2" to-layer="222" to-port="2" />
		<edge from-layer="222" from-port="3" to-layer="224" to-port="0" />
		<edge from-layer="223" from-port="0" to-layer="224" to-port="1" />
		<edge from-layer="224" from-port="2" to-layer="226" to-port="0" />
		<edge from-layer="225" from-port="0" to-layer="226" to-port="1" />
		<edge from-layer="226" from-port="2" to-layer="228" to-port="1" />
		<edge from-layer="227" from-port="0" to-layer="228" to-port="2" />
		<edge from-layer="228" from-port="3" to-layer="230" to-port="0" />
		<edge from-layer="229" from-port="0" to-layer="230" to-port="1" />
		<edge from-layer="230" from-port="2" to-layer="232" to-port="0" />
		<edge from-layer="231" from-port="0" to-layer="232" to-port="1" />
		<edge from-layer="232" from-port="2" to-layer="233" to-port="0" />
	</edges>
	<rt_info>
		<MO_version value="2022.3.0-9052-9752fafe8eb-releases/2022/3" />
		<Runtime_version value="2022.3.0-9052-9752fafe8eb-releases/2022/3" />
		<conversion_parameters>
			<framework value="tf" />
			<input_shape value="[1,8]" />
			<model_name value="TT_scaling_trees_512" />
			<output_dir value="DIR" />
			<saved_model_dir value="DIR" />
			<use_new_frontend value="True" />
		</conversion_parameters>
		<legacy_frontend value="False" />
	</rt_info>
</net>
