<?xml version="1.0"?>
<net name="TensorFlow_Frontend_IR" version="11">
	<layers>
		<layer id="0" name="input_1" type="Parameter" version="opset1">
			<data shape="1,8" element_type="f32" />
			<output>
				<port id="0" precision="FP32" names="Func/StatefulPartitionedCall/input/_0,Func/StatefulPartitionedCall/input/_0:0,input_1,input_1:0">
					<dim>1</dim>
					<dim>8</dim>
				</port>
			</output>
		</layer>
		<layer id="1" name="unknown_5" type="Const" version="opset1">
			<data element_type="f32" shape="1984, 4" offset="0" size="31744" />
			<output>
				<port id="0" precision="FP32" names="Func/StatefulPartitionedCall/input/_7,Func/StatefulPartitionedCall/input/_7:0,unknown_5,unknown_5:0">
					<dim>1984</dim>
					<dim>4</dim>
				</port>
			</output>
		</layer>
		<layer id="2" name="unknown" type="Const" version="opset1">
			<data element_type="i64" shape="1984" offset="31744" size="15872" />
			<output>
				<port id="0" precision="I64" names="Func/StatefulPartitionedCall/input/_1,Func/StatefulPartitionedCall/input/_1:0,unknown,unknown:0">
					<dim>1984</dim>
				</port>
			</output>
		</layer>
		<layer id="3" name="StatefulPartitionedCall/first_keras/Reshape" type="Const" version="opset1">
			<data element_type="i64" shape="1, 64" offset="47616" size="512" />
			<output>
				<port id="0" precision="I64" names="StatefulPartitionedCall/first_keras/Reshape,StatefulPartitionedCall/first_keras/Reshape:0">
					<dim>1</dim>
					<dim>64</dim>
				</port>
			</output>
		</layer>
		<layer id="4" name="StatefulPartitionedCall/first_keras/GatherV2/axis" type="Const" version="opset1">
			<data element_type="i32" shape="" offset="48128" size="4" />
			<output>
				<port id="0" precision="I32" names="StatefulPartitionedCall/first_keras/GatherV2/axis,StatefulPartitionedCall/first_keras/GatherV2/axis:0" />
			</output>
		</layer>
		<layer id="5" name="StatefulPartitionedCall/first_keras/GatherV2" type="Gather" version="opset8">
			<data batch_dims="0" />
			<input>
				<port id="0" precision="FP32">
					<dim>1</dim>
					<dim>8</dim>
				</port>
				<port id="1" precision="I64">
					<dim>1</dim>
					<dim>64</dim>
				</port>
				<port id="2" precision="I32" />
			</input>
			<output>
				<port id="3" precision="FP32" names="StatefulPartitionedCall/first_keras/GatherV2,StatefulPartitionedCall/first_keras/GatherV2:0">
					<dim>1</dim>
					<dim>1</dim>
					<dim>64</dim>
				</port>
			</output>
		</layer>
		<layer id="6" name="Constant_2440" type="Const" version="opset1">
			<data element_type="f32" shape="1, 1, 64" offset="48132" size="256" />
			<output>
				<port id="0" precision="FP32">
					<dim>1</dim>
					<dim>1</dim>
					<dim>64</dim>
				</port>
			</output>
		</layer>
		<layer id="7" name="StatefulPartitionedCall/first_keras/Less" type="Less" version="opset1">
			<data auto_broadcast="numpy" />
			<input>
				<port id="0" precision="FP32">
					<dim>1</dim>
					<dim>1</dim>
					<dim>64</dim>
				</port>
				<port id="1" precision="FP32">
					<dim>1</dim>
					<dim>1</dim>
					<dim>64</dim>
				</port>
			</input>
			<output>
				<port id="2" precision="BOOL" names="StatefulPartitionedCall/first_keras/Less,StatefulPartitionedCall/first_keras/Less:0">
					<dim>1</dim>
					<dim>1</dim>
					<dim>64</dim>
				</port>
			</output>
		</layer>
		<layer id="8" name="StatefulPartitionedCall/first_keras/Cast" type="Convert" version="opset1">
			<data destination_type="f32" />
			<input>
				<port id="0" precision="BOOL">
					<dim>1</dim>
					<dim>1</dim>
					<dim>64</dim>
				</port>
			</input>
			<output>
				<port id="1" precision="FP32" names="StatefulPartitionedCall/first_keras/Cast,StatefulPartitionedCall/first_keras/Cast:0">
					<dim>1</dim>
					<dim>1</dim>
					<dim>64</dim>
				</port>
			</output>
		</layer>
		<layer id="9" name="Constant_2441" type="Const" version="opset1">
			<data element_type="f32" shape="1, 1, 64" offset="48132" size="256" />
			<output>
				<port id="0" precision="FP32">
					<dim>1</dim>
					<dim>1</dim>
					<dim>64</dim>
				</port>
			</output>
		</layer>
		<layer id="10" name="StatefulPartitionedCall/first_keras/Equal" type="Equal" version="opset1">
			<data auto_broadcast="numpy" />
			<input>
				<port id="0" precision="FP32">
					<dim>1</dim>
					<dim>1</dim>
					<dim>64</dim>
				</port>
				<port id="1" precision="FP32">
					<dim>1</dim>
					<dim>1</dim>
					<dim>64</dim>
				</port>
			</input>
			<output>
				<port id="2" precision="BOOL" names="StatefulPartitionedCall/first_keras/Equal,StatefulPartitionedCall/first_keras/Equal:0">
					<dim>1</dim>
					<dim>1</dim>
					<dim>64</dim>
				</port>
			</output>
		</layer>
		<layer id="11" name="StatefulPartitionedCall/first_keras/Cast_1" type="Convert" version="opset1">
			<data destination_type="f32" />
			<input>
				<port id="0" precision="BOOL">
					<dim>1</dim>
					<dim>1</dim>
					<dim>64</dim>
				</port>
			</input>
			<output>
				<port id="1" precision="FP32" names="StatefulPartitionedCall/first_keras/Cast_1,StatefulPartitionedCall/first_keras/Cast_1:0">
					<dim>1</dim>
					<dim>1</dim>
					<dim>64</dim>
				</port>
			</output>
		</layer>
		<layer id="12" name="StatefulPartitionedCall/first_keras/Add" type="Add" version="opset1">
			<data auto_broadcast="numpy" />
			<input>
				<port id="0" precision="FP32">
					<dim>1</dim>
					<dim>1</dim>
					<dim>64</dim>
				</port>
				<port id="1" precision="FP32">
					<dim>1</dim>
					<dim>1</dim>
					<dim>64</dim>
				</port>
			</input>
			<output>
				<port id="2" precision="FP32" names="StatefulPartitionedCall/first_keras/Add,StatefulPartitionedCall/first_keras/Add:0">
					<dim>1</dim>
					<dim>1</dim>
					<dim>64</dim>
				</port>
			</output>
		</layer>
		<layer id="13" name="StatefulPartitionedCall/first_keras/Cast_2" type="Convert" version="opset1">
			<data destination_type="boolean" />
			<input>
				<port id="0" precision="FP32">
					<dim>1</dim>
					<dim>1</dim>
					<dim>64</dim>
				</port>
			</input>
			<output>
				<port id="1" precision="BOOL" names="StatefulPartitionedCall/first_keras/Cast_2,StatefulPartitionedCall/first_keras/Cast_2:0">
					<dim>1</dim>
					<dim>1</dim>
					<dim>64</dim>
				</port>
			</output>
		</layer>
		<layer id="14" name="StatefulPartitionedCall/first_keras/Reshape_2" type="Const" version="opset1">
			<data element_type="i64" shape="1, 64" offset="48388" size="512" />
			<output>
				<port id="0" precision="I64" names="StatefulPartitionedCall/first_keras/Reshape_2,StatefulPartitionedCall/first_keras/Reshape_2:0">
					<dim>1</dim>
					<dim>64</dim>
				</port>
			</output>
		</layer>
		<layer id="15" name="StatefulPartitionedCall/first_keras/Reshape_3" type="Const" version="opset1">
			<data element_type="i64" shape="1, 64" offset="48900" size="512" />
			<output>
				<port id="0" precision="I64" names="StatefulPartitionedCall/first_keras/Reshape_3,StatefulPartitionedCall/first_keras/Reshape_3:0">
					<dim>1</dim>
					<dim>64</dim>
				</port>
			</output>
		</layer>
		<layer id="16" name="StatefulPartitionedCall/first_keras/SelectV2" type="Select" version="opset1">
			<data auto_broadcast="numpy" />
			<input>
				<port id="0" precision="BOOL">
					<dim>1</dim>
					<dim>1</dim>
					<dim>64</dim>
				</port>
				<port id="1" precision="I64">
					<dim>1</dim>
					<dim>64</dim>
				</port>
				<port id="2" precision="I64">
					<dim>1</dim>
					<dim>64</dim>
				</port>
			</input>
			<output>
				<port id="3" precision="I64" names="StatefulPartitionedCall/first_keras/SelectV2,StatefulPartitionedCall/first_keras/SelectV2:0">
					<dim>1</dim>
					<dim>1</dim>
					<dim>64</dim>
				</port>
			</output>
		</layer>
		<layer id="17" name="Constant_2442" type="Const" version="opset1">
			<data element_type="i64" shape="1, 1, 64" offset="49412" size="512" />
			<output>
				<port id="0" precision="I64">
					<dim>1</dim>
					<dim>1</dim>
					<dim>64</dim>
				</port>
			</output>
		</layer>
		<layer id="18" name="StatefulPartitionedCall/first_keras/add_1" type="Add" version="opset1">
			<data auto_broadcast="numpy" />
			<input>
				<port id="0" precision="I64">
					<dim>1</dim>
					<dim>1</dim>
					<dim>64</dim>
				</port>
				<port id="1" precision="I64">
					<dim>1</dim>
					<dim>1</dim>
					<dim>64</dim>
				</port>
			</input>
			<output>
				<port id="2" precision="I64" names="StatefulPartitionedCall/first_keras/add_1,StatefulPartitionedCall/first_keras/add_1:0">
					<dim>1</dim>
					<dim>1</dim>
					<dim>64</dim>
				</port>
			</output>
		</layer>
		<layer id="19" name="Constant_949" type="Const" version="opset1">
			<data element_type="i64" shape="1" offset="49924" size="8" />
			<output>
				<port id="0" precision="I64">
					<dim>1</dim>
				</port>
			</output>
		</layer>
		<layer id="20" name="StatefulPartitionedCall/first_keras/Reshape_4" type="Reshape" version="opset1">
			<data special_zero="false" />
			<input>
				<port id="0" precision="I64">
					<dim>1</dim>
					<dim>1</dim>
					<dim>64</dim>
				</port>
				<port id="1" precision="I64">
					<dim>1</dim>
				</port>
			</input>
			<output>
				<port id="2" precision="I64" names="StatefulPartitionedCall/first_keras/Reshape_4,StatefulPartitionedCall/first_keras/Reshape_4:0">
					<dim>64</dim>
				</port>
			</output>
		</layer>
		<layer id="21" name="StatefulPartitionedCall/first_keras/Gather_4/axis" type="Const" version="opset1">
			<data element_type="i64" shape="" offset="49932" size="8" />
			<output>
				<port id="0" precision="I64" names="StatefulPartitionedCall/first_keras/Gather_4/axis,StatefulPartitionedCall/first_keras/Gather_4/axis:0" />
			</output>
		</layer>
		<layer id="22" name="StatefulPartitionedCall/first_keras/Gather_4" type="Gather" version="opset8">
			<data batch_dims="0" />
			<input>
				<port id="0" precision="I64">
					<dim>1984</dim>
				</port>
				<port id="1" precision="I64">
					<dim>64</dim>
				</port>
				<port id="2" precision="I64" />
			</input>
			<output>
				<port id="3" precision="I64" names="StatefulPartitionedCall/first_keras/Gather_4,StatefulPartitionedCall/first_keras/Gather_4:0,StatefulPartitionedCall/first_keras/Identity_4,StatefulPartitionedCall/first_keras/Identity_4:0">
					<dim>64</dim>
				</port>
			</output>
		</layer>
		<layer id="23" name="StatefulPartitionedCall/first_keras/Reshape_5/shape" type="Const" version="opset1">
			<data element_type="i32" shape="2" offset="49940" size="8" />
			<output>
				<port id="0" precision="I32" names="StatefulPartitionedCall/first_keras/Reshape_5/shape,StatefulPartitionedCall/first_keras/Reshape_5/shape:0">
					<dim>2</dim>
				</port>
			</output>
		</layer>
		<layer id="24" name="StatefulPartitionedCall/first_keras/Reshape_5" type="Reshape" version="opset1">
			<data special_zero="false" />
			<input>
				<port id="0" precision="I64">
					<dim>64</dim>
				</port>
				<port id="1" precision="I32">
					<dim>2</dim>
				</port>
			</input>
			<output>
				<port id="2" precision="I64" names="StatefulPartitionedCall/first_keras/Reshape_5,StatefulPartitionedCall/first_keras/Reshape_5:0">
					<dim>1</dim>
					<dim>64</dim>
				</port>
			</output>
		</layer>
		<layer id="25" name="StatefulPartitionedCall/first_keras/GatherV2_1/axis" type="Const" version="opset1">
			<data element_type="i32" shape="" offset="48128" size="4" />
			<output>
				<port id="0" precision="I32" names="StatefulPartitionedCall/first_keras/GatherV2_1/axis,StatefulPartitionedCall/first_keras/GatherV2_1/axis:0" />
			</output>
		</layer>
		<layer id="26" name="StatefulPartitionedCall/first_keras/GatherV2_1" type="Gather" version="opset8">
			<data batch_dims="0" />
			<input>
				<port id="0" precision="FP32">
					<dim>1</dim>
					<dim>8</dim>
				</port>
				<port id="1" precision="I64">
					<dim>1</dim>
					<dim>64</dim>
				</port>
				<port id="2" precision="I32" />
			</input>
			<output>
				<port id="3" precision="FP32" names="StatefulPartitionedCall/first_keras/GatherV2_1,StatefulPartitionedCall/first_keras/GatherV2_1:0">
					<dim>1</dim>
					<dim>1</dim>
					<dim>64</dim>
				</port>
			</output>
		</layer>
		<layer id="27" name="unknown_1" type="Const" version="opset1">
			<data element_type="f32" shape="1984" offset="49948" size="7936" />
			<output>
				<port id="0" precision="FP32" names="Func/StatefulPartitionedCall/input/_3,Func/StatefulPartitionedCall/input/_3:0,unknown_1,unknown_1:0">
					<dim>1984</dim>
				</port>
			</output>
		</layer>
		<layer id="28" name="StatefulPartitionedCall/first_keras/Gather_5/axis" type="Const" version="opset1">
			<data element_type="i64" shape="" offset="49932" size="8" />
			<output>
				<port id="0" precision="I64" names="StatefulPartitionedCall/first_keras/Gather_5/axis,StatefulPartitionedCall/first_keras/Gather_5/axis:0" />
			</output>
		</layer>
		<layer id="29" name="StatefulPartitionedCall/first_keras/Gather_5" type="Gather" version="opset8">
			<data batch_dims="0" />
			<input>
				<port id="0" precision="FP32">
					<dim>1984</dim>
				</port>
				<port id="1" precision="I64">
					<dim>64</dim>
				</port>
				<port id="2" precision="I64" />
			</input>
			<output>
				<port id="3" precision="FP32" names="StatefulPartitionedCall/first_keras/Gather_5,StatefulPartitionedCall/first_keras/Gather_5:0,StatefulPartitionedCall/first_keras/Identity_5,StatefulPartitionedCall/first_keras/Identity_5:0">
					<dim>64</dim>
				</port>
			</output>
		</layer>
		<layer id="30" name="StatefulPartitionedCall/first_keras/Reshape_6/shape" type="Const" version="opset1">
			<data element_type="i32" shape="2" offset="49940" size="8" />
			<output>
				<port id="0" precision="I32" names="StatefulPartitionedCall/first_keras/Reshape_6/shape,StatefulPartitionedCall/first_keras/Reshape_6/shape:0">
					<dim>2</dim>
				</port>
			</output>
		</layer>
		<layer id="31" name="StatefulPartitionedCall/first_keras/Reshape_6" type="Reshape" version="opset1">
			<data special_zero="false" />
			<input>
				<port id="0" precision="FP32">
					<dim>64</dim>
				</port>
				<port id="1" precision="I32">
					<dim>2</dim>
				</port>
			</input>
			<output>
				<port id="2" precision="FP32" names="StatefulPartitionedCall/first_keras/Reshape_6,StatefulPartitionedCall/first_keras/Reshape_6:0">
					<dim>1</dim>
					<dim>64</dim>
				</port>
			</output>
		</layer>
		<layer id="32" name="StatefulPartitionedCall/first_keras/Less_1" type="Less" version="opset1">
			<data auto_broadcast="numpy" />
			<input>
				<port id="0" precision="FP32">
					<dim>1</dim>
					<dim>1</dim>
					<dim>64</dim>
				</port>
				<port id="1" precision="FP32">
					<dim>1</dim>
					<dim>64</dim>
				</port>
			</input>
			<output>
				<port id="2" precision="BOOL" names="StatefulPartitionedCall/first_keras/Less_1,StatefulPartitionedCall/first_keras/Less_1:0">
					<dim>1</dim>
					<dim>1</dim>
					<dim>64</dim>
				</port>
			</output>
		</layer>
		<layer id="33" name="StatefulPartitionedCall/first_keras/Cast_3" type="Convert" version="opset1">
			<data destination_type="f32" />
			<input>
				<port id="0" precision="BOOL">
					<dim>1</dim>
					<dim>1</dim>
					<dim>64</dim>
				</port>
			</input>
			<output>
				<port id="1" precision="FP32" names="StatefulPartitionedCall/first_keras/Cast_3,StatefulPartitionedCall/first_keras/Cast_3:0">
					<dim>1</dim>
					<dim>1</dim>
					<dim>64</dim>
				</port>
			</output>
		</layer>
		<layer id="34" name="StatefulPartitionedCall/first_keras/Equal_1" type="Equal" version="opset1">
			<data auto_broadcast="numpy" />
			<input>
				<port id="0" precision="FP32">
					<dim>1</dim>
					<dim>1</dim>
					<dim>64</dim>
				</port>
				<port id="1" precision="FP32">
					<dim>1</dim>
					<dim>64</dim>
				</port>
			</input>
			<output>
				<port id="2" precision="BOOL" names="StatefulPartitionedCall/first_keras/Equal_1,StatefulPartitionedCall/first_keras/Equal_1:0">
					<dim>1</dim>
					<dim>1</dim>
					<dim>64</dim>
				</port>
			</output>
		</layer>
		<layer id="35" name="StatefulPartitionedCall/first_keras/Cast_4" type="Convert" version="opset1">
			<data destination_type="f32" />
			<input>
				<port id="0" precision="BOOL">
					<dim>1</dim>
					<dim>1</dim>
					<dim>64</dim>
				</port>
			</input>
			<output>
				<port id="1" precision="FP32" names="StatefulPartitionedCall/first_keras/Cast_4,StatefulPartitionedCall/first_keras/Cast_4:0">
					<dim>1</dim>
					<dim>1</dim>
					<dim>64</dim>
				</port>
			</output>
		</layer>
		<layer id="36" name="StatefulPartitionedCall/first_keras/Add_2" type="Add" version="opset1">
			<data auto_broadcast="numpy" />
			<input>
				<port id="0" precision="FP32">
					<dim>1</dim>
					<dim>1</dim>
					<dim>64</dim>
				</port>
				<port id="1" precision="FP32">
					<dim>1</dim>
					<dim>1</dim>
					<dim>64</dim>
				</port>
			</input>
			<output>
				<port id="2" precision="FP32" names="StatefulPartitionedCall/first_keras/Add_2,StatefulPartitionedCall/first_keras/Add_2:0">
					<dim>1</dim>
					<dim>1</dim>
					<dim>64</dim>
				</port>
			</output>
		</layer>
		<layer id="37" name="StatefulPartitionedCall/first_keras/Cast_5" type="Convert" version="opset1">
			<data destination_type="boolean" />
			<input>
				<port id="0" precision="FP32">
					<dim>1</dim>
					<dim>1</dim>
					<dim>64</dim>
				</port>
			</input>
			<output>
				<port id="1" precision="BOOL" names="StatefulPartitionedCall/first_keras/Cast_5,StatefulPartitionedCall/first_keras/Cast_5:0">
					<dim>1</dim>
					<dim>1</dim>
					<dim>64</dim>
				</port>
			</output>
		</layer>
		<layer id="38" name="unknown_2" type="Const" version="opset1">
			<data element_type="i64" shape="1984" offset="57884" size="15872" />
			<output>
				<port id="0" precision="I64" names="Func/StatefulPartitionedCall/input/_4,Func/StatefulPartitionedCall/input/_4:0,unknown_2,unknown_2:0">
					<dim>1984</dim>
				</port>
			</output>
		</layer>
		<layer id="39" name="StatefulPartitionedCall/first_keras/Gather_6/axis" type="Const" version="opset1">
			<data element_type="i64" shape="" offset="49932" size="8" />
			<output>
				<port id="0" precision="I64" names="StatefulPartitionedCall/first_keras/Gather_6/axis,StatefulPartitionedCall/first_keras/Gather_6/axis:0" />
			</output>
		</layer>
		<layer id="40" name="StatefulPartitionedCall/first_keras/Gather_6" type="Gather" version="opset8">
			<data batch_dims="0" />
			<input>
				<port id="0" precision="I64">
					<dim>1984</dim>
				</port>
				<port id="1" precision="I64">
					<dim>64</dim>
				</port>
				<port id="2" precision="I64" />
			</input>
			<output>
				<port id="3" precision="I64" names="StatefulPartitionedCall/first_keras/Gather_6,StatefulPartitionedCall/first_keras/Gather_6:0,StatefulPartitionedCall/first_keras/Identity_6,StatefulPartitionedCall/first_keras/Identity_6:0">
					<dim>64</dim>
				</port>
			</output>
		</layer>
		<layer id="41" name="StatefulPartitionedCall/first_keras/Reshape_7/shape" type="Const" version="opset1">
			<data element_type="i32" shape="2" offset="49940" size="8" />
			<output>
				<port id="0" precision="I32" names="StatefulPartitionedCall/first_keras/Reshape_7/shape,StatefulPartitionedCall/first_keras/Reshape_7/shape:0">
					<dim>2</dim>
				</port>
			</output>
		</layer>
		<layer id="42" name="StatefulPartitionedCall/first_keras/Reshape_7" type="Reshape" version="opset1">
			<data special_zero="false" />
			<input>
				<port id="0" precision="I64">
					<dim>64</dim>
				</port>
				<port id="1" precision="I32">
					<dim>2</dim>
				</port>
			</input>
			<output>
				<port id="2" precision="I64" names="StatefulPartitionedCall/first_keras/Reshape_7,StatefulPartitionedCall/first_keras/Reshape_7:0">
					<dim>1</dim>
					<dim>64</dim>
				</port>
			</output>
		</layer>
		<layer id="43" name="unknown_3" type="Const" version="opset1">
			<data element_type="i64" shape="1984" offset="73756" size="15872" />
			<output>
				<port id="0" precision="I64" names="Func/StatefulPartitionedCall/input/_5,Func/StatefulPartitionedCall/input/_5:0,unknown_3,unknown_3:0">
					<dim>1984</dim>
				</port>
			</output>
		</layer>
		<layer id="44" name="StatefulPartitionedCall/first_keras/Gather_7/axis" type="Const" version="opset1">
			<data element_type="i64" shape="" offset="49932" size="8" />
			<output>
				<port id="0" precision="I64" names="StatefulPartitionedCall/first_keras/Gather_7/axis,StatefulPartitionedCall/first_keras/Gather_7/axis:0" />
			</output>
		</layer>
		<layer id="45" name="StatefulPartitionedCall/first_keras/Gather_7" type="Gather" version="opset8">
			<data batch_dims="0" />
			<input>
				<port id="0" precision="I64">
					<dim>1984</dim>
				</port>
				<port id="1" precision="I64">
					<dim>64</dim>
				</port>
				<port id="2" precision="I64" />
			</input>
			<output>
				<port id="3" precision="I64" names="StatefulPartitionedCall/first_keras/Gather_7,StatefulPartitionedCall/first_keras/Gather_7:0,StatefulPartitionedCall/first_keras/Identity_7,StatefulPartitionedCall/first_keras/Identity_7:0">
					<dim>64</dim>
				</port>
			</output>
		</layer>
		<layer id="46" name="StatefulPartitionedCall/first_keras/Reshape_8/shape" type="Const" version="opset1">
			<data element_type="i32" shape="2" offset="49940" size="8" />
			<output>
				<port id="0" precision="I32" names="StatefulPartitionedCall/first_keras/Reshape_8/shape,StatefulPartitionedCall/first_keras/Reshape_8/shape:0">
					<dim>2</dim>
				</port>
			</output>
		</layer>
		<layer id="47" name="StatefulPartitionedCall/first_keras/Reshape_8" type="Reshape" version="opset1">
			<data special_zero="false" />
			<input>
				<port id="0" precision="I64">
					<dim>64</dim>
				</port>
				<port id="1" precision="I32">
					<dim>2</dim>
				</port>
			</input>
			<output>
				<port id="2" precision="I64" names="StatefulPartitionedCall/first_keras/Reshape_8,StatefulPartitionedCall/first_keras/Reshape_8:0">
					<dim>1</dim>
					<dim>64</dim>
				</port>
			</output>
		</layer>
		<layer id="48" name="StatefulPartitionedCall/first_keras/SelectV2_1" type="Select" version="opset1">
			<data auto_broadcast="numpy" />
			<input>
				<port id="0" precision="BOOL">
					<dim>1</dim>
					<dim>1</dim>
					<dim>64</dim>
				</port>
				<port id="1" precision="I64">
					<dim>1</dim>
					<dim>64</dim>
				</port>
				<port id="2" precision="I64">
					<dim>1</dim>
					<dim>64</dim>
				</port>
			</input>
			<output>
				<port id="3" precision="I64" names="StatefulPartitionedCall/first_keras/SelectV2_1,StatefulPartitionedCall/first_keras/SelectV2_1:0">
					<dim>1</dim>
					<dim>1</dim>
					<dim>64</dim>
				</port>
			</output>
		</layer>
		<layer id="49" name="Constant_2443" type="Const" version="opset1">
			<data element_type="i64" shape="1, 1, 64" offset="49412" size="512" />
			<output>
				<port id="0" precision="I64">
					<dim>1</dim>
					<dim>1</dim>
					<dim>64</dim>
				</port>
			</output>
		</layer>
		<layer id="50" name="StatefulPartitionedCall/first_keras/add_3" type="Add" version="opset1">
			<data auto_broadcast="numpy" />
			<input>
				<port id="0" precision="I64">
					<dim>1</dim>
					<dim>1</dim>
					<dim>64</dim>
				</port>
				<port id="1" precision="I64">
					<dim>1</dim>
					<dim>1</dim>
					<dim>64</dim>
				</port>
			</input>
			<output>
				<port id="2" precision="I64" names="StatefulPartitionedCall/first_keras/add_3,StatefulPartitionedCall/first_keras/add_3:0">
					<dim>1</dim>
					<dim>1</dim>
					<dim>64</dim>
				</port>
			</output>
		</layer>
		<layer id="51" name="Constant_950" type="Const" version="opset1">
			<data element_type="i64" shape="1" offset="49924" size="8" />
			<output>
				<port id="0" precision="I64">
					<dim>1</dim>
				</port>
			</output>
		</layer>
		<layer id="52" name="StatefulPartitionedCall/first_keras/Reshape_9" type="Reshape" version="opset1">
			<data special_zero="false" />
			<input>
				<port id="0" precision="I64">
					<dim>1</dim>
					<dim>1</dim>
					<dim>64</dim>
				</port>
				<port id="1" precision="I64">
					<dim>1</dim>
				</port>
			</input>
			<output>
				<port id="2" precision="I64" names="StatefulPartitionedCall/first_keras/Reshape_9,StatefulPartitionedCall/first_keras/Reshape_9:0">
					<dim>64</dim>
				</port>
			</output>
		</layer>
		<layer id="53" name="StatefulPartitionedCall/first_keras/Gather_8/axis" type="Const" version="opset1">
			<data element_type="i64" shape="" offset="49932" size="8" />
			<output>
				<port id="0" precision="I64" names="StatefulPartitionedCall/first_keras/Gather_8/axis,StatefulPartitionedCall/first_keras/Gather_8/axis:0" />
			</output>
		</layer>
		<layer id="54" name="StatefulPartitionedCall/first_keras/Gather_8" type="Gather" version="opset8">
			<data batch_dims="0" />
			<input>
				<port id="0" precision="I64">
					<dim>1984</dim>
				</port>
				<port id="1" precision="I64">
					<dim>64</dim>
				</port>
				<port id="2" precision="I64" />
			</input>
			<output>
				<port id="3" precision="I64" names="StatefulPartitionedCall/first_keras/Gather_8,StatefulPartitionedCall/first_keras/Gather_8:0,StatefulPartitionedCall/first_keras/Identity_8,StatefulPartitionedCall/first_keras/Identity_8:0">
					<dim>64</dim>
				</port>
			</output>
		</layer>
		<layer id="55" name="StatefulPartitionedCall/first_keras/Reshape_10/shape" type="Const" version="opset1">
			<data element_type="i32" shape="2" offset="49940" size="8" />
			<output>
				<port id="0" precision="I32" names="StatefulPartitionedCall/first_keras/Reshape_10/shape,StatefulPartitionedCall/first_keras/Reshape_10/shape:0">
					<dim>2</dim>
				</port>
			</output>
		</layer>
		<layer id="56" name="StatefulPartitionedCall/first_keras/Reshape_10" type="Reshape" version="opset1">
			<data special_zero="false" />
			<input>
				<port id="0" precision="I64">
					<dim>64</dim>
				</port>
				<port id="1" precision="I32">
					<dim>2</dim>
				</port>
			</input>
			<output>
				<port id="2" precision="I64" names="StatefulPartitionedCall/first_keras/Reshape_10,StatefulPartitionedCall/first_keras/Reshape_10:0">
					<dim>1</dim>
					<dim>64</dim>
				</port>
			</output>
		</layer>
		<layer id="57" name="StatefulPartitionedCall/first_keras/GatherV2_2/axis" type="Const" version="opset1">
			<data element_type="i32" shape="" offset="48128" size="4" />
			<output>
				<port id="0" precision="I32" names="StatefulPartitionedCall/first_keras/GatherV2_2/axis,StatefulPartitionedCall/first_keras/GatherV2_2/axis:0" />
			</output>
		</layer>
		<layer id="58" name="StatefulPartitionedCall/first_keras/GatherV2_2" type="Gather" version="opset8">
			<data batch_dims="0" />
			<input>
				<port id="0" precision="FP32">
					<dim>1</dim>
					<dim>8</dim>
				</port>
				<port id="1" precision="I64">
					<dim>1</dim>
					<dim>64</dim>
				</port>
				<port id="2" precision="I32" />
			</input>
			<output>
				<port id="3" precision="FP32" names="StatefulPartitionedCall/first_keras/GatherV2_2,StatefulPartitionedCall/first_keras/GatherV2_2:0">
					<dim>1</dim>
					<dim>1</dim>
					<dim>64</dim>
				</port>
			</output>
		</layer>
		<layer id="59" name="StatefulPartitionedCall/first_keras/Gather_9/axis" type="Const" version="opset1">
			<data element_type="i64" shape="" offset="49932" size="8" />
			<output>
				<port id="0" precision="I64" names="StatefulPartitionedCall/first_keras/Gather_9/axis,StatefulPartitionedCall/first_keras/Gather_9/axis:0" />
			</output>
		</layer>
		<layer id="60" name="StatefulPartitionedCall/first_keras/Gather_9" type="Gather" version="opset8">
			<data batch_dims="0" />
			<input>
				<port id="0" precision="FP32">
					<dim>1984</dim>
				</port>
				<port id="1" precision="I64">
					<dim>64</dim>
				</port>
				<port id="2" precision="I64" />
			</input>
			<output>
				<port id="3" precision="FP32" names="StatefulPartitionedCall/first_keras/Gather_9,StatefulPartitionedCall/first_keras/Gather_9:0,StatefulPartitionedCall/first_keras/Identity_9,StatefulPartitionedCall/first_keras/Identity_9:0">
					<dim>64</dim>
				</port>
			</output>
		</layer>
		<layer id="61" name="StatefulPartitionedCall/first_keras/Reshape_11/shape" type="Const" version="opset1">
			<data element_type="i32" shape="2" offset="49940" size="8" />
			<output>
				<port id="0" precision="I32" names="StatefulPartitionedCall/first_keras/Reshape_11/shape,StatefulPartitionedCall/first_keras/Reshape_11/shape:0">
					<dim>2</dim>
				</port>
			</output>
		</layer>
		<layer id="62" name="StatefulPartitionedCall/first_keras/Reshape_11" type="Reshape" version="opset1">
			<data special_zero="false" />
			<input>
				<port id="0" precision="FP32">
					<dim>64</dim>
				</port>
				<port id="1" precision="I32">
					<dim>2</dim>
				</port>
			</input>
			<output>
				<port id="2" precision="FP32" names="StatefulPartitionedCall/first_keras/Reshape_11,StatefulPartitionedCall/first_keras/Reshape_11:0">
					<dim>1</dim>
					<dim>64</dim>
				</port>
			</output>
		</layer>
		<layer id="63" name="StatefulPartitionedCall/first_keras/Less_2" type="Less" version="opset1">
			<data auto_broadcast="numpy" />
			<input>
				<port id="0" precision="FP32">
					<dim>1</dim>
					<dim>1</dim>
					<dim>64</dim>
				</port>
				<port id="1" precision="FP32">
					<dim>1</dim>
					<dim>64</dim>
				</port>
			</input>
			<output>
				<port id="2" precision="BOOL" names="StatefulPartitionedCall/first_keras/Less_2,StatefulPartitionedCall/first_keras/Less_2:0">
					<dim>1</dim>
					<dim>1</dim>
					<dim>64</dim>
				</port>
			</output>
		</layer>
		<layer id="64" name="StatefulPartitionedCall/first_keras/Cast_6" type="Convert" version="opset1">
			<data destination_type="f32" />
			<input>
				<port id="0" precision="BOOL">
					<dim>1</dim>
					<dim>1</dim>
					<dim>64</dim>
				</port>
			</input>
			<output>
				<port id="1" precision="FP32" names="StatefulPartitionedCall/first_keras/Cast_6,StatefulPartitionedCall/first_keras/Cast_6:0">
					<dim>1</dim>
					<dim>1</dim>
					<dim>64</dim>
				</port>
			</output>
		</layer>
		<layer id="65" name="StatefulPartitionedCall/first_keras/Equal_2" type="Equal" version="opset1">
			<data auto_broadcast="numpy" />
			<input>
				<port id="0" precision="FP32">
					<dim>1</dim>
					<dim>1</dim>
					<dim>64</dim>
				</port>
				<port id="1" precision="FP32">
					<dim>1</dim>
					<dim>64</dim>
				</port>
			</input>
			<output>
				<port id="2" precision="BOOL" names="StatefulPartitionedCall/first_keras/Equal_2,StatefulPartitionedCall/first_keras/Equal_2:0">
					<dim>1</dim>
					<dim>1</dim>
					<dim>64</dim>
				</port>
			</output>
		</layer>
		<layer id="66" name="StatefulPartitionedCall/first_keras/Cast_7" type="Convert" version="opset1">
			<data destination_type="f32" />
			<input>
				<port id="0" precision="BOOL">
					<dim>1</dim>
					<dim>1</dim>
					<dim>64</dim>
				</port>
			</input>
			<output>
				<port id="1" precision="FP32" names="StatefulPartitionedCall/first_keras/Cast_7,StatefulPartitionedCall/first_keras/Cast_7:0">
					<dim>1</dim>
					<dim>1</dim>
					<dim>64</dim>
				</port>
			</output>
		</layer>
		<layer id="67" name="StatefulPartitionedCall/first_keras/Add_4" type="Add" version="opset1">
			<data auto_broadcast="numpy" />
			<input>
				<port id="0" precision="FP32">
					<dim>1</dim>
					<dim>1</dim>
					<dim>64</dim>
				</port>
				<port id="1" precision="FP32">
					<dim>1</dim>
					<dim>1</dim>
					<dim>64</dim>
				</port>
			</input>
			<output>
				<port id="2" precision="FP32" names="StatefulPartitionedCall/first_keras/Add_4,StatefulPartitionedCall/first_keras/Add_4:0">
					<dim>1</dim>
					<dim>1</dim>
					<dim>64</dim>
				</port>
			</output>
		</layer>
		<layer id="68" name="StatefulPartitionedCall/first_keras/Cast_8" type="Convert" version="opset1">
			<data destination_type="boolean" />
			<input>
				<port id="0" precision="FP32">
					<dim>1</dim>
					<dim>1</dim>
					<dim>64</dim>
				</port>
			</input>
			<output>
				<port id="1" precision="BOOL" names="StatefulPartitionedCall/first_keras/Cast_8,StatefulPartitionedCall/first_keras/Cast_8:0">
					<dim>1</dim>
					<dim>1</dim>
					<dim>64</dim>
				</port>
			</output>
		</layer>
		<layer id="69" name="StatefulPartitionedCall/first_keras/Gather_10/axis" type="Const" version="opset1">
			<data element_type="i64" shape="" offset="49932" size="8" />
			<output>
				<port id="0" precision="I64" names="StatefulPartitionedCall/first_keras/Gather_10/axis,StatefulPartitionedCall/first_keras/Gather_10/axis:0" />
			</output>
		</layer>
		<layer id="70" name="StatefulPartitionedCall/first_keras/Gather_10" type="Gather" version="opset8">
			<data batch_dims="0" />
			<input>
				<port id="0" precision="I64">
					<dim>1984</dim>
				</port>
				<port id="1" precision="I64">
					<dim>64</dim>
				</port>
				<port id="2" precision="I64" />
			</input>
			<output>
				<port id="3" precision="I64" names="StatefulPartitionedCall/first_keras/Gather_10,StatefulPartitionedCall/first_keras/Gather_10:0,StatefulPartitionedCall/first_keras/Identity_10,StatefulPartitionedCall/first_keras/Identity_10:0">
					<dim>64</dim>
				</port>
			</output>
		</layer>
		<layer id="71" name="StatefulPartitionedCall/first_keras/Reshape_12/shape" type="Const" version="opset1">
			<data element_type="i32" shape="2" offset="49940" size="8" />
			<output>
				<port id="0" precision="I32" names="StatefulPartitionedCall/first_keras/Reshape_12/shape,StatefulPartitionedCall/first_keras/Reshape_12/shape:0">
					<dim>2</dim>
				</port>
			</output>
		</layer>
		<layer id="72" name="StatefulPartitionedCall/first_keras/Reshape_12" type="Reshape" version="opset1">
			<data special_zero="false" />
			<input>
				<port id="0" precision="I64">
					<dim>64</dim>
				</port>
				<port id="1" precision="I32">
					<dim>2</dim>
				</port>
			</input>
			<output>
				<port id="2" precision="I64" names="StatefulPartitionedCall/first_keras/Reshape_12,StatefulPartitionedCall/first_keras/Reshape_12:0">
					<dim>1</dim>
					<dim>64</dim>
				</port>
			</output>
		</layer>
		<layer id="73" name="StatefulPartitionedCall/first_keras/Gather_11/axis" type="Const" version="opset1">
			<data element_type="i64" shape="" offset="49932" size="8" />
			<output>
				<port id="0" precision="I64" names="StatefulPartitionedCall/first_keras/Gather_11/axis,StatefulPartitionedCall/first_keras/Gather_11/axis:0" />
			</output>
		</layer>
		<layer id="74" name="StatefulPartitionedCall/first_keras/Gather_11" type="Gather" version="opset8">
			<data batch_dims="0" />
			<input>
				<port id="0" precision="I64">
					<dim>1984</dim>
				</port>
				<port id="1" precision="I64">
					<dim>64</dim>
				</port>
				<port id="2" precision="I64" />
			</input>
			<output>
				<port id="3" precision="I64" names="StatefulPartitionedCall/first_keras/Gather_11,StatefulPartitionedCall/first_keras/Gather_11:0,StatefulPartitionedCall/first_keras/Identity_11,StatefulPartitionedCall/first_keras/Identity_11:0">
					<dim>64</dim>
				</port>
			</output>
		</layer>
		<layer id="75" name="StatefulPartitionedCall/first_keras/Reshape_13/shape" type="Const" version="opset1">
			<data element_type="i32" shape="2" offset="49940" size="8" />
			<output>
				<port id="0" precision="I32" names="StatefulPartitionedCall/first_keras/Reshape_13/shape,StatefulPartitionedCall/first_keras/Reshape_13/shape:0">
					<dim>2</dim>
				</port>
			</output>
		</layer>
		<layer id="76" name="StatefulPartitionedCall/first_keras/Reshape_13" type="Reshape" version="opset1">
			<data special_zero="false" />
			<input>
				<port id="0" precision="I64">
					<dim>64</dim>
				</port>
				<port id="1" precision="I32">
					<dim>2</dim>
				</port>
			</input>
			<output>
				<port id="2" precision="I64" names="StatefulPartitionedCall/first_keras/Reshape_13,StatefulPartitionedCall/first_keras/Reshape_13:0">
					<dim>1</dim>
					<dim>64</dim>
				</port>
			</output>
		</layer>
		<layer id="77" name="StatefulPartitionedCall/first_keras/SelectV2_2" type="Select" version="opset1">
			<data auto_broadcast="numpy" />
			<input>
				<port id="0" precision="BOOL">
					<dim>1</dim>
					<dim>1</dim>
					<dim>64</dim>
				</port>
				<port id="1" precision="I64">
					<dim>1</dim>
					<dim>64</dim>
				</port>
				<port id="2" precision="I64">
					<dim>1</dim>
					<dim>64</dim>
				</port>
			</input>
			<output>
				<port id="3" precision="I64" names="StatefulPartitionedCall/first_keras/SelectV2_2,StatefulPartitionedCall/first_keras/SelectV2_2:0">
					<dim>1</dim>
					<dim>1</dim>
					<dim>64</dim>
				</port>
			</output>
		</layer>
		<layer id="78" name="Constant_2444" type="Const" version="opset1">
			<data element_type="i64" shape="1, 1, 64" offset="49412" size="512" />
			<output>
				<port id="0" precision="I64">
					<dim>1</dim>
					<dim>1</dim>
					<dim>64</dim>
				</port>
			</output>
		</layer>
		<layer id="79" name="StatefulPartitionedCall/first_keras/add_5" type="Add" version="opset1">
			<data auto_broadcast="numpy" />
			<input>
				<port id="0" precision="I64">
					<dim>1</dim>
					<dim>1</dim>
					<dim>64</dim>
				</port>
				<port id="1" precision="I64">
					<dim>1</dim>
					<dim>1</dim>
					<dim>64</dim>
				</port>
			</input>
			<output>
				<port id="2" precision="I64" names="StatefulPartitionedCall/first_keras/add_5,StatefulPartitionedCall/first_keras/add_5:0">
					<dim>1</dim>
					<dim>1</dim>
					<dim>64</dim>
				</port>
			</output>
		</layer>
		<layer id="80" name="Constant_951" type="Const" version="opset1">
			<data element_type="i64" shape="1" offset="49924" size="8" />
			<output>
				<port id="0" precision="I64">
					<dim>1</dim>
				</port>
			</output>
		</layer>
		<layer id="81" name="StatefulPartitionedCall/first_keras/Reshape_14" type="Reshape" version="opset1">
			<data special_zero="false" />
			<input>
				<port id="0" precision="I64">
					<dim>1</dim>
					<dim>1</dim>
					<dim>64</dim>
				</port>
				<port id="1" precision="I64">
					<dim>1</dim>
				</port>
			</input>
			<output>
				<port id="2" precision="I64" names="StatefulPartitionedCall/first_keras/Reshape_14,StatefulPartitionedCall/first_keras/Reshape_14:0">
					<dim>64</dim>
				</port>
			</output>
		</layer>
		<layer id="82" name="StatefulPartitionedCall/first_keras/Gather_12/axis" type="Const" version="opset1">
			<data element_type="i64" shape="" offset="49932" size="8" />
			<output>
				<port id="0" precision="I64" names="StatefulPartitionedCall/first_keras/Gather_12/axis,StatefulPartitionedCall/first_keras/Gather_12/axis:0" />
			</output>
		</layer>
		<layer id="83" name="StatefulPartitionedCall/first_keras/Gather_12" type="Gather" version="opset8">
			<data batch_dims="0" />
			<input>
				<port id="0" precision="I64">
					<dim>1984</dim>
				</port>
				<port id="1" precision="I64">
					<dim>64</dim>
				</port>
				<port id="2" precision="I64" />
			</input>
			<output>
				<port id="3" precision="I64" names="StatefulPartitionedCall/first_keras/Gather_12,StatefulPartitionedCall/first_keras/Gather_12:0,StatefulPartitionedCall/first_keras/Identity_12,StatefulPartitionedCall/first_keras/Identity_12:0">
					<dim>64</dim>
				</port>
			</output>
		</layer>
		<layer id="84" name="StatefulPartitionedCall/first_keras/Reshape_15/shape" type="Const" version="opset1">
			<data element_type="i32" shape="2" offset="49940" size="8" />
			<output>
				<port id="0" precision="I32" names="StatefulPartitionedCall/first_keras/Reshape_15/shape,StatefulPartitionedCall/first_keras/Reshape_15/shape:0">
					<dim>2</dim>
				</port>
			</output>
		</layer>
		<layer id="85" name="StatefulPartitionedCall/first_keras/Reshape_15" type="Reshape" version="opset1">
			<data special_zero="false" />
			<input>
				<port id="0" precision="I64">
					<dim>64</dim>
				</port>
				<port id="1" precision="I32">
					<dim>2</dim>
				</port>
			</input>
			<output>
				<port id="2" precision="I64" names="StatefulPartitionedCall/first_keras/Reshape_15,StatefulPartitionedCall/first_keras/Reshape_15:0">
					<dim>1</dim>
					<dim>64</dim>
				</port>
			</output>
		</layer>
		<layer id="86" name="StatefulPartitionedCall/first_keras/GatherV2_3/axis" type="Const" version="opset1">
			<data element_type="i32" shape="" offset="48128" size="4" />
			<output>
				<port id="0" precision="I32" names="StatefulPartitionedCall/first_keras/GatherV2_3/axis,StatefulPartitionedCall/first_keras/GatherV2_3/axis:0" />
			</output>
		</layer>
		<layer id="87" name="StatefulPartitionedCall/first_keras/GatherV2_3" type="Gather" version="opset8">
			<data batch_dims="0" />
			<input>
				<port id="0" precision="FP32">
					<dim>1</dim>
					<dim>8</dim>
				</port>
				<port id="1" precision="I64">
					<dim>1</dim>
					<dim>64</dim>
				</port>
				<port id="2" precision="I32" />
			</input>
			<output>
				<port id="3" precision="FP32" names="StatefulPartitionedCall/first_keras/GatherV2_3,StatefulPartitionedCall/first_keras/GatherV2_3:0">
					<dim>1</dim>
					<dim>1</dim>
					<dim>64</dim>
				</port>
			</output>
		</layer>
		<layer id="88" name="StatefulPartitionedCall/first_keras/Gather_13/axis" type="Const" version="opset1">
			<data element_type="i64" shape="" offset="49932" size="8" />
			<output>
				<port id="0" precision="I64" names="StatefulPartitionedCall/first_keras/Gather_13/axis,StatefulPartitionedCall/first_keras/Gather_13/axis:0" />
			</output>
		</layer>
		<layer id="89" name="StatefulPartitionedCall/first_keras/Gather_13" type="Gather" version="opset8">
			<data batch_dims="0" />
			<input>
				<port id="0" precision="FP32">
					<dim>1984</dim>
				</port>
				<port id="1" precision="I64">
					<dim>64</dim>
				</port>
				<port id="2" precision="I64" />
			</input>
			<output>
				<port id="3" precision="FP32" names="StatefulPartitionedCall/first_keras/Gather_13,StatefulPartitionedCall/first_keras/Gather_13:0,StatefulPartitionedCall/first_keras/Identity_13,StatefulPartitionedCall/first_keras/Identity_13:0">
					<dim>64</dim>
				</port>
			</output>
		</layer>
		<layer id="90" name="StatefulPartitionedCall/first_keras/Reshape_16/shape" type="Const" version="opset1">
			<data element_type="i32" shape="2" offset="49940" size="8" />
			<output>
				<port id="0" precision="I32" names="StatefulPartitionedCall/first_keras/Reshape_16/shape,StatefulPartitionedCall/first_keras/Reshape_16/shape:0">
					<dim>2</dim>
				</port>
			</output>
		</layer>
		<layer id="91" name="StatefulPartitionedCall/first_keras/Reshape_16" type="Reshape" version="opset1">
			<data special_zero="false" />
			<input>
				<port id="0" precision="FP32">
					<dim>64</dim>
				</port>
				<port id="1" precision="I32">
					<dim>2</dim>
				</port>
			</input>
			<output>
				<port id="2" precision="FP32" names="StatefulPartitionedCall/first_keras/Reshape_16,StatefulPartitionedCall/first_keras/Reshape_16:0">
					<dim>1</dim>
					<dim>64</dim>
				</port>
			</output>
		</layer>
		<layer id="92" name="StatefulPartitionedCall/first_keras/Less_3" type="Less" version="opset1">
			<data auto_broadcast="numpy" />
			<input>
				<port id="0" precision="FP32">
					<dim>1</dim>
					<dim>1</dim>
					<dim>64</dim>
				</port>
				<port id="1" precision="FP32">
					<dim>1</dim>
					<dim>64</dim>
				</port>
			</input>
			<output>
				<port id="2" precision="BOOL" names="StatefulPartitionedCall/first_keras/Less_3,StatefulPartitionedCall/first_keras/Less_3:0">
					<dim>1</dim>
					<dim>1</dim>
					<dim>64</dim>
				</port>
			</output>
		</layer>
		<layer id="93" name="StatefulPartitionedCall/first_keras/Cast_9" type="Convert" version="opset1">
			<data destination_type="f32" />
			<input>
				<port id="0" precision="BOOL">
					<dim>1</dim>
					<dim>1</dim>
					<dim>64</dim>
				</port>
			</input>
			<output>
				<port id="1" precision="FP32" names="StatefulPartitionedCall/first_keras/Cast_9,StatefulPartitionedCall/first_keras/Cast_9:0">
					<dim>1</dim>
					<dim>1</dim>
					<dim>64</dim>
				</port>
			</output>
		</layer>
		<layer id="94" name="StatefulPartitionedCall/first_keras/Equal_3" type="Equal" version="opset1">
			<data auto_broadcast="numpy" />
			<input>
				<port id="0" precision="FP32">
					<dim>1</dim>
					<dim>1</dim>
					<dim>64</dim>
				</port>
				<port id="1" precision="FP32">
					<dim>1</dim>
					<dim>64</dim>
				</port>
			</input>
			<output>
				<port id="2" precision="BOOL" names="StatefulPartitionedCall/first_keras/Equal_3,StatefulPartitionedCall/first_keras/Equal_3:0">
					<dim>1</dim>
					<dim>1</dim>
					<dim>64</dim>
				</port>
			</output>
		</layer>
		<layer id="95" name="StatefulPartitionedCall/first_keras/Cast_10" type="Convert" version="opset1">
			<data destination_type="f32" />
			<input>
				<port id="0" precision="BOOL">
					<dim>1</dim>
					<dim>1</dim>
					<dim>64</dim>
				</port>
			</input>
			<output>
				<port id="1" precision="FP32" names="StatefulPartitionedCall/first_keras/Cast_10,StatefulPartitionedCall/first_keras/Cast_10:0">
					<dim>1</dim>
					<dim>1</dim>
					<dim>64</dim>
				</port>
			</output>
		</layer>
		<layer id="96" name="StatefulPartitionedCall/first_keras/Add_6" type="Add" version="opset1">
			<data auto_broadcast="numpy" />
			<input>
				<port id="0" precision="FP32">
					<dim>1</dim>
					<dim>1</dim>
					<dim>64</dim>
				</port>
				<port id="1" precision="FP32">
					<dim>1</dim>
					<dim>1</dim>
					<dim>64</dim>
				</port>
			</input>
			<output>
				<port id="2" precision="FP32" names="StatefulPartitionedCall/first_keras/Add_6,StatefulPartitionedCall/first_keras/Add_6:0">
					<dim>1</dim>
					<dim>1</dim>
					<dim>64</dim>
				</port>
			</output>
		</layer>
		<layer id="97" name="StatefulPartitionedCall/first_keras/Cast_11" type="Convert" version="opset1">
			<data destination_type="boolean" />
			<input>
				<port id="0" precision="FP32">
					<dim>1</dim>
					<dim>1</dim>
					<dim>64</dim>
				</port>
			</input>
			<output>
				<port id="1" precision="BOOL" names="StatefulPartitionedCall/first_keras/Cast_11,StatefulPartitionedCall/first_keras/Cast_11:0">
					<dim>1</dim>
					<dim>1</dim>
					<dim>64</dim>
				</port>
			</output>
		</layer>
		<layer id="98" name="StatefulPartitionedCall/first_keras/Gather_14/axis" type="Const" version="opset1">
			<data element_type="i64" shape="" offset="49932" size="8" />
			<output>
				<port id="0" precision="I64" names="StatefulPartitionedCall/first_keras/Gather_14/axis,StatefulPartitionedCall/first_keras/Gather_14/axis:0" />
			</output>
		</layer>
		<layer id="99" name="StatefulPartitionedCall/first_keras/Gather_14" type="Gather" version="opset8">
			<data batch_dims="0" />
			<input>
				<port id="0" precision="I64">
					<dim>1984</dim>
				</port>
				<port id="1" precision="I64">
					<dim>64</dim>
				</port>
				<port id="2" precision="I64" />
			</input>
			<output>
				<port id="3" precision="I64" names="StatefulPartitionedCall/first_keras/Gather_14,StatefulPartitionedCall/first_keras/Gather_14:0,StatefulPartitionedCall/first_keras/Identity_14,StatefulPartitionedCall/first_keras/Identity_14:0">
					<dim>64</dim>
				</port>
			</output>
		</layer>
		<layer id="100" name="StatefulPartitionedCall/first_keras/Reshape_17/shape" type="Const" version="opset1">
			<data element_type="i32" shape="2" offset="49940" size="8" />
			<output>
				<port id="0" precision="I32" names="StatefulPartitionedCall/first_keras/Reshape_17/shape,StatefulPartitionedCall/first_keras/Reshape_17/shape:0">
					<dim>2</dim>
				</port>
			</output>
		</layer>
		<layer id="101" name="StatefulPartitionedCall/first_keras/Reshape_17" type="Reshape" version="opset1">
			<data special_zero="false" />
			<input>
				<port id="0" precision="I64">
					<dim>64</dim>
				</port>
				<port id="1" precision="I32">
					<dim>2</dim>
				</port>
			</input>
			<output>
				<port id="2" precision="I64" names="StatefulPartitionedCall/first_keras/Reshape_17,StatefulPartitionedCall/first_keras/Reshape_17:0">
					<dim>1</dim>
					<dim>64</dim>
				</port>
			</output>
		</layer>
		<layer id="102" name="StatefulPartitionedCall/first_keras/Gather_15/axis" type="Const" version="opset1">
			<data element_type="i64" shape="" offset="49932" size="8" />
			<output>
				<port id="0" precision="I64" names="StatefulPartitionedCall/first_keras/Gather_15/axis,StatefulPartitionedCall/first_keras/Gather_15/axis:0" />
			</output>
		</layer>
		<layer id="103" name="StatefulPartitionedCall/first_keras/Gather_15" type="Gather" version="opset8">
			<data batch_dims="0" />
			<input>
				<port id="0" precision="I64">
					<dim>1984</dim>
				</port>
				<port id="1" precision="I64">
					<dim>64</dim>
				</port>
				<port id="2" precision="I64" />
			</input>
			<output>
				<port id="3" precision="I64" names="StatefulPartitionedCall/first_keras/Gather_15,StatefulPartitionedCall/first_keras/Gather_15:0,StatefulPartitionedCall/first_keras/Identity_15,StatefulPartitionedCall/first_keras/Identity_15:0">
					<dim>64</dim>
				</port>
			</output>
		</layer>
		<layer id="104" name="StatefulPartitionedCall/first_keras/Reshape_18/shape" type="Const" version="opset1">
			<data element_type="i32" shape="2" offset="49940" size="8" />
			<output>
				<port id="0" precision="I32" names="StatefulPartitionedCall/first_keras/Reshape_18/shape,StatefulPartitionedCall/first_keras/Reshape_18/shape:0">
					<dim>2</dim>
				</port>
			</output>
		</layer>
		<layer id="105" name="StatefulPartitionedCall/first_keras/Reshape_18" type="Reshape" version="opset1">
			<data special_zero="false" />
			<input>
				<port id="0" precision="I64">
					<dim>64</dim>
				</port>
				<port id="1" precision="I32">
					<dim>2</dim>
				</port>
			</input>
			<output>
				<port id="2" precision="I64" names="StatefulPartitionedCall/first_keras/Reshape_18,StatefulPartitionedCall/first_keras/Reshape_18:0">
					<dim>1</dim>
					<dim>64</dim>
				</port>
			</output>
		</layer>
		<layer id="106" name="StatefulPartitionedCall/first_keras/SelectV2_3" type="Select" version="opset1">
			<data auto_broadcast="numpy" />
			<input>
				<port id="0" precision="BOOL">
					<dim>1</dim>
					<dim>1</dim>
					<dim>64</dim>
				</port>
				<port id="1" precision="I64">
					<dim>1</dim>
					<dim>64</dim>
				</port>
				<port id="2" precision="I64">
					<dim>1</dim>
					<dim>64</dim>
				</port>
			</input>
			<output>
				<port id="3" precision="I64" names="StatefulPartitionedCall/first_keras/SelectV2_3,StatefulPartitionedCall/first_keras/SelectV2_3:0">
					<dim>1</dim>
					<dim>1</dim>
					<dim>64</dim>
				</port>
			</output>
		</layer>
		<layer id="107" name="Constant_2445" type="Const" version="opset1">
			<data element_type="i64" shape="1, 1, 64" offset="49412" size="512" />
			<output>
				<port id="0" precision="I64">
					<dim>1</dim>
					<dim>1</dim>
					<dim>64</dim>
				</port>
			</output>
		</layer>
		<layer id="108" name="StatefulPartitionedCall/first_keras/add_7" type="Add" version="opset1">
			<data auto_broadcast="numpy" />
			<input>
				<port id="0" precision="I64">
					<dim>1</dim>
					<dim>1</dim>
					<dim>64</dim>
				</port>
				<port id="1" precision="I64">
					<dim>1</dim>
					<dim>1</dim>
					<dim>64</dim>
				</port>
			</input>
			<output>
				<port id="2" precision="I64" names="StatefulPartitionedCall/first_keras/add_7,StatefulPartitionedCall/first_keras/add_7:0">
					<dim>1</dim>
					<dim>1</dim>
					<dim>64</dim>
				</port>
			</output>
		</layer>
		<layer id="109" name="Constant_952" type="Const" version="opset1">
			<data element_type="i64" shape="1" offset="49924" size="8" />
			<output>
				<port id="0" precision="I64">
					<dim>1</dim>
				</port>
			</output>
		</layer>
		<layer id="110" name="StatefulPartitionedCall/first_keras/Reshape_19" type="Reshape" version="opset1">
			<data special_zero="false" />
			<input>
				<port id="0" precision="I64">
					<dim>1</dim>
					<dim>1</dim>
					<dim>64</dim>
				</port>
				<port id="1" precision="I64">
					<dim>1</dim>
				</port>
			</input>
			<output>
				<port id="2" precision="I64" names="StatefulPartitionedCall/first_keras/Reshape_19,StatefulPartitionedCall/first_keras/Reshape_19:0">
					<dim>64</dim>
				</port>
			</output>
		</layer>
		<layer id="111" name="StatefulPartitionedCall/first_keras/Gather_16/axis" type="Const" version="opset1">
			<data element_type="i64" shape="" offset="49932" size="8" />
			<output>
				<port id="0" precision="I64" names="StatefulPartitionedCall/first_keras/Gather_16/axis,StatefulPartitionedCall/first_keras/Gather_16/axis:0" />
			</output>
		</layer>
		<layer id="112" name="StatefulPartitionedCall/first_keras/Gather_16" type="Gather" version="opset8">
			<data batch_dims="0" />
			<input>
				<port id="0" precision="FP32">
					<dim>1984</dim>
					<dim>4</dim>
				</port>
				<port id="1" precision="I64">
					<dim>64</dim>
				</port>
				<port id="2" precision="I64" />
			</input>
			<output>
				<port id="3" precision="FP32" names="StatefulPartitionedCall/first_keras/Gather_16,StatefulPartitionedCall/first_keras/Gather_16:0,StatefulPartitionedCall/first_keras/Identity_16,StatefulPartitionedCall/first_keras/Identity_16:0">
					<dim>64</dim>
					<dim>4</dim>
				</port>
			</output>
		</layer>
		<layer id="113" name="StatefulPartitionedCall/first_keras/Reshape_20/shape" type="Const" version="opset1">
			<data element_type="i32" shape="3" offset="89628" size="12" />
			<output>
				<port id="0" precision="I32" names="StatefulPartitionedCall/first_keras/Reshape_20/shape,StatefulPartitionedCall/first_keras/Reshape_20/shape:0">
					<dim>3</dim>
				</port>
			</output>
		</layer>
		<layer id="114" name="StatefulPartitionedCall/first_keras/Reshape_20" type="Reshape" version="opset1">
			<data special_zero="false" />
			<input>
				<port id="0" precision="FP32">
					<dim>64</dim>
					<dim>4</dim>
				</port>
				<port id="1" precision="I32">
					<dim>3</dim>
				</port>
			</input>
			<output>
				<port id="2" precision="FP32" names="StatefulPartitionedCall/first_keras/Reshape_20,StatefulPartitionedCall/first_keras/Reshape_20:0">
					<dim>1</dim>
					<dim>64</dim>
					<dim>4</dim>
				</port>
			</output>
		</layer>
		<layer id="115" name="StatefulPartitionedCall/first_keras/Sum/reduction_indices" type="Const" version="opset1">
			<data element_type="i32" shape="1" offset="48128" size="4" />
			<output>
				<port id="0" precision="I32" names="StatefulPartitionedCall/first_keras/Sum/reduction_indices,StatefulPartitionedCall/first_keras/Sum/reduction_indices:0">
					<dim>1</dim>
				</port>
			</output>
		</layer>
		<layer id="116" name="StatefulPartitionedCall/first_keras/Sum" type="ReduceSum" version="opset1">
			<data keep_dims="false" />
			<input>
				<port id="0" precision="FP32">
					<dim>1</dim>
					<dim>64</dim>
					<dim>4</dim>
				</port>
				<port id="1" precision="I32">
					<dim>1</dim>
				</port>
			</input>
			<output>
				<port id="2" precision="FP32" names="Func/StatefulPartitionedCall/output/_8,Func/StatefulPartitionedCall/output/_8:0,Identity,Identity:0,StatefulPartitionedCall/Identity,StatefulPartitionedCall/Identity:0,StatefulPartitionedCall/first_keras/Sum,StatefulPartitionedCall/first_keras/Sum:0">
					<dim>1</dim>
					<dim>4</dim>
				</port>
			</output>
		</layer>
		<layer id="117" name="Identity" type="Result" version="opset1">
			<input>
				<port id="0" precision="FP32">
					<dim>1</dim>
					<dim>4</dim>
				</port>
			</input>
		</layer>
	</layers>
	<edges>
		<edge from-layer="0" from-port="0" to-layer="87" to-port="0" />
		<edge from-layer="0" from-port="0" to-layer="5" to-port="0" />
		<edge from-layer="0" from-port="0" to-layer="26" to-port="0" />
		<edge from-layer="0" from-port="0" to-layer="58" to-port="0" />
		<edge from-layer="1" from-port="0" to-layer="112" to-port="0" />
		<edge from-layer="2" from-port="0" to-layer="83" to-port="0" />
		<edge from-layer="2" from-port="0" to-layer="22" to-port="0" />
		<edge from-layer="2" from-port="0" to-layer="54" to-port="0" />
		<edge from-layer="3" from-port="0" to-layer="5" to-port="1" />
		<edge from-layer="4" from-port="0" to-layer="5" to-port="2" />
		<edge from-layer="5" from-port="3" to-layer="10" to-port="0" />
		<edge from-layer="5" from-port="3" to-layer="7" to-port="0" />
		<edge from-layer="6" from-port="0" to-layer="7" to-port="1" />
		<edge from-layer="7" from-port="2" to-layer="8" to-port="0" />
		<edge from-layer="8" from-port="1" to-layer="12" to-port="0" />
		<edge from-layer="9" from-port="0" to-layer="10" to-port="1" />
		<edge from-layer="10" from-port="2" to-layer="11" to-port="0" />
		<edge from-layer="11" from-port="1" to-layer="12" to-port="1" />
		<edge from-layer="12" from-port="2" to-layer="13" to-port="0" />
		<edge from-layer="13" from-port="1" to-layer="16" to-port="0" />
		<edge from-layer="14" from-port="0" to-layer="16" to-port="1" />
		<edge from-layer="15" from-port="0" to-layer="16" to-port="2" />
		<edge from-layer="16" from-port="3" to-layer="18" to-port="0" />
		<edge from-layer="17" from-port="0" to-layer="18" to-port="1" />
		<edge from-layer="18" from-port="2" to-layer="20" to-port="0" />
		<edge from-layer="19" from-port="0" to-layer="20" to-port="1" />
		<edge from-layer="20" from-port="2" to-layer="40" to-port="1" />
		<edge from-layer="20" from-port="2" to-layer="45" to-port="1" />
		<edge from-layer="20" from-port="2" to-layer="22" to-port="1" />
		<edge from-layer="20" from-port="2" to-layer="29" to-port="1" />
		<edge from-layer="21" from-port="0" to-layer="22" to-port="2" />
		<edge from-layer="22" from-port="3" to-layer="24" to-port="0" />
		<edge from-layer="23" from-port="0" to-layer="24" to-port="1" />
		<edge from-layer="24" from-port="2" to-layer="26" to-port="1" />
		<edge from-layer="25" from-port="0" to-layer="26" to-port="2" />
		<edge from-layer="26" from-port="3" to-layer="32" to-port="0" />
		<edge from-layer="26" from-port="3" to-layer="34" to-port="0" />
		<edge from-layer="27" from-port="0" to-layer="60" to-port="0" />
		<edge from-layer="27" from-port="0" to-layer="89" to-port="0" />
		<edge from-layer="27" from-port="0" to-layer="29" to-port="0" />
		<edge from-layer="28" from-port="0" to-layer="29" to-port="2" />
		<edge from-layer="29" from-port="3" to-layer="31" to-port="0" />
		<edge from-layer="30" from-port="0" to-layer="31" to-port="1" />
		<edge from-layer="31" from-port="2" to-layer="32" to-port="1" />
		<edge from-layer="31" from-port="2" to-layer="34" to-port="1" />
		<edge from-layer="32" from-port="2" to-layer="33" to-port="0" />
		<edge from-layer="33" from-port="1" to-layer="36" to-port="0" />
		<edge from-layer="34" from-port="2" to-layer="35" to-port="0" />
		<edge from-layer="35" from-port="1" to-layer="36" to-port="1" />
		<edge from-layer="36" from-port="2" to-layer="37" to-port="0" />
		<edge from-layer="37" from-port="1" to-layer="48" to-port="0" />
		<edge from-layer="38" from-port="0" to-layer="70" to-port="0" />
		<edge from-layer="38" from-port="0" to-layer="99" to-port="0" />
		<edge from-layer="38" from-port="0" to-layer="40" to-port="0" />
		<edge from-layer="39" from-port="0" to-layer="40" to-port="2" />
		<edge from-layer="40" from-port="3" to-layer="42" to-port="0" />
		<edge from-layer="41" from-port="0" to-layer="42" to-port="1" />
		<edge from-layer="42" from-port="2" to-layer="48" to-port="1" />
		<edge from-layer="43" from-port="0" to-layer="103" to-port="0" />
		<edge from-layer="43" from-port="0" to-layer="74" to-port="0" />
		<edge from-layer="43" from-port="0" to-layer="45" to-port="0" />
		<edge from-layer="44" from-port="0" to-layer="45" to-port="2" />
		<edge from-layer="45" from-port="3" to-layer="47" to-port="0" />
		<edge from-layer="46" from-port="0" to-layer="47" to-port="1" />
		<edge from-layer="47" from-port="2" to-layer="48" to-port="2" />
		<edge from-layer="48" from-port="3" to-layer="50" to-port="0" />
		<edge from-layer="49" from-port="0" to-layer="50" to-port="1" />
		<edge from-layer="50" from-port="2" to-layer="52" to-port="0" />
		<edge from-layer="51" from-port="0" to-layer="52" to-port="1" />
		<edge from-layer="52" from-port="2" to-layer="74" to-port="1" />
		<edge from-layer="52" from-port="2" to-layer="54" to-port="1" />
		<edge from-layer="52" from-port="2" to-layer="70" to-port="1" />
		<edge from-layer="52" from-port="2" to-layer="60" to-port="1" />
		<edge from-layer="53" from-port="0" to-layer="54" to-port="2" />
		<edge from-layer="54" from-port="3" to-layer="56" to-port="0" />
		<edge from-layer="55" from-port="0" to-layer="56" to-port="1" />
		<edge from-layer="56" from-port="2" to-layer="58" to-port="1" />
		<edge from-layer="57" from-port="0" to-layer="58" to-port="2" />
		<edge from-layer="58" from-port="3" to-layer="65" to-port="0" />
		<edge from-layer="58" from-port="3" to-layer="63" to-port="0" />
		<edge from-layer="59" from-port="0" to-layer="60" to-port="2" />
		<edge from-layer="60" from-port="3" to-layer="62" to-port="0" />
		<edge from-layer="61" from-port="0" to-layer="62" to-port="1" />
		<edge from-layer="62" from-port="2" to-layer="63" to-port="1" />
		<edge from-layer="62" from-port="2" to-layer="65" to-port="1" />
		<edge from-layer="63" from-port="2" to-layer="64" to-port="0" />
		<edge from-layer="64" from-port="1" to-layer="67" to-port="0" />
		<edge from-layer="65" from-port="2" to-layer="66" to-port="0" />
		<edge from-layer="66" from-port="1" to-layer="67" to-port="1" />
		<edge from-layer="67" from-port="2" to-layer="68" to-port="0" />
		<edge from-layer="68" from-port="1" to-layer="77" to-port="0" />
		<edge from-layer="69" from-port="0" to-layer="70" to-port="2" />
		<edge from-layer="70" from-port="3" to-layer="72" to-port="0" />
		<edge from-layer="71" from-port="0" to-layer="72" to-port="1" />
		<edge from-layer="72" from-port="2" to-layer="77" to-port="1" />
		<edge from-layer="73" from-port="0" to-layer="74" to-port="2" />
		<edge from-layer="74" from-port="3" to-layer="76" to-port="0" />
		<edge from-layer="75" from-port="0" to-layer="76" to-port="1" />
		<edge from-layer="76" from-port="2" to-layer="77" to-port="2" />
		<edge from-layer="77" from-port="3" to-layer="79" to-port="0" />
		<edge from-layer="78" from-port="0" to-layer="79" to-port="1" />
		<edge from-layer="79" from-port="2" to-layer="81" to-port="0" />
		<edge from-layer="80" from-port="0" to-layer="81" to-port="1" />
		<edge from-layer="81" from-port="2" to-layer="89" to-port="1" />
		<edge from-layer="81" from-port="2" to-layer="83" to-port="1" />
		<edge from-layer="81" from-port="2" to-layer="103" to-port="1" />
		<edge from-layer="81" from-port="2" to-layer="99" to-port="1" />
		<edge from-layer="82" from-port="0" to-layer="83" to-port="2" />
		<edge from-layer="83" from-port="3" to-layer="85" to-port="0" />
		<edge from-layer="84" from-port="0" to-layer="85" to-port="1" />
		<edge from-layer="85" from-port="2" to-layer="87" to-port="1" />
		<edge from-layer="86" from-port="0" to-layer="87" to-port="2" />
		<edge from-layer="87" from-port="3" to-layer="92" to-port="0" />
		<edge from-layer="87" from-port="3" to-layer="94" to-port="0" />
		<edge from-layer="88" from-port="0" to-layer="89" to-port="2" />
		<edge from-layer="89" from-port="3" to-layer="91" to-port="0" />
		<edge from-layer="90" from-port="0" to-layer="91" to-port="1" />
		<edge from-layer="91" from-port="2" to-layer="94" to-port="1" />
		<edge from-layer="91" from-port="2" to-layer="92" to-port="1" />
		<edge from-layer="92" from-port="2" to-layer="93" to-port="0" />
		<edge from-layer="93" from-port="1" to-layer="96" to-port="0" />
		<edge from-layer="94" from-port="2" to-layer="95" to-port="0" />
		<edge from-layer="95" from-port="1" to-layer="96" to-port="1" />
		<edge from-layer="96" from-port="2" to-layer="97" to-port="0" />
		<edge from-layer="97" from-port="1" to-layer="106" to-port="0" />
		<edge from-layer="98" from-port="0" to-layer="99" to-port="2" />
		<edge from-layer="99" from-port="3" to-layer="101" to-port="0" />
		<edge from-layer="100" from-port="0" to-layer="101" to-port="1" />
		<edge from-layer="101" from-port="2" to-layer="106" to-port="1" />
		<edge from-layer="102" from-port="0" to-layer="103" to-port="2" />
		<edge from-layer="103" from-port="3" to-layer="105" to-port="0" />
		<edge from-layer="104" from-port="0" to-layer="105" to-port="1" />
		<edge from-layer="105" from-port="2" to-layer="106" to-port="2" />
		<edge from-layer="106" from-port="3" to-layer="108" to-port="0" />
		<edge from-layer="107" from-port="0" to-layer="108" to-port="1" />
		<edge from-layer="108" from-port="2" to-layer="110" to-port="0" />
		<edge from-layer="109" from-port="0" to-layer="110" to-port="1" />
		<edge from-layer="110" from-port="2" to-layer="112" to-port="1" />
		<edge from-layer="111" from-port="0" to-layer="112" to-port="2" />
		<edge from-layer="112" from-port="3" to-layer="114" to-port="0" />
		<edge from-layer="113" from-port="0" to-layer="114" to-port="1" />
		<edge from-layer="114" from-port="2" to-layer="116" to-port="0" />
		<edge from-layer="115" from-port="0" to-layer="116" to-port="1" />
		<edge from-layer="116" from-port="2" to-layer="117" to-port="0" />
	</edges>
	<rt_info>
		<MO_version value="2022.3.0-9052-9752fafe8eb-releases/2022/3" />
		<Runtime_version value="2022.3.0-9052-9752fafe8eb-releases/2022/3" />
		<conversion_parameters>
			<framework value="tf" />
			<input_shape value="[1,8]" />
			<model_name value="TT_scaling_depth_4" />
			<output_dir value="DIR" />
			<saved_model_dir value="DIR" />
			<use_new_frontend value="True" />
		</conversion_parameters>
		<legacy_frontend value="False" />
	</rt_info>
</net>
